models/rl/sarl_cv/il_model.pth (torch_old, 389084 bytes, 20 tensors)

mlp1.0.weight f4 [150, 13]
000000 f2 3b 3c be f8 a7 0e be da e9 77 be f4 fe 15 be
       -0.18382242 -0.13931262 -0.24210301 -0.14648038
000010 48 c8 6d be 4c 38 8e bd 23 37 8b 3e f9 62 2b bd
       -0.23220932 -0.069443315 0.27190503 -0.041842435
000020 30 9b 8c 3e 47 fb 20 be 98 d1 23 be 93 4f 85 3e
       0.2746215 -0.15720855 -0.15997922 0.26037273
000030 66 da c2 3d e2 5d 5f 3c e5 4c ce b9 88 13 05 3d
       0.095143124 0.013633223 -0.00039348673 0.03248933
000040 a8 8b dc 3d e7 cc 52 3e 94 45 88 be 57 f8 8f be
       0.10768825 0.20585977 -0.26615584 -0.28119156
000050 a2 ca 5d be 26 6a 51 be 0a 84 89 bd 13 c8 2d 3d
       -0.2165933 -0.20450649 -0.067146376 0.042427134
000060 86 df 5d 3d db a1 2b 3d 22 c1 08 be 9c 16 8c be
       0.054168247 0.041902404 -0.13354924 -0.27361
000070 e8 4e 4e 3d 14 2b 29 3e 06 15 a2 3d 5d 02 39 3e
       0.05036822 0.16520339 0.07914166 0.18067308
000080 23 f1 6e 3d 0b 74 82 3e fe 91 50 be 88 ac 0a 3e
       0.058335435 0.2547916 -0.20368192 0.13542378
000090 46 75 85 bd fd 45 63 3c fb 15 e0 3d 1c 80 25 3e
       -0.06516509 0.013871667 0.109416924 0.16162151
0000a0 22 c2 40 3e fe ca eb bd 47 78 ee bd fa 1b f0 3a
       0.18824056 -0.11513327 -0.11644035 0.0018318885
0000b0 01 f8 5f be 64 52 8f be 78 36 1d bd 97 84 7e be
       -0.2187195 -0.27992547 -0.038382024 -0.24855267
0000c0 95 c6 7a bd 77 0c b3 3d cf 3a 62 bd ad 4c 7c bc
       -0.06122454 0.08742612 -0.055231865 -0.01539914
0000d0 f7 42 04 bd 8e eb 3c be b0 2b 0a be d0 74 dc 3d
       -0.032290425 -0.18449232 -0.13493228 0.10764468
0000e0 74 d2 1b be c6 1e ba 3d ab f9 57 be ba 31 61 3e
       -0.15217 0.09087901 -0.21091335 0.21991625
0000f0 c5 f9 7c be 97 f2 12 be 74 fc 88 be 8d 3b 14 3e
       -0.24704655 -0.14350353 -0.26755106 0.14475842
000100 dc da a4 3d e4 91 2f bd 92 42 f8 bd e7 e8 7f be
       0.080495566 -0.04286374 -0.12122072 -0.24991189
000110 ba 43 36 3e ef e8 48 3d a7 18 13 bd c1 af f9 3d
       0.17799273 0.049050268 -0.035912182 0.121917255
000120 7d 33 60 be e5 d7 63 bd 4a a5 86 3e 36 fd 1a be
       -0.21894641 -0.055625815 0.2629798 -0.15135655
000130 b8 ad 0f 3d 8f b9 f1 3d d3 76 b4 bc 3a 18 0f 3e
       0.03507778 0.118029706 -0.022029316 0.13974085
000140 10 56 8e 3d e3 7f d8 3d fa a7 2d 3e 11 38 86 3e
       0.06950009 0.105712675 0.16958609 0.2621465
000150 fc 09 92 3e ac e7 8e be 17 9b dc bd 2e a5 3b 3e
       0.28523242 -0.27911127 -0.107717685 0.1832473
000160 f7 76 31 3e 7b 4f 87 bd cd 74 1a 3e b6 92 39 3d
       0.17330538 -0.066069566 0.15083618 0.04530593
000170 c6 83 8f bc 19 f1 86 3e 56 e9 4c be b7 67 24 3e
       -0.01751889 0.26355818 -0.20010886 0.16055189
000180 69 ef d1 bc 53 10 5b 3e 00 01 44 be a1 fd 8e be
       -0.025626855 0.21392946 -0.19141006 -0.27927878
000190 38 94 de 3b ab 59 c0 3b c9 6b e9 bd 1c 28 8d 3e
       0.0067925714 0.0058700643 -0.113975115 0.27569664
0001a0 5d c6 72 be ff 29 0c bd 6e 87 1f 3e da 10 d4 3d
       -0.23708482 -0.034219738 0.15579006 0.10354777
0001b0 d1 b8 4f 3d 44 3e 8e bd 08 5d 26 3e 7e d9 47 be
       0.050713364 -0.0694547 0.16246426 -0.1951656
0001c0 95 c4 06 be d8 a0 a6 3c e4 14 4d 3e 26 b7 68 3e
       -0.13160928 0.020340368 0.200275 0.22726116
0001d0 e6 5a 7a 3d ee a6 4e 3c 2b c1 0f 3d 34 93 e6 3d
       0.061121844 0.012613041 0.03509633 0.112585455
0001e0 92 e7 86 bd c9 ce 23 be 4d 68 d2 bd 65 99 1c be
       -0.06587137 -0.15996851 -0.102738 -0.1529289
0001f0 e1 f1 0d 3e 81 25 1c 3e 21 95 41 3e 53 f6 5e 3d
       0.138618 0.15248682 0.18904544 0.05443413
000200 b9 77 4d 3d 02 82 1f bd b8 c4 7e 3e 64 6d 43 3e
       0.050163005 -0.038942344 0.2487973 0.19084698
000210 54 3a f5 3d 2e 9b b6 3d 64 12 21 be 49 b4 81 3d
       0.11974016 0.08916317 -0.15729672 0.06333215
000220 47 3f 0b be 21 a5 80 be 5b 43 6e 3e 8d be fa bc
       -0.13598357 -0.25125983 0.23267882 -0.03060844
000230 82 15 46 be 49 ac ad bd 81 f2 45 3d 11 99 1a bd
       -0.19344142 -0.084801264 0.048326973 -0.03774363
000240 4b 8e a0 bd 9c bf c6 3d 30 c5 e7 3d 46 e5 92 3d
       -0.0783964 0.09704515 0.113169074 0.07172637
000250 af fd bb bd 2f 37 94 be 02 cb 9c 3c 34 d7 93 be
       -0.09179246 -0.28948352 0.01913977 -0.28875124
000260 40 4b 38 bd 8f e6 2d 3e 4e 00 8f 3e a6 33 50 3e
       -0.04499364 0.16982482 0.2792992 0.20332202
000270 d6 61 0b bd 6e 97 30 be 16 27 4c 3e 45 f0 18 be
       -0.03402885 -0.17245266 0.19936785 -0.14935406
000280 94 52 ee bc 1d 7f 7c 3b 54 04 32 be 48 ce 8d 3e
       -0.02909211 0.0038527914 -0.17384464 0.27696443
000290 30 35 a5 bc 80 0d 56 3e d3 28 83 be 27 d2 f0 3d
       -0.020166963 0.20903587 -0.25617084 0.117588334
0002a0 60 5d 7b be 33 f6 91 3d 58 ae f5 bd 16 59 32 be
       -0.24547338 0.07127037 -0.11996144 -0.17416796
0002b0 b7 85 32 3e b2 ab 4e bd 9b de 39 3e f8 a1 d5 3d
       0.1743382 -0.05045671 0.18151323 0.10431284
0002c0 92 db 82 bc 76 6e e7 3d ef 70 77 3e c3 22 46 3e
       -0.01597384 0.113003656 0.24164174 0.19349198
0002d0 77 82 36 3c c7 4f 2d 3d 7b 21 a5 3d c9 7c ea 3d
       0.011139504 0.04231241 0.080630265 0.11449582
0002e0 50 e0 1c 3e e9 c2 84 be 84 7b 04 be 40 0e 3c be
       0.15319943 -0.25929955 -0.12937742 -0.18364811
0002f0 3d f3 c8 bd fe db 60 bd d0 2c 41 be 11 a9 40 be
       -0.09812019 -0.0548973 -0.18864751 -0.18814494
000300 38 0c 09 3e f2 22 6c 3c 8e 46 34 3e a3 8a ff 3c
       0.13383567 0.0144126285 0.1760504 0.031194037
000310 a5 b9 8d 3d 44 5c 54 bd 66 7f a3 3d 83 cd 5b 3e
       0.069201745 -0.051845804 0.07983284 0.21465115
000320 ea 2e 70 be d4 2e 62 3d b0 0a 81 3e 59 90 81 be
       -0.23455396 0.05522044 0.25203466 -0.2530544
000330 6d af 61 3d ef c0 8b 3e 2e 65 8d 3e b9 39 1b be
       0.05509894 0.27295634 0.27616256 -0.15158738
000340 a4 2c ab 3d a6 b2 80 3e e8 30 79 3d c1 b5 99 bd
       0.08358124 0.25136298 0.060837656 -0.0750537
000350 26 e7 6d bd 0a 64 44 be 25 db 67 bd ee ba 78 bd
       -0.05808177 -0.19178787 -0.056605477 -0.060725145
000360 d8 aa d4 3d 12 2c 4e be 7f eb 2b bd 79 03 b8 bd
       0.10384148 -0.20133999 -0.041972633 -0.08985037
000370 78 3d 55 bc b0 07 16 bd 54 9f 12 3d a2 7a 1e 3e
       -0.013015144 -0.036628425 0.03579648 0.15476468
000380 3b ee 3d bd cc 40 42 be da fc 98 3d 60 e5 49 be
       -0.046369772 -0.1897003 0.074701026 -0.19716406
000390 c7 91 4c bd aa 5b 47 3e ea c5 b3 3d 46 fd 6c be
       -0.04994371 0.19468561 0.087779835 -0.23143491
0003a0 f0 1c 5e 3e 12 0d 8d bd c5 3f 64 bc e4 87 4b 3e
       0.21690726 -0.068872586 -0.0139312195 0.19876057
0003b0 a4 4b 55 3e eb 41 4d bb 54 50 1a 3e 6f e9 66 3d
       0.20829636 -0.0031319808 0.15069705 0.056374963
0003c0 a0 79 83 3e 56 67 71 be fa 33 66 3e 90 36 c2 3d
       0.2567873 -0.23574576 0.22480765 0.09483063
0003d0 eb e4 72 3e c4 3d 8b 3e 7f be 64 be 37 2a cc 3d
       0.23720138 0.2719556 -0.22338293 0.09968989
0003e0 bf bb 38 3e 46 4c 09 be a2 38 1d be b6 e7 84 3e
       0.1804037 -0.13408002 -0.15353635 0.2595803
0003f0 12 dd 09 bd 5c 1c 03 be 13 08 37 3d 84 35 02 3e
       -0.033658095 -0.12803787 0.044685435 0.12715727

mlp1.0.bias f4 [150]
000000 2e f2 63 3e b5 a2 f5 bd b2 f2 4b 3e f5 3f bf bc
       0.22260353 -0.119939245 0.199168 -0.023345927
000010 9f 48 c9 bd 76 52 1d 3d b4 81 ab bc b3 18 6e be
       -0.098283045 0.03840872 -0.02093587 -0.2325161
000020 e5 f8 00 3d f6 91 67 3e 4e f6 14 3e 55 03 c6 3d
       0.031487364 0.22614273 0.14547083 0.09668604
000030 d0 71 68 3d 47 31 06 be a3 9f 4c 3e e4 dc 63 3e
       0.056749165 -0.13104735 0.19982772 0.22252232
000040 55 1e 23 bd d1 1e 83 3e f0 99 e8 bd 92 7c d0 bd
       -0.03982385 0.2560945 -0.11357486 -0.1018001
000050 28 ff 75 3d 9c a8 89 be 5b 1d 80 be 6d 1b 6f be
       0.06005779 -0.2688645 -0.25022396 -0.23350306
000060 e7 c9 0e 3e 18 ff 53 bc cd 3b 8b 3e bc 08 a4 3d
       0.13944207 -0.012939237 0.27194062 0.080094784
000070 78 b7 68 3d e2 69 22 be 97 0a 3f bd ca ce 83 be
       0.056815594 -0.15860704 -0.04664096 -0.25743705
000080 80 79 2b bc 0d ed da 3d 26 ef 00 be 18 1f 40 3e
       -0.01046598 0.10689745 -0.12591228 0.18761861
000090 73 a4 3c 3e 51 9d 39 bd 6f e0 b8 bb f6 aa 87 3e
       0.18422107 -0.045316044 -0.005641989 0.2649762
0000a0 69 22 7d be 7f 5a bb 3d 96 c1 1c be ac 67 b2 3b
       -0.24720158 0.0914812 -0.15308222 0.0054444876
0000b0 62 a9 5a be 98 d2 86 3e 12 18 87 3e dd e2 78 3e
       -0.21353677 0.26332545 0.26385552 0.24305291
0000c0 5b dd 83 3e b4 42 97 bd ff 2f 4f 3e 60 77 44 be
       0.25754818 -0.073857695 0.20233153 -0.19186163
0000d0 20 3f c6 bd 62 90 43 bd 92 61 f2 3d a3 3d 98 bd
       -0.09680009 -0.047745116 0.11835016 -0.07433631
0000e0 ba b9 bc bd be 99 3a 3e b4 3f 0d be 2b 61 63 3e
       -0.09215112 0.1822271 -0.13793832 0.22205035
0000f0 a0 9b f3 bd 96 51 14 3d 7c f0 94 3d 7c 3b 43 be
       -0.118949175 0.03621062 0.07272431 -0.1906566
000100 22 f0 3e 3e b2 ff 53 3e bd 84 43 3e 3d 4a 82 be
       0.18646291 0.20703009 0.19093604 -0.25447264
000110 0f 72 ce bd 23 38 84 be f5 8a 86 be 92 3a 2f 3d
       -0.10080349 -0.2582408 -0.2627789 0.042780466
000120 92 b5 05 3e c0 d1 2d be fd 97 87 3e 00 fe 27 be
       0.13057545 -0.16974545 0.26483145 -0.16405487
000130 8d 97 56 be 72 ea 69 be b9 a1 2d 3e 23 1f ef 3d
       -0.2095625 -0.2284334 0.16956224 0.11675861
000140 d8 90 3d be 3a 2f 53 3e bf cd 76 be fe 5f cb 3d
       -0.18512285 0.20623484 -0.24101923 0.099304184
000150 45 f2 1f 3e 64 35 9f bd f2 fe d4 3c 17 dd 78 3b
       0.15619762 -0.07773855 0.026000474 0.0037973577
000160 0d 99 49 3e 40 87 56 3c fb 99 2f 3e 55 1a 6b be
       0.1968729 0.01309377 0.17148583 -0.22959264
000170 9d c4 f7 3c 91 a2 06 be a3 a9 fc 3d 3e a2 82 3d
       0.03024512 -0.13147952 0.12337043 0.063786015
000180 b5 da 2f be b4 0e 09 bd 91 62 70 bd 59 26 96 3d
       -0.17173274 -0.033461288 -0.05868775 0.07331533
000190 90 6a 64 3c a8 54 e9 bd 78 25 71 3e 79 df 44 3e
       0.013941422 -0.113931 0.2354945 0.19225873
0001a0 ab a6 c3 3c dc 32 f5 3d a0 77 0e be c0 74 86 be
       0.023883184 0.11972591 -0.13912821 -0.26260948
0001b0 4b 0e dd 3d 90 f6 8b bd da df 2e 3e 12 79 57 3e
       0.10793742 -0.068341374 0.1707758 0.21042278
0001c0 62 62 2f 3e 24 dd 84 3e 2c 53 00 3d e9 48 80 bb
       0.17127374 0.25949967 0.03132932 -0.0039149416
0001d0 a9 7f 88 be 5d 44 f8 bc 85 5e 82 3e a2 d3 cc 3d
       -0.26659897 -0.030306036 0.25462738 0.10001303
0001e0 61 fe 36 be dd 61 8c be ae fb 2d 3d 6f f2 3e 3e
       -0.17870475 -0.27418414 0.04247635 0.18647169
0001f0 d7 ba a6 3d 44 5a 8a bd 4d 3b 35 bd 42 7c 80 be
       0.081411056 -0.06755498 -0.044246007 -0.250948
000200 6a 07 3a 3e 82 34 88 be b9 ba 65 be bc 93 54 be
       0.1816689 -0.2660256 -0.2243451 -0.20759481
000210 23 6a 46 3e bf 5a 34 be b2 b9 11 be 8a e8 6c be
       0.19376425 -0.17612742 -0.14230993 -0.23135582
000220 ce 0d 42 be 35 15 70 3e 14 35 78 bd fe 41 51 3d
       -0.18950579 0.2344559 -0.060597494 0.051088326
000230 d4 6f 5f 3c 1a c0 2f be 8d 71 32 be 92 6f a5 bd
       0.013637502 -0.17163125 -0.17426129 -0.08077921
000240 3a 24 7b bd a3 3c 18 be 95 17 ee bc 2c b9 01 3d
       -0.061313845 -0.14866881 -0.02906398 0.031670734
000250 9c 46 87 be 96 14 4c 3e
       -0.26421058 0.19929728

mlp1.2.weight f4 [100, 150]
000000 35 88 a9 bc c9 d1 93 bb 40 72 9a 3c ec 31 b6 3d
       -0.020694831 -0.0045110923 0.018853307 0.088962406
000010 4b c3 2d 3c 88 4e 8d 3d 5d e2 e5 bb 40 ad 1d 3d
       0.0106056435 0.06899744 -0.00701551 0.038495302
000020 0b 17 98 3c 82 c0 9a bd 96 34 43 3d fb ae 83 3d
       0.018565675 -0.07556249 0.04765757 0.06429859
000030 4f ee 26 bd 61 28 a2 3a 14 e1 32 3c 38 7d 01 bd
       -0.040754613 0.0012371653 0.010917921 -0.03161356
000040 54 28 8f 3d a9 74 38 3d 3e 77 83 3d 65 0c 03 3b
       0.06990114 0.04503313 0.06419228 0.0019996401
000050 ca c9 8e 3d 84 3b 55 3d b6 08 a0 bd 38 c3 46 3c
       0.06972082 0.05205871 -0.078141615 0.012131505
000060 37 c5 d2 3b 8d 32 43 3d 42 b1 67 3d ce af 88 3c
       0.0064322012 0.04765563 0.05656553 0.016685393
000070 3d 39 1b bd a4 47 ae 3d fe 24 5c 3d a5 0b 04 bd
       -0.037896384 0.08509758 0.053746216 -0.032237668
000080 f0 31 46 bd 5b 56 93 bd 5a ba ab bd 2f 60 8b bd
       -0.048387468 -0.071942054 -0.08385153 -0.06805455
000090 b1 2f 9b bd e3 76 af bc cf b1 67 3d e6 f4 cf bc
       -0.07577456 -0.021418994 0.056566056 -0.025385331
0000a0 55 7f c4 bc 32 95 28 3d fd d0 36 3d 8c 44 34 bc
       -0.023986498 0.04115791 0.0446329 -0.011002671
0000b0 bb 8d 83 bd e2 26 90 3d 9e cc 75 3c ac 43 f9 3c
       -0.06423517 0.07038666 0.015002398 0.030427776
0000c0 d4 c1 07 3d 63 3a 4d 3d b0 9b 1d bd da 86 0c bc
       0.033143833 0.05010451 -0.038478553 -0.008577073
0000d0 83 41 55 3d ec 7c 81 3d a6 8c 86 bd e7 ff b1 3c
       0.05206443 0.06322655 -0.06569795 0.021728469
0000e0 ab 70 5c bc f8 19 1e 3c a6 09 16 bd d9 9e a7 bd
       -0.0134545965 0.009649746 -0.036630295 -0.08184595
0000f0 f9 69 18 bd 06 f7 99 bd 2b 27 c2 3c 2b df 32 bd
       -0.03721044 -0.07517819 0.023700317 -0.04366986
000100 1f a2 82 3d 15 03 ba 3a 84 8a 12 3d af 06 38 3c
       0.063785784 0.0014191592 0.03577663 0.011232062
000110 30 e5 d0 3a 10 c4 98 3d bf 61 82 3d 5f be 96 bd
       0.0015937444 0.07459271 0.063663 -0.07360529
000120 68 40 b4 bc 5c 1a e3 3c 58 24 5f 3d d8 06 6c 3d
       -0.022003368 0.02772253 0.05447802 0.057623714
000130 59 13 6c 3d 97 f5 18 bc c4 ba 33 bd 9c 50 29 3d
       0.05763564 -0.009335897 -0.043879285 0.04133664
000140 2e 3d 68 3d 2f e7 bb bc a6 2f ac 3c 55 5d 1d 3d
       0.05669897 -0.022937385 0.021018814 0.038419086
000150 ca be 9b bd 27 26 40 3d 1e fe 53 3c de 40 a7 3c
       -0.076047495 0.046911385 0.012939004 0.020416673
000160 39 d9 1f 3d e2 9e 9c bc 72 57 20 bc 98 2d 1d 3d
       0.03902552 -0.01911873 -0.009786474 0.03837356
000170 fa 45 92 3d 11 f2 5e 3d 2b f7 3e bd 32 c9 4c 3d
       0.07142253 0.05443007 -0.046622436 0.049996562
000180 7e 5b 7f bd 6f 02 cd bd ba 0f 48 3c 10 93 95 bc
       -0.062343113 -0.1001023 0.012210781 -0.018258601
000190 d3 89 71 bd 4e bf 8a 3d a4 f2 2c bc 58 f5 7c 3d
       -0.05896933 0.0677477 -0.010555897 0.061757416
0001a0 d7 84 6e 3d 8f 42 35 b9 10 84 06 3b f9 06 e7 bb
       0.058232155 -0.000172863 0.0020525493 -0.0070503918
0001b0 de 2e 1e bd 47 62 ee bb e7 6f 98 bd 44 18 26 bd
       -0.038618915 -0.007274899 -0.07443219 -0.040550485
0001c0 36 d4 86 3d ad c0 01 3d 41 2a a8 3c 06 6b 49 3d
       0.06583445 0.03167789 0.02052796 0.04917433
0001d0 39 d6 bb bb 54 1e 35 bd fa 6a f9 3b 7a 9b 65 bd
       -0.0057323244 -0.044218376 0.0076116296 -0.056056477
0001e0 e8 c7 6c 3d 82 1b 00 bd 64 dd b4 3c b5 95 89 3d
       0.057807833 -0.031276233 0.022078224 0.067180075
0001f0 3c 34 32 bd 99 d9 1a bd f9 bc 26 bb 18 f7 53 bd
       -0.043506846 -0.037805174 -0.0025442226 -0.05174932
000200 24 a2 a1 3d d0 31 c5 39 d9 d4 4e 3c 55 c5 5a 3d
       0.07892254 0.0003761188 0.012623989 0.053410847
000210 dd 58 6c bb 5d 3d 0c 3b 14 85 c3 bc 66 73 a1 bd
       -0.0036063709 0.002139888 -0.023867168 -0.07883339
000220 a1 44 5e bd 35 79 9e bd f9 50 37 3d 31 f4 ac 3d
       -0.05426467 -0.07737962 0.044754956 0.08445013
000230 5a df 32 bd 1c f8 8e bb 25 87 78 3d c3 c3 90 3d
       -0.043670036 -0.004363073 0.06067576 0.070685886
000240 cf 99 05 bc 66 4c 80 3d dc 8f 49 bc f9 30 d8 3b
       -0.008154347 0.06264572 -0.012302365 0.006597635
000250 8b df 4e bd 65 72 d1 bc a6 f0 20 3d 06 9b 32 3d
       -0.050506156 -0.025567243 0.039292 0.043604873
000260 d1 8d a1 bd e8 a2 ae bd d2 f1 99 3c 49 3e c1 ba
       -0.078883775 -0.08527166 0.018792067 -0.0014743294
000270 9e bd ca 3d c0 ec 00 3d 78 81 16 3d d4 c9 ab bc
       0.09899448 0.031475782 0.036744565 -0.020970263
000280 ac 8c e8 bc 5c d2 c0 3a 83 82 95 bd 0b 8e 9f bd
       -0.02838739 0.001471113 -0.07300284 -0.077907644
000290 27 50 53 3d d7 68 a9 3d 8a ce 80 3d 50 63 7d bd
       0.05159011 0.0827195 0.06289394 -0.06186229
0002a0 3f 9b a5 3d a1 04 d5 bd 40 a4 73 3d 61 26 f6 bc
       0.080862515 -0.104012735 0.059482813 -0.030047597
0002b0 81 57 c1 bc a7 5a 9b bd 66 34 f7 bc e7 e6 95 bd
       -0.023601295 -0.0758565 -0.030176353 -0.07319432
0002c0 d2 ed a7 bd 6e cf 5a 3c 7b 4b 8d 3c da a8 bf 3c
       -0.081996575 0.013355119 0.017247906 0.023395944
0002d0 0c e3 4c bd 54 7a 89 3d 6b ba ae bc d2 d2 8d bd
       -0.050021216 0.06712785 -0.021329125 -0.069249764
0002e0 29 84 03 bd b4 de cc 3b 53 38 f9 bb 69 8c 98 bd
       -0.03210846 0.006252134 -0.0076055913 -0.07448656
0002f0 1b b1 97 bd 59 6b b8 bd 23 a9 2a bd 8f 24 12 3d
       -0.07406827 -0.0900485 -0.041665208 0.035679396
000300 a1 e0 a5 bd e4 b0 99 3d 09 61 a6 3d 03 1a 87 3d
       -0.08099485 0.07504442 0.08123977 0.06596758
000310 53 75 37 3c 3b ee 7a bd dd e2 ce bc 57 e1 48 bc
       0.011197406 -0.06126235 -0.025254661 -0.012260756
000320 32 e7 0f bd 4d 07 57 3d 19 d3 46 bc 8c 1d 4d 3b
       -0.035132594 0.052497197 -0.012135291 0.003129813
000330 18 89 57 3d 7f 31 f2 3c 61 1f 34 3c 52 92 64 3d
       0.052620977 0.029564617 0.010993809 0.055803604
000340 1a de 2d 3c b8 bb ca 3b 38 fe 79 3c cb 16 00 3d
       0.010612035 0.0061869286 0.015258364 0.031271737
000350 91 24 6e bd aa b0 01 bd 98 2d 63 bd 9e bc 83 bd
       -0.05814034 -0.03166262 -0.055463403 -0.0643246
000360 a7 88 e4 3a b2 09 32 3d 94 26 8d bd 63 c9 80 3d
       0.0017435745 0.043466277 -0.06892124 0.062884115
000370 56 58 a5 3c 87 bc 7a 3b 97 83 39 3d f4 81 73 bd
       0.020183723 0.0038259344 0.04529151 -0.059450105
000380 17 34 8c bc 89 67 9e 3d ef d8 c8 bc 56 5a 8c 3d
       -0.017114682 0.077345915 -0.024517504 0.06853168
000390 6c b3 22 3d ff f9 86 3d 24 43 d1 b9 48 51 72 bd
       0.03972189 0.06590652 -0.0003991361 -0.059159547
0003a0 95 55 57 bc fc 48 8b 3d d4 0f d4 bc 84 f9 63 bd
       -0.013142963 0.0680103 -0.025886454 -0.05565788
0003b0 ee 25 97 3d 83 2d 4f 3d ef 8c 55 3d 52 0e ca bd
       0.073802814 0.050580513 0.052136358 -0.09866013
0003c0 4f d0 86 3d af e1 8b 3d d6 87 26 bc c7 07 05 bd
       0.065827005 0.06830155 -0.010164222 -0.03247812
0003d0 02 c6 e7 3c ea 1c b7 3c 89 90 14 bd 41 16 8d 3d
       0.02829266 0.022352654 -0.036270652 0.0688901
0003e0 e2 a8 33 3c 2a 42 ac bc 48 46 3c 3d 2e ef 6c bd
       0.010965558 -0.021027643 0.045965463 -0.057845287
0003f0 7e d4 38 3d 5d 21 93 3c 1b 67 a1 bd 58 01 82 bd
       0.045124523 0.017960245 -0.07880994 -0.063479125

mlp1.2.bias f4 [100]
000000 11 ee 9a 3d b8 e1 10 3d d3 69 a3 bc 82 76 a2 3d
       0.07564939 0.035371512 -0.019947922 0.0793276
000010 30 29 91 3d c1 c0 79 3c 86 8e 11 3d d6 64 b4 bc
       0.07087934 0.01524371 0.03553631 -0.022020739
000020 91 0c fa bc 00 2c b4 bb a2 b9 5c bc 5f dc e1 3b
       -0.03052357 -0.0054984093 -0.013471993 0.0068927254
000030 34 ab 85 bd 2c 67 53 bd 6a a2 94 ba a6 aa 0f bd
       -0.06526795 -0.051612064 -0.0011339907 -0.035074852
000040 62 f8 ee 3c 7b cd c3 3c 36 5b 32 3d a0 ca f4 bb
       0.029171173 0.023901692 0.043544017 -0.007470444
000050 d0 1c 74 3d 60 c6 5f bd e9 08 8c bd 1f 7e 5c 3d
       0.05959779 -0.054632545 -0.06837637 0.053831216
000060 20 6f 00 bb 7a 08 5c 3c e7 fc 6f bd 7d 8e 11 3d
       -0.0019597486 0.013429755 -0.058590796 0.035536278
000070 9a 3b e7 bb 72 97 9d bd fd 33 a1 bd 28 f4 c6 bd
       -0.0070566656 -0.076949015 -0.07871244 -0.09714538
000080 3e 7c 18 bd 24 a5 6d 3d c0 dc ad 3d f9 66 b4 bc
       -0.03722786 0.05801882 0.0848937 -0.022021757
000090 ae 4f 4e 3d 49 8c 3a bd 84 7a ae 3c 52 86 4f bd
       0.050368957 -0.045543943 0.021298654 -0.050665207
0000a0 d1 09 93 bd ba 42 25 bd cb 94 6f 3b 64 39 23 3c
       -0.07179607 -0.04034684 0.0036557193 0.009962413
0000b0 70 6b 1a bd 74 a7 0d 3c c0 d4 8d 3c 02 c6 80 3b
       -0.037700117 0.008645881 0.017313361 0.0039298544
0000c0 f1 81 1d 3a df 47 65 39 14 0f 31 3d 7b 04 d9 bc
       0.00060084375 0.00021865916 0.04322727 -0.026491394
0000d0 f0 cd 91 bd 37 66 bb bb 0e 86 56 bd dc b7 54 3c
       -0.071193576 -0.005718972 -0.05237394 0.012983289
0000e0 97 40 1a b5 53 95 07 3d 0b 92 92 3d 26 37 4d bd
       -5.746346e-07 0.03310139 0.07156762 -0.05010142
0000f0 de c3 15 bd 11 16 d4 3a 3a ea a7 bd 2e 56 81 bd
       -0.036563747 0.0016180893 -0.08198972 -0.063152656
000100 5d 34 4b bd 61 3d 0e 3c f8 a6 da 3c 65 b7 24 bd
       -0.049610484 0.008681626 0.026690945 -0.04021396
000110 cf 68 8c bd 86 d7 87 3d 15 70 a3 3c 7d 56 a3 bd
       -0.06855928 0.06632905 0.019950906 -0.07975481
000120 79 ed c0 3c 7c 0c 5b 3d 07 c9 0e bc b1 20 8a bd
       0.023550736 0.053478703 -0.008714921 -0.06744517
000130 57 9e 99 3d 14 54 58 bd 08 ab 32 bd c6 51 a3 3a
       0.07500904 -0.05281456 -0.04362014 0.0012460283
000140 c4 20 f4 3c ac 3c f3 3c 47 90 71 bd 22 5d e2 ba
       0.02980078 0.029692017 -0.058975484 -0.0017270187
000150 37 66 04 3d 4a 2a dd 3d 6f 9e ff 3c e1 7d 3d 3d
       0.032324042 0.107990816 0.031203477 0.046262626
000160 5f 41 81 3c 7d 0c 19 bd b7 65 3d 3d e1 e2 5f bd
       0.015778242 -0.037365425 0.04623958 -0.054659728
000170 fa 37 af 3b 6a 0e 61 3d ea 18 2d bd 09 ab ae 3b
       0.005347249 0.054945387 -0.042260088 0.0053304476
000180 77 b1 5c 3d f4 1c 3e 3c a4 d8 aa bc 06 09 b7 3d
       0.05388018 0.011603583 -0.020855255 0.08937268

mlp2.0.weight f4 [100, 100]
000000 dc 54 be bd 9a 80 86 bd 7b ff 4d 3d f2 8f 45 3d
       -0.092935294 -0.065674976 0.050292473 0.04823298
000010 d0 7e 04 3c fa e7 65 bd e2 d4 64 bd af 3c 7b 3d
       0.008086875 -0.056129433 -0.055867083 0.06133717
000020 1d 7d cb 3d a2 a3 67 3d 62 c7 22 3d 2a 48 3e bd
       0.09935973 0.056552537 0.039740928 -0.04645554
000030 33 8c 2c bd 50 dd 20 bc a9 6b e6 bb 15 3c 5a bd
       -0.042125892 -0.00981839 -0.007031877 -0.053279955
000040 ff b1 4a 3d a4 53 3b bd aa b5 a0 bd 6a bd 0c 3d
       0.049486157 -0.045734063 -0.0784715 0.034360327
000050 40 a5 7d bd d0 ec b8 bd 8a 07 f2 ba 7c ce aa bc
       -0.061925173 -0.090295434 -0.0018465382 -0.020850413
000060 3e 16 37 3d 24 d1 37 3d fb 72 69 bb d0 76 98 3b
       0.044698946 0.044877186 -0.0035621512 0.0046528354
000070 2e ea 55 bd 23 a8 93 bd a7 01 80 3d 7f e5 86 bc
       -0.052225284 -0.07209804 0.06250315 -0.016466854
000080 8e 08 96 bc 40 a4 8d 3d 5b 2a ed bc 1c 61 88 3d
       -0.018314626 0.06916094 -0.02895086 0.06659147
000090 58 76 ca bb 42 8a 84 bd ee 3b 69 3d 4c 8f 3b 3b
       -0.0061786585 -0.06471683 0.05694192 0.0028619347
0000a0 dc fa ca 3c da 95 45 bd f0 c5 c6 bd 92 86 a0 bd
       0.024777822 -0.048238613 -0.09705722 -0.07838167
0000b0 39 89 a5 bd 6e c4 a1 3d a0 d3 02 bd b3 23 41 bd
       -0.08082814 0.07898794 -0.031940103 -0.047153186
0000c0 32 f6 83 bb ae 95 b7 bd ce 68 4e bd 76 96 11 bd
       -0.0040271515 -0.08964096 -0.05039292 -0.03554388
0000d0 40 56 af 3c b7 78 4f bc a0 bb 90 bc 46 e0 85 3d
       0.021403432 -0.012663058 -0.017667592 0.065369174
0000e0 b4 cc d8 3c 92 63 02 bd 6c 88 5f bd 98 26 be ba
       0.026464798 -0.03183324 -0.05457346 -0.0014507351
0000f0 d7 bf 63 3c e3 f5 a3 3c 8c 2e 7e 3d 2a c7 23 bd
       0.013900719 0.020014709 0.06205611 -0.03998486
000100 68 b2 a4 3d a6 55 84 bb 16 78 dd 3c f2 84 b7 bd
       0.08041841 -0.0040385304 0.0270348 -0.08960904
000110 bb f7 fc 3c c3 59 f3 bc b3 e1 1a bc f3 5c 42 3d
       0.030879846 -0.029705888 -0.009453225 0.047451925
000120 d5 05 30 bc 83 39 98 bd 24 a3 9b 3d 81 5d a9 ba
       -0.010743578 -0.074328445 0.07599476 -0.0012921543
000130 be 0d 41 3a e3 67 9a 3c 00 69 b1 3b 51 42 ad bd
       0.00073644135 0.018848365 0.0054141283 -0.084599145
000140 44 a6 b8 bd d2 e9 8b bd 0c 39 89 bd 64 24 c6 bc
       -0.09016088 -0.06831707 -0.06700334 -0.024187274
000150 85 16 b9 bd d8 55 25 bd b6 f5 71 3d da 0f 55 3d
       -0.090374984 -0.04036507 0.05907222 0.05201707
000160 84 38 59 bd d9 0b 70 3d b1 7f 3b bd 22 ec cb bd
       -0.053032413 0.05860505 -0.045776073 -0.09957148
000170 a6 0e b5 3d 10 47 94 bc d0 88 f6 bb c2 36 17 3d
       0.088406846 -0.018100291 -0.0075236335 0.036917455
000180 f9 1f ad 3d 33 3e 8f 3c e5 e3 c9 3d 19 65 4f bd
       0.08453364 0.017485714 0.098579206 -0.050633524
000190 20 44 41 3d 4a df 40 bc a6 42 95 3b 2a 33 43 3d
       0.04718411 -0.011771986 0.0045550643 0.047656216
0001a0 e2 d2 7b 3d 7b 9b 85 bd 3e c3 ae bd fb c0 c1 bc
       0.06148041 -0.06523796 -0.08533333 -0.02365159
0001b0 1d 14 9e bd 80 ba 22 bd 30 62 22 bd e1 d7 34 3d
       -0.0771868 -0.03972864 -0.03964442 0.04415119
0001c0 70 10 87 3d b2 59 32 bc ee 63 50 bd 33 9c 75 bc
       0.06594932 -0.010885643 -0.05087655 -0.014990854
0001d0 98 45 7b 3d bf 19 8d 3d 22 5e 8a bd af fe b7 3d
       0.061345667 0.06889676 -0.06756236 0.08984124
0001e0 39 23 b7 bd a1 fd aa bd 3a 16 de bc 22 9d 83 3d
       -0.08942265 -0.08349157 -0.027110208 0.06426455
0001f0 56 d8 0d 3d 9f c1 d5 bb 4a 1c 3e 3b 82 6d a1 3d
       0.034630142 -0.0065233256 0.002900856 0.07882215
000200 ed 3d c7 bc 77 8d d1 3c 9e 3d 79 bd f8 8d 36 bc
       -0.02432152 0.025580151 -0.06084978 -0.011142246
000210 7a b4 66 bc 82 e6 54 bd aa fe af 3d a5 f0 88 3d
       -0.014081115 -0.051977642 0.08593495 0.06686524
000220 f2 8f c1 3d ad ac c2 3d bd 7c 86 3c f5 f0 79 ba
       0.094512835 0.095055915 0.016416902 -0.00095345016
000230 82 34 9f bd 7d e3 c2 3d 9b 8f 86 bd 50 27 ad bc
       -0.07773687 0.09516046 -0.06570359 -0.02113691
000240 51 5c 1a bd 88 0f a6 ba 40 0d b1 3c f6 af b7 bd
       -0.037685696 -0.0012669424 0.021612763 -0.08969109
000250 ba 02 57 3d a7 a0 55 3d 09 56 d1 bc 02 4c 6c 3d
       0.052492835 0.052155163 -0.02555372 0.057689674
000260 c0 c8 5a 3d 9e de 16 3d 8a 4c 7e 3d 93 ff 36 bd
       0.053414106 0.036833398 0.062084712 -0.04467733
000270 00 cd 15 3c 19 2d 52 3c 80 22 87 3d f8 a9 2e bd
       0.009143114 0.012828135 0.06598377 -0.042642564
000280 e0 d8 06 3c 55 9c 3e 3d 49 4f 51 bd ba 49 ab bd
       0.008230418 0.04653581 -0.051101003 -0.083636716
000290 1c 00 a4 bd cb 32 31 3d 36 27 13 3d c0 05 fe 3b
       -0.08007833 0.04326133 0.035926066 0.0077521503
0002a0 06 54 9d 3d b9 60 cc 3d 72 a5 28 bd 6b cd fd bb
       0.07682042 0.09979386 -0.041173406 -0.007745435
0002b0 ad ef 0c bd 14 55 8a bd bb e8 3e 3d 19 3a 02 bd
       -0.03440826 -0.067545086 0.046608668 -0.031793687
0002c0 1d 9f 97 bd 1a 15 be bd 68 5f a7 bd c0 5c ea 3c
       -0.07403395 -0.092813686 -0.08172494 0.02860868
0002d0 52 72 bd bd da 26 34 bd f8 bf 98 3c 02 9c 71 bc
       -0.092503205 -0.043982364 0.018646225 -0.014746668
0002e0 84 8f 85 bc fe 8f 62 3d 33 b5 a4 bc 22 a4 88 3d
       -0.016303785 0.055313103 -0.020105934 0.06671931
0002f0 3c b3 ab bc 7d a4 8a bd b3 bd aa bd ac 5b 66 3b
       -0.020959489 -0.06769655 -0.083369635 0.0035149856
000300 ed c4 10 3d f3 e0 fe 3b 94 72 9c bc bc 8d 3b 3d
       0.035344053 0.007778281 -0.019097604 0.045789465
000310 23 6e 99 3c 15 38 27 3d 25 3d a0 bd a9 9b 31 bd
       0.018729275 0.04082497 -0.078241624 -0.04336134
000320 a6 80 0b 3d 62 c0 13 3d 4d 0a 25 3d 86 85 d8 3d
       0.034058236 0.036072142 0.040293027 0.105723426
000330 97 13 b1 3d d9 38 97 bd 95 ea a7 3d 4c d9 a0 3d
       0.086463146 -0.0738389 0.0819904 0.07853946
000340 49 70 60 3d 18 ae 8e bc c5 7d 08 bc 03 fd b1 3c
       0.054794583 -0.017416999 -0.008330767 0.02172709
000350 a6 ad 13 3d 7a 5a 37 bd 5f 24 fd 3a e6 7b 95 3d
       0.036054276 -0.04476402 0.0019313208 0.072990224
000360 d3 5c e3 3d 36 04 f0 3c c6 a1 87 bd ba 91 b7 bd
       0.11101689 0.029298883 -0.06622653 -0.08963342
000370 b3 47 b4 bd 1c 8f 10 bd 37 7f 33 3c 4b 62 bf ba
       -0.08802738 -0.03529273 0.010955623 -0.0014601437
000380 6a 07 76 3d d7 3d cf bc 31 f0 c3 3d 98 f2 90 3d
       0.060065664 -0.025298042 0.09567297 0.07077521
000390 dc a6 3c bd 6a 05 38 3c 83 d8 42 3c f0 48 91 bd
       -0.046057567 0.01123176 0.011892441 -0.0709399
0003a0 e9 9a ac 3d b9 f5 86 3d 4f 98 39 bd bb e2 ae 3d
       0.08427984 0.065898366 -0.04531127 0.08539339
0003b0 82 01 23 bc 2e a1 ad bc ba 33 ca bd 1f a1 e0 3c
       -0.00994909 -0.02119502 -0.09873147 0.027420579
0003c0 05 83 2b bd 4b 35 b7 bd 55 ac 38 bd 9d ac b3 bd
       -0.041872997 -0.08945712 -0.045086224 -0.08773158
0003d0 5f 71 9c 3d 17 67 de 3c 7b f4 ac bd fe b8 6a 3c
       0.07638811 0.027148766 -0.084450684 0.014326332
0003e0 44 fe 0d bc 0b 6f fe bc d5 70 99 bd f7 39 91 bd
       -0.008666579 -0.031058809 -0.07492224 -0.07091134
0003f0 54 74 84 3d 31 30 15 3d 7b ab a3 3d 04 e6 c8 3d
       0.064675 0.036422912 0.07991692 0.09809497

mlp2.0.bias f4 [100]
000000 9d 6f 9f bd 26 eb 7d 3d 9b 26 b7 3d 74 2a 28 3d
       -0.077849604 0.061991833 0.0894291 0.04105611
000010 41 34 6d 3d d7 22 ca 3d 5b e3 35 bd ff b8 7d bd
       0.05791116 0.098699264 -0.044406276 -0.061944004
000020 b3 42 f7 bc d0 a9 57 3d a9 ce ac bc 32 4e b1 bd
       -0.030183172 0.05265218 -0.021094637 -0.08657493
000030 49 74 da bc 54 f9 a1 bc c0 e8 f7 bc 35 f0 9b 3d
       -0.026666777 -0.01977221 -0.030262351 0.07614175
000040 0a bf 8a bd 60 aa e2 3c 9a 56 3d bd 63 39 87 bd
       -0.06774719 0.027669132 -0.046225168 -0.066027425
000050 eb 26 7f 3c 02 97 0b 3d 78 5f 4e 3c 63 80 d5 3d
       0.015573244 0.03407956 0.012596004 0.104248784
000060 5d 7f 6f 3d 3b 98 c4 bd 56 e1 d8 bc 9f d0 aa 3d
       0.058471072 -0.09599348 -0.026474636 0.083405726
000070 2a 68 35 3d bc 27 69 bd d0 53 c7 3d 21 d4 fc ba
       0.04428879 -0.05692266 0.09732783 -0.0019289294
000080 e0 e4 81 bd 3f d9 24 bd 92 30 c9 bc 4d d2 64 bd
       -0.063424826 -0.040246245 -0.024559293 -0.05586462
000090 bb 49 5a bc 4c 4a 69 3d 2c 2a e2 3c 6c 04 20 bd
       -0.013323243 0.05695562 0.027608 -0.039066717
0000a0 97 1b a8 3d 0f 11 a8 bd be a7 78 3c ee 3a 65 3d
       0.08208387 -0.08206379 0.015176712 0.055964403
0000b0 e8 80 b7 bd c1 58 93 3d fe f6 63 bd 6b 03 55 3d
       -0.08960134 0.07194663 -0.055655472 0.052005213
0000c0 6f 3d 66 bd 86 84 f4 bc 61 8a 44 3d ed 9c d0 3d
       -0.05621093 -0.029848348 0.04798353 0.10186181
0000d0 6d 4e e7 3c 56 db 23 3d 47 99 8b 3c 8c c9 64 3d
       0.028235639 0.040004097 0.017040862 0.055856273
0000e0 b6 54 45 3d 20 73 ec 3c f4 b0 fe 3c 99 3c 8a bd
       0.04817649 0.02886349 0.031090237 -0.06749839
0000f0 3f c8 9e 3d ca 02 11 3d e0 44 1c bc 1f 97 42 3d
       0.07753038 0.03540305 -0.009537905 0.0475074
000100 88 36 8c bd 9a ee 77 bd 3e 48 1b bd 42 63 99 bd
       -0.068463385 -0.060530283 -0.037910692 -0.07489635
000110 0c 97 b4 3c 54 9d aa bd ec eb 19 3d 0b 36 bb bd
       0.022044681 -0.08330789 0.03757851 -0.09141167
000120 26 2f da 3a dc fc 4d 3d 19 6e a4 3c 0a c8 a3 bb
       0.0016646131 0.050289974 0.02007203 -0.0049982117
000130 86 4e 33 3c 16 45 68 3c 52 d0 60 bc 90 a0 02 bc
       0.010944014 0.014176628 -0.013721542 -0.007972851
000140 90 11 cb bd fd cb d9 3c da 7c 02 bd 9a 35 c0 bd
       -0.09915459 0.026586527 -0.03185735 -0.09385224
000150 4d 65 40 bc 7d cb 7f bd 3a aa 8e bb 4c 19 cb 3c
       -0.011742902 -0.06244992 -0.0043537887 0.024792336
000160 47 4c 7c bd 0e 10 4f bc 64 55 98 bd 6c 52 e2 bc
       -0.06159618 -0.012638105 -0.07438162 -0.027627192
000170 bc 5b 17 3d 4d 02 cc bc 1f e8 86 3d 58 b6 d1 3c
       0.03695272 -0.02490344 0.06587242 0.025599644
000180 84 34 2b 3d e4 b3 ce 3c 11 3f 1a 3d 8b a6 b0 bd
       0.04179813 0.025232263 0.0376578 -0.086255156

mlp2.2.weight f4 [50, 100]
000000 a6 b2 96 3d 4a e1 a6 3d f0 b6 8d bd c6 c9 2f bd
       0.07358293 0.08148439 -0.06919658 -0.042917036
000010 32 e8 24 3d 9d 87 aa bd 95 3e b7 3d 5b 38 c2 3d
       0.0402605 -0.083266474 0.089474835 0.09483405
000020 d4 61 6a bd 04 3c 8a 3d e4 3c 6d bd 5a 92 bd bc
       -0.057222202 0.06749728 -0.057919398 -0.023141075
000030 2d b6 ae 3d 07 cb f6 bc 0a d4 69 3b 60 09 bb 3c
       0.08530841 -0.030126108 0.0035679364 0.022831619
000040 56 13 95 bd 77 62 e7 3c 6d 4e a7 3b 73 5b d3 3c
       -0.07279079 0.028245194 0.0051057846 0.025800442
000050 b9 5c 4e bd bb 79 d5 3d 2e 5c c5 bd f5 30 d1 bd
       -0.050381396 0.10423609 -0.096367225 -0.10214416
000060 fa ae 3a bd 74 07 61 3d 6b e7 4d 3d e7 c6 ea bc
       -0.045577027 0.05493875 0.050269525 -0.028659297
000070 a6 91 c8 bc 1e 62 fa 3c e2 c2 35 3d 8e c0 d9 bb
       -0.024483513 0.030564364 0.044375308 -0.0066452688
000080 7d 43 14 3d b2 98 24 bd a1 c5 81 3d 41 25 91 bd
       0.036197174 -0.040184684 0.06336523 -0.07087184
000090 16 56 6c 3c 4b 77 0b be 14 1b a6 3c ed ab 08 3d
       0.014424821 -0.13619725 0.020276584 0.033367086
0000a0 09 10 ae bd e1 c0 8e 3d 3a dc 93 bd c2 ec 1e bb
       -0.08499152 0.069703825 -0.07219739 -0.0024250005
0000b0 f1 d3 29 bc 76 6d a1 3b 1d f6 7a bc f2 fa ee 3c
       -0.010365472 0.004926379 -0.015317467 0.029172394
0000c0 79 15 d0 3c d4 d5 e8 3c af 5d 29 3d ed 0f 90 ba
       0.025400864 0.028422274 0.04134911 -0.0010991074
0000d0 24 f8 74 3c a8 48 c5 3d 17 b2 92 bd d9 d2 e5 bc
       0.014951739 0.09632999 -0.07162874 -0.028054642
0000e0 e0 3a 22 bd 20 73 b3 3d b6 56 38 3d ca 2c 6b 3d
       -0.03960693 0.08762193 0.04500457 0.05741576
0000f0 11 e1 f1 bd d1 13 a3 3d c8 69 9b bd c0 10 ab bd
       -0.11810506 0.07962764 -0.075885355 -0.08352804
000100 0b c1 98 3d 5e 5c 31 3d 65 de 8b 3d a4 9b 44 bd
       0.07458695 0.04330098 0.06829528 -0.047999993
000110 77 7e 89 bc 98 8d 46 bd e3 cd 2d 3d c6 42 2a 3c
       -0.016783936 -0.048474878 0.042432677 0.010391897
000120 45 79 d5 bc a6 3e 63 bd df d3 a9 3c 84 67 a3 bd
       -0.026058802 -0.055479668 0.02073091 -0.079787284
000130 77 b9 29 3d 62 eb 03 bb c4 8b b1 bd 28 6c ac 3c
       0.04143664 -0.0020129313 -0.08669236 0.021047667
000140 59 21 b2 3d 7d a8 c5 3b ff e1 a1 3d b5 2b 17 3d
       0.08697767 0.0060320483 0.079044335 0.036906917
000150 17 02 29 bd 7f 2a 98 bd ab e1 be bb 98 92 df bd
       -0.04126176 -0.074299805 -0.0058252416 -0.109166324
000160 73 b9 82 bd 6c f0 2a bd 51 99 3e 3d 76 ff 3d bd
       -0.06383028 -0.04173319 0.046532933 -0.046386205
000170 4a c3 4c bd 43 f0 5f 3d ff a3 46 3c 82 9d ab bc
       -0.04999093 0.05467249 0.012124061 -0.020949129
000180 2b 38 45 3c 9a ce 42 3c 4f d1 ba 3d 4d a6 77 bc
       0.012037317 0.011890078 0.09121954 -0.015115333
000190 b4 b4 df 3c 73 03 45 bd ef 84 a9 3c 14 27 2b 3c
       0.027307846 -0.048098993 0.02069327 0.010446329
0001a0 ee 09 2a 3d d5 4f b3 bd 17 60 8c 3d 98 3a 4f 3d
       0.041513376 -0.08755461 0.06854265 0.05059299
0001b0 02 88 70 3d 76 19 92 bd 16 02 ca bd f7 1a 64 3d
       0.058723457 -0.071337625 -0.09863679 0.05568978
0001c0 91 9f 6d bd fb 2a bb 3d 75 d7 be bd 9a 65 d2 3d
       -0.058013503 0.09139057 -0.09318439 0.10273285
0001d0 23 6f 8b 3d d9 a1 b7 bd 60 47 6d bc 82 08 85 bd
       0.06808307 -0.08966417 -0.014482349 -0.06495763
0001e0 25 3e cf 3d 3c 8d c0 bd 90 c0 36 3d ad b4 bc bc
       0.10119275 -0.09401938 0.044617236 -0.023035372
0001f0 6c 7e bf bd 92 fa a5 bc 1a 0c a5 bd e6 09 ad 3d
       -0.09350285 -0.020261083 -0.08058949 0.084491536
000200 77 92 c2 3d 00 b8 a4 bd 53 41 84 bd 20 bc 46 3c
       0.09500592 -0.08042908 -0.06457772 0.012129813
000210 bf 46 a4 3d cb 3e 1a bd f4 31 24 3d 18 7a aa 39
       0.08021306 -0.03765754 0.0400867 0.00032515894
000220 3b 31 6e bd 24 1d a2 bd f7 fc 87 3d 4b 11 eb 3c
       -0.05815242 -0.079157144 0.06640046 0.02869477
000230 8b 27 af bd 6e 34 d3 3c 3d 6a 95 bc 6c 1a 58 3d
       -0.08552464 0.025781836 -0.018239135 0.052759573
000240 55 fe 88 3a 96 e2 8d 3d 56 57 c6 3c 20 e4 cb bc
       0.0010451773 0.069279835 0.024211567 -0.024889052
000250 da 7c 79 bd a7 67 4c bd 0f 74 98 3d 3d 32 33 bd
       -0.060910083 -0.049903538 0.074440114 -0.043749083
000260 62 c4 80 bc 2e 41 7e bd 9d b1 65 3d 52 22 a0 3d
       -0.015718643 -0.06207388 0.05607759 0.07819046
000270 bf 54 f3 bb 0f 71 53 bd 6d 63 f0 bc fd 35 47 bc
       -0.007425874 -0.051621493 -0.029344285 -0.012158868
000280 fc fc 4b 3d 8a 4d 35 3d ff 15 46 bc f9 a8 56 3d
       0.04980181 0.0442634 -0.012090205 0.05240724
000290 12 d0 a6 bd 50 8a c7 bb 7d 47 c7 bc 4f b9 a3 3c
       -0.08145155 -0.006089486 -0.02432608 0.019985823
0002a0 43 05 f7 bc 01 14 1e bd 74 43 c0 3b cc 6e 1d 3d
       -0.030153876 -0.038593296 0.005867416 0.038435742
0002b0 eb cd a8 bd 3e bd 98 3d 48 24 1f 3d 55 98 75 3d
       -0.08242401 0.0745797 0.03885296 0.05995973
0002c0 35 04 98 bd c9 34 71 bc a6 0d ad 3d 7a f0 04 bd
       -0.074226774 -0.014722058 0.08449869 -0.0324559
0002d0 ef 06 c8 3d 6a 35 9e bd ef e6 88 3d da 7e 59 3c
       0.097669475 -0.07725032 0.06684672 0.013274873
0002e0 e0 7d 13 bd 9d 6f b5 bd 8c 23 23 bd a2 e6 ed 3b
       -0.036008716 -0.08859179 -0.039828822 0.0072601596
0002f0 d7 a0 cb 3d 05 6d 0f ba 62 af 12 bd 31 6d 97 3d
       0.09942787 -0.0005471262 -0.03581179 0.073938735
000300 c0 03 3a 3d 51 9a 8e 3d 7f 44 b5 bd 97 14 9b bc
       0.045413733 0.06963027 -0.08850955 -0.018930716
000310 47 01 fe 3a b7 04 b9 3c 97 bf 59 3d ca d1 aa 3d
       0.0019379043 0.022585256 0.05316123 0.08340795
000320 4f 6b 9f bc f9 92 0a bb 64 0c 1c bc 10 ee 18 bd
       -0.019460348 -0.0021144731 -0.0095244385 -0.03733641
000330 5f 7b 02 bd 3a 2a 10 3c 3e 77 2c 3c 03 c4 e7 3c
       -0.031855937 0.00879913 0.010526476 0.028291708
000340 b4 ff bc bd a5 ad 56 bd db 8e 5b 3d 43 73 b1 bd
       -0.09228459 -0.052411694 0.053603034 -0.086645626
000350 c5 16 9f 3d ac 9e 87 bc 08 95 ef bd 54 fe 9b 39
       0.07768015 -0.016555153 -0.11698347 0.00029753393
000360 0c b5 e5 3c 2e 38 7b 3d 35 df ac 3d 3f 57 00 3d
       0.028040431 0.061332874 0.08441011 0.031333204
000370 47 0a 76 3d d5 35 37 bd 9f 87 df bc e2 f1 d5 3d
       0.060068395 -0.044729073 -0.027286349 0.10446526
000380 b4 51 90 bd 59 fa 3a 3d b7 82 67 3d 55 f4 a4 3d
       -0.07046834 0.045648906 0.056521144 0.08054415
000390 85 28 b3 bc 72 41 3c bd 98 3d f3 3b a2 50 aa bc
       -0.021869907 -0.04596085 0.007423114 -0.020790402
0003a0 71 0b 56 3b 9a bb 28 ba e7 ea 90 3d 6e 1b 4a bd
       0.0032660628 -0.0006436646 0.07076054 -0.049342565
0003b0 2a fb 64 bd 7f 76 09 bd bf bf 21 bd 89 77 95 bd
       -0.05590359 -0.033560272 -0.039489504 -0.0729819
0003c0 46 f2 6a bd 7a 03 d1 bd a7 57 fe 3c 6f 92 9b 3d
       -0.057359956 -0.10205741 0.031047655 0.07596289
0003d0 7f 3c 44 3d bb e8 a0 bd e6 7c a6 3c a4 f6 99 bd
       0.047909256 -0.0785689 0.020323228 -0.07517746
0003e0 6b 78 3b bd 06 38 ba 3b 0d 6b 14 3d da c4 a2 3d
       -0.045769136 0.005682948 0.036234904 0.07947703
0003f0 a5 40 43 3d 5a ae 67 bc c7 69 5a bd 1d a7 ec 3d
       0.04766907 -0.01414069 -0.053323533 0.11555312

mlp2.2.bias f4 [50]
000000 55 dd 4e bd 6a 09 91 bd 7a 8a 53 3d 33 d3 f5 bc
       -0.050504047 -0.07081874 0.051645733 -0.030007934
000010 4e 5b e5 3b 95 7b 73 3b 28 0d b9 bd b4 c0 64 bb
       0.0069994098 0.0037152518 -0.090357125 -0.00349049
000020 d0 f1 ce 3d 36 1d 85 bd f9 40 8e 3c 3c 75 52 3d
       0.10104716 -0.06499712 0.017364966 0.051381335
000030 ee 8f e5 bc 53 b1 ad bd eb 53 aa 3d 31 c9 9d 3d
       -0.028022733 -0.084810875 0.08316787 0.0770439
000040 78 ef 49 3d 36 c1 50 3d 79 9f b0 3d c7 bb d6 bc
       0.04930064 0.05096551 0.08624167 -0.026212586
000050 69 56 d0 bc ec 53 95 bd 39 52 a0 bc 2a ed b9 bd
       -0.025431829 -0.072913975 -0.019570457 -0.090784386
000060 e3 a6 fe 3c 76 db fd bc 00 b5 b0 bd df 75 39 3d
       0.031085437 -0.030988436 -0.08628273 0.045278426
000070 95 06 dd bd 10 a2 c2 3d 90 8f 2a 3d 3b 90 1a bd
       -0.10792271 0.09503567 0.041640818 -0.037735205
000080 93 2a 95 bd 58 e1 a0 3d ed 71 b0 bc 6a 97 9c 3c
       -0.07283511 0.07855481 -0.021538699 0.019115169
000090 f6 f1 86 3d f8 dc 85 3d e1 c7 10 bc ba 78 74 3d
       0.06589119 0.06536287 -0.008836717 0.059685446
0000a0 95 78 a6 bd 5e 68 9a 3d 22 07 bc 3d 75 a0 81 3d
       -0.08128468 0.07539438 0.09181048 0.06329433
0000b0 4a 77 80 3c 42 78 8b bd 7b 46 e5 3c 00 00 42 bd
       0.015681881 -0.06810047 0.02798771 -0.04736328
0000c0 c1 bc ce bd 7f 91 2c bd
       -0.10094596 -0.042130943

attention.0.weight f4 [100, 200]
000000 6d 0a ff bc 13 f3 20 bc fd 36 8f bb 62 9c 00 bd
       -0.031132901 -0.009823578 -0.004370569 -0.03139914
000010 c6 5a 79 bd e9 11 5a 3d 06 d4 07 3c 7b 41 08 3d
       -0.060877584 0.053239737 0.008290296 0.033265572
000020 a3 f2 53 bb 28 b5 f6 3c f3 cf e7 3c 01 38 a2 3b
       -0.0032340668 0.030115679 0.0282974 0.004950524
000030 af 20 fc bb 9a 65 92 3d 00 5c 03 3d 31 fc 27 bd
       -0.007694326 0.07148285 0.03207016 -0.041011993
000040 2e c5 22 3d d8 cf 15 bd c4 a1 bf 3b 80 0b 49 bb
       0.039738826 -0.03657517 0.0058481414 -0.003067702
000050 40 3d af 3c 47 4d 6b 3d c0 ca 5a bc 22 bf 3a 3d
       0.021391511 0.057446744 -0.013354003 0.045592435
000060 99 e8 53 bd 87 50 4c 3d 4a 8b bc bc 12 86 f1 bc
       -0.051735494 0.049881484 -0.023015637 -0.029482875
000070 d3 c5 f4 3c 65 41 85 3d 8c 71 8c 3d c0 c5 24 3d
       0.029879486 0.06506614 0.06857595 0.04022765
000080 37 7a aa 3d 89 2b 83 bd 43 8b 3e bd 02 a3 95 3c
       0.08324092 -0.06404788 -0.04651953 0.018266205
000090 bd d8 b5 bb 21 61 c0 3a d6 b5 fb 3b 71 e0 1e bd
       -0.005549519 0.0014677384 0.0076815886 -0.038788263
0000a0 4e d6 e9 bc f2 ce 22 3d 35 de 40 3c a6 6f 6d 3d
       -0.028544571 0.03974814 0.011771728 0.057967804
0000b0 a9 52 9f 3d cf 13 27 bd 76 d7 12 3c cf 41 81 3d
       0.07779438 -0.040790375 0.008962503 0.0631138
0000c0 72 74 99 3d 7c 39 04 3d 94 56 89 3d 3a e2 7b 3d
       0.07492913 0.032281384 0.067059666 0.061495043
0000d0 03 f3 65 3d 5f b9 46 3a 2b a1 83 bd 83 5e d7 bc
       0.056139957 0.0007580723 -0.06427225 -0.026290184
0000e0 11 8b a8 3c 26 62 4a 3d dc 30 6a bd 92 64 8e 3d
       0.020574125 0.049410008 -0.057175502 0.06952776
0000f0 ff e4 0a bd a0 bd 82 3d 1a d3 81 bc 40 f6 d1 3c
       -0.033909794 0.06383824 -0.015847731 0.025630116
000100 e0 a0 02 3d 34 fe 83 3d 82 47 a7 bc b5 16 8a 3d
       0.031891704 0.0644497 -0.02041984 0.06742612
000110 f7 ff e9 3b 1d 7f 03 bd 02 04 50 3d af ba 8a 3d
       0.007141109 -0.032103647 0.050785072 0.06773888
000120 ab 40 7c bc c7 bc d8 3b 02 c2 2b 3d 77 37 83 3d
       -0.015396277 0.006614301 0.041933067 0.064070635
000130 c9 fe 0b bd 03 95 92 3d 0a 8f bf 39 9c 1d 59 bc
       -0.03417853 0.07157328 0.0003653693 -0.013251688
000140 b0 ec 7b 3d 7e 53 0c bd d8 96 05 bd d9 c6 c0 b9
       0.06150502 -0.03425931 -0.03261456 -0.00036769247
000150 55 fa 70 3d 84 e8 52 bc b1 b6 f5 3c 25 e8 84 3d
       0.058832485 -0.012872819 0.02999434 0.064895906
000160 e9 58 5f 3d 4f 13 9c 3d 5f fd 5c 3d df 01 23 bd
       0.05452815 0.0762087 0.05395257 -0.039796706
000170 9d 5e 74 3d e6 4f 40 3d c6 62 76 3d fa f9 8d 3d
       0.059660543 0.046951197 0.06015279 0.06932445
000180 44 8a 2b bd 2a c2 67 bd 9a 86 8a bd 0d 46 3a 3b
       -0.041879907 -0.056581654 -0.067639545 0.0028423101
000190 82 28 73 3d 77 7a 1a bd 33 6c 21 bd bb 95 7e 3b
       0.059364803 -0.037714448 -0.039409827 0.003884657
0001a0 ed d5 5b bd 27 9f d5 bc a6 0d 8e 3d 97 7a 2c bd
       -0.053670812 -0.026076866 0.06936197 -0.0421091
0001b0 6c b0 59 bd a2 85 31 3d 51 4d 5c bc c5 66 ed ba
       -0.053146765 0.043340333 -0.013446168 -0.0018112293
0001c0 20 22 39 bc 59 72 c9 3c a2 f0 ab bc e9 ed d0 3c
       -0.01129964 0.024590658 -0.020988766 0.02550407
0001d0 40 ec 24 bc 7e 1e c7 bc c7 0b e8 3c 50 c8 d5 3c
       -0.010066092 -0.024306532 0.028325928 0.026096493
0001e0 fe b9 8f bc fa 11 bf 3b 71 da 81 3c e7 48 31 bd
       -0.017544743 0.0058310004 0.015851231 -0.043282416
0001f0 30 7f 10 bd 41 8b 5a 3d 00 1f 42 bd 00 c7 2e 3c
       -0.035277545 0.05335546 -0.047392845 0.0106675625
000200 cc 31 b3 bc 88 27 b4 3b 05 e8 6f b9 df 01 72 3c
       -0.021874331 0.0054978766 -0.0002287925 0.014770954
000210 e0 3e a9 bc 80 fc 83 3d 4a f9 75 3d f1 e7 ee bc
       -0.020659864 0.06444645 0.060052194 -0.029163333
000220 78 0d 42 bd 83 82 83 bc 8f 34 2c bd 74 eb b3 bc
       -0.047376126 -0.016053444 -0.04204231 -0.021962859
000230 22 4f 8f 3d c0 14 65 3c 47 66 00 bc 1c af 93 bc
       0.06997515 0.013981998 -0.007836885 -0.018027835
000240 fe c7 88 bd 4d 65 4a 3c 6f e9 45 bc 25 03 32 bc
       -0.066787705 0.012353254 -0.012079581 -0.0108650075
000250 a7 3d 4c 3d 69 bd 50 bd 83 c3 38 3d 2c f9 fc 3c
       0.049863484 -0.050961886 0.04510833 0.030880533
000260 1a d5 da 3b 8f f4 37 bc 68 70 40 3c 7f d6 88 bc
       0.0066782357 -0.011227741 0.01174555 -0.016703842
000270 00 47 0a 3d 3b e8 38 3d 05 d7 1c bd bc a2 05 3d
       0.033759117 0.045143347 -0.038290996 0.0326259
000280 92 44 8a bd 48 43 88 bc 68 ac 43 3d 05 f1 81 3d
       -0.0675136 -0.016633645 0.04777184 0.06344799
000290 a7 8f 89 3d 17 0e 0c 3d d0 1b 37 3d d2 f8 80 bd
       0.06716853 0.034193125 0.04470426 -0.06297459
0002a0 18 dd 58 3d 20 39 ed 3c f2 0a a5 bc 35 bb 5e 3d
       0.052945226 0.028957903 -0.02014682 0.054377753
0002b0 a8 7e 8d 3d cc 47 d2 bc 03 ed 5e 3c fe 5c 01 3b
       0.069089234 -0.025669001 0.013606313 0.0019739266
0002c0 6d a3 99 3a 91 eb 77 3c 88 59 55 bd cf 39 4a 3d
       0.0011721678 0.015131847 -0.052087337 0.049371537
0002d0 0e 36 41 bd ce 0c 80 3d 52 9f 77 bd 74 ba 92 bc
       -0.04717069 0.06252442 -0.060454674 -0.017911173
0002e0 51 ec 87 bb 99 5f 5f bc cb 8d aa 3c 5b 9b 7f 3d
       -0.004148044 -0.013633632 0.020819565 0.062404018
0002f0 35 f5 2a bd 17 83 02 bd 5a 56 e1 bb 60 31 63 bc
       -0.041737754 -0.0318633 -0.006876749 -0.013866752
000300 ca bd 7d 3c b3 04 52 bb f6 32 06 3d ce 54 ef 3c
       0.015487144 -0.0032046258 0.032763444 0.029215243
000310 2b 93 a9 bc 0f eb 23 3d a4 44 9c 3c 5a 6a 74 bd
       -0.020700058 0.04001909 0.0190757 -0.059671737
000320 e9 1c 99 3c 1e 5e 9a 3d e2 98 3f bd 94 e1 a0 3c
       0.018690543 0.07537483 -0.04677666 0.019638814
000330 39 e5 8b bd de 44 dc bc b3 9d 6a bc 08 a7 c4 b7
       -0.0683083 -0.026888307 -0.014319825 -2.34428e-05
000340 90 27 82 3d c6 11 b8 bc d2 fd a6 bc c9 54 95 bc
       0.06355202 -0.022469413 -0.020384703 -0.018228905
000350 8d ef 70 bd 9f 04 de bc ec 78 0e bd a4 5b 37 bd
       -0.058822203 -0.027101813 -0.03478329 -0.04476513
000360 6d c4 c4 bc af d4 67 3d a1 89 8d 3d 04 db bc 3c
       -0.024019444 0.056599315 0.06911016 0.023053654
000370 33 ad 35 bb 02 8f ef bc a1 b4 19 bd 21 02 1f bd
       -0.0027721643 -0.029242996 -0.037525777 -0.03882039
000380 90 e3 25 3d 55 17 53 3c d5 4c 40 bd 67 e4 bb bb
       0.040500224 0.012883981 -0.046948273 -0.005734015
000390 38 29 81 3d e5 89 3b 3d 3a 27 7b 3d 60 e1 00 3d
       0.0630669 0.045785803 0.061316706 0.031464934
0003a0 a2 7f d7 3c c2 40 85 3d 7b 42 cc 3c af e6 e9 3a
       0.026305977 0.06506492 0.024934044 0.0017845238
0003b0 8d 29 0e bd 7d 90 2e 3d e2 fc 6e bd 6d a2 2d 3d
       -0.034707595 0.042618264 -0.058346637 0.04239123
0003c0 d0 fd 06 3d 33 f4 92 bb 8f 9c 59 3d 47 e5 30 3d
       0.0329569 -0.004484677 0.05312782 0.043187406
0003d0 9b 3b d8 3a 7c 92 d5 bb 3e 51 0e ba 8b 89 ce b9
       0.0016497256 -0.0065177064 -0.0005428976 -0.0003939386
0003e0 d3 a9 20 3d 0d 19 6a bd c2 c5 19 3d 5d cb 9f 3c
       0.039224457 -0.057152797 0.037542112 0.01950615
0003f0 04 06 dd bc 96 02 47 3d 66 a3 79 3d ee 38 b9 bc
       -0.026980408 0.04858645 0.060946845 -0.022610154

attention.0.bias f4 [100]
000000 26 39 16 3c c5 43 21 bc 71 8c b0 bc 75 6f 16 3c
       0.009168899 -0.009842818 -0.021551343 0.009181847
000010 fc 6c 1d 3d 68 ad 80 bd 20 04 8f 3d 8e 51 79 3d
       0.038434014 -0.062830746 0.06983209 0.060868792
000020 21 5b ce bc bb aa 55 3d 6b 06 8c bd a8 28 75 bc
       -0.025189938 0.052164774 -0.06837162 -0.0149633065
000030 06 75 c2 bc 93 66 0f bd 9b f0 1a 3d e1 66 5b bd
       -0.023737442 -0.03500993 0.037827116 -0.05356491
000040 2f eb 7e 3d ef 17 0b 3b d6 29 ab bb e4 23 c2 3c
       0.062236007 0.0021223982 -0.005223493 0.023698755
000050 28 d5 2b bc 26 83 c5 bc 63 33 6e 3d 5d b1 63 3d
       -0.010487832 -0.024110388 0.058154475 0.05558907
000060 d8 53 44 bd cb 01 2d bd 02 4c de 3c ec a8 83 3d
       -0.047931522 -0.042238038 0.027135853 0.06428704
000070 90 98 4d 3d 0c be 0a bd 83 cf 38 3d b5 f0 17 3d
       0.050194323 -0.03387265 0.045119774 0.03709479
000080 27 88 63 3d fb 2e 89 3d f9 5f f8 3c c0 b9 7c bd
       0.055549767 0.06698414 0.0303192 -0.061700583
000090 51 6d 4a bd 6e d6 f4 bc 95 47 8a bd 8f c2 21 3d
       -0.04942066 -0.029887404 -0.067519344 0.039492186
0000a0 63 29 36 3c 80 b1 5c 3d d9 41 ba bb 3f e7 6e 3d
       0.011118266 0.053880215 -0.005684119 0.058326002
0000b0 96 c1 44 3d c5 79 9c 3b 4b 1b 23 3d a8 e3 55 bc
       0.04803618 0.0047752582 0.03982095 -0.013054766
0000c0 fd 63 92 3d 94 87 6b bd 6d d5 08 3d 34 09 23 3d
       0.071479775 -0.057502344 0.033406664 0.0398037
0000d0 3d aa da bc dc f7 3d 3d de 89 f9 3c 98 61 f6 3c
       -0.026692504 0.046378955 0.030461248 0.030075833
0000e0 8e 21 64 3d d2 68 42 3c a8 4a ba 3c d6 31 1c bd
       0.055696063 0.011865811 0.022740677 -0.038133465
0000f0 97 76 03 3d 8e 4a 57 3d 02 b0 24 3d 29 e6 58 bd
       0.032095518 0.052561335 0.040206917 -0.052953873
000100 7c 84 d7 bc be 0c 11 3d 8f ac 8a 3d a3 23 ff bb
       -0.02630829 0.035412543 0.06771194 -0.0077862306
000110 ea a8 47 bd 72 3a d1 bc 99 c3 8c bc 05 01 b6 3c
       -0.048745073 -0.025540564 -0.017183112 0.022217283
000120 e5 c2 3d 3b 9a 53 46 bd cb 47 e8 3c f1 48 52 bd
       0.0028955278 -0.048419572 0.028354546 -0.051339094
000130 92 92 03 bd 1a 91 17 bd df 38 6e bd 84 7f 21 bd
       -0.032122202 -0.037003614 -0.058159705 -0.03942825
000140 1c bf 95 3b 53 5c c1 3c 53 2d ee bc 3e 1b 72 bd
       0.004569901 0.023603594 -0.029074347 -0.05910801
000150 7a 1d 26 3d 1f 35 8d bd fa 44 8d 3b 90 13 4b bd
       0.040555455 -0.06894898 0.004311201 -0.049579203
000160 f6 57 6b 3d 3c 22 6e bd 8e 67 50 3d a0 bf 89 3b
       0.057456933 -0.058138117 0.050880007 0.0042037517
000170 fe 34 00 bd 6c f3 29 3c a6 8f 2e 3d 81 a3 f5 3c
       -0.031300537 0.010372978 0.042617463 0.029985191
000180 4f 39 82 3d 03 d7 00 bd 08 0f 72 3b a1 8f 7d 3d
       0.06358587 -0.03145505 0.003693523 0.061904553
