models/rl/sarl_lm_orca/il_model.pth (torch_old, 417884 bytes, 20 tensors)

mlp1.0.weight f4 [150, 61]
00000000: 15bc 01bd fb0a 533d 0c77 cb3d 944f bf3b
00000010: 7d23 743d 238a 283d 179c 1cbe 087d 573d
00000020: eb6d 1b3d d487 d4bb 175e b83d 52cb 393d
00000030: bbe2 c1bd 2cb8 7fbd 6726 01be 60c4 a83d
00000040: 1957 1fbc decf 3bbc b9f0 003e 5c55 6b3d
00000050: 10a2 263d f64e bbbd 0fd0 1f3d 63dd 18bd
00000060: e382 d53d f8ca 653d b4c6 e9b8 9df2 1f3d
00000070: 1530 7cbd 87c6 133d 4db7 bebd f690 06be
00000080: 5720 333d 9346 033d 9161 653b 3592 dd3d
00000090: a329 f23c 1342 46bd af4d 6fbd 83ac 843d
000000a0: 33ca 85bd 36b3 dfbd c344 4d3d ce4f df3d
000000b0: 7044 813d 23a8 293d b07d 3c3c 803f dbbb
000000c0: bd36 cbbd 32c9 9cbd 9c42 e23d 2c55 263d
000000d0: 50c3 3cbd f0ff 92bb 1041 563c ea48 06bd
000000e0: 1c2b c23d be40 c13d 76a7 973d 109d 9c3d
000000f0: 1242 82bd b260 23bd b0fe e0bd 0808 1d3d
00000100: 42e6 5e3d 8c68 c3bd b6cc 343d 3c0a 22bc
00000110: bb0f 27bd f895 19bd 355d 543d 6a0d 693d
00000120: f986 9bbd e428 b7bd eac2 903d b72d 39bd
00000130: 4fcd 9f3d 71c0 a3bd f27e debd 021d a5bc
00000140: f819 213c 41bb e9bd ccd5 03bd fcb2 6ebc
00000150: e2c7 a4bd a2c3 913d 8d1a 8d3d f8e4 cc3d
00000160: 6166 ef3d c0be f1bd c5ca 2e3d c0f7 f83d
00000170: c43f 993d b365 813d 9265 f33d 128f 14bd
00000180: 2e53 a73d a4b3 e33c 5653 6c3d 2ed3 c03d
00000190: 3499 4a3c f010 8bbc ad3a ee3d 9ed7 963d
000001a0: 9d67 8c3c 0023 92bd 9519 d3bd c4c3 8cbd
000001b0: 708b e9bc 0a4b f83d 2834 1dbc 717a babd
000001c0: e00b fd3d 5852 2f3d d4c8 af3d 4447 83bd
000001d0: b2a3 d63d 9e68 71bd 5cf6 82bc 362f c13d
000001e0: 8010 063c e47e 793d b19d 803d 4ba7 703d
000001f0: 98d5 173d 2e50 8c3d 5eb5 5abd 2efa b43d
00000200: 8e09 0f3e c6e9 5ebd f08f 12bd 50b6 02be
00000210: de93 8e3d ff3b 4ebb 1386 8b3d ea44 e0bd
00000220: 9022 7ebd 1780 de3d 7cb6 003d 4293 40bd
00000230: 5867 c6bd fe41 84bd 14a4 a9bc ab01 b2bd
00000240: b3f8 14bd d6ad 54bd 84b6 11be a4a2 12bd
00000250: 3460 fb3d dad1 773d 4088 9f3c 06c4 263d
00000260: a70a d8bd 4764 53bd 33d8 00bc 9f97 c43c
00000270: e5de 8e3d 0d6a 22bd aec5 adbd b7ce fb3d
00000280: 7557 debb a214 07bd d044 d83c ee1f 023d
00000290: 1911 7bbc d8d1 bbbd b15c d23d 2531 86bb
000002a0: fce0 b23d 589c b4bd 2c06 b33d b064 d83c
000002b0: 00e8 b938 f8f7 65bd 8237 013e 18e9 4c3d
000002c0: 484b 58bc 7241 9e3d 4031 46bb 5055 84bd
000002d0: 6099 b8bd 18ff 74bd 00c6 1dba 83d9 153e
000002e0: 0541 afbd a88d df3d e7b3 143d cb1b c2bd
000002f0: 2ff7 2c3d 6ca8 a4bc 125a 253c 65b5 06be
00000300: 09b2 58bd 1bbb 103d 5975 d83d 9336 e5bd
00000310: d25f 833d fc2f 04bc 3800 70bd f49d df3d
00000320: b82e 14bd 883d 623d 1466 c2bc b949 083e
00000330: d32f 543d 9950 54bd 3a20 0ebd f14d c33d
00000340: 6ed4 2fbd 275a 803d cc98 90bd 3df6 f73d
00000350: 9bc4 073d 4160 8e3d 7913 e3bd 93aa 5cbd
00000360: 0940 e6bd 9948 99bc 18ae b3bc 6a6f afbd
00000370: 5eb6 05be a0df b3bd 4cfb 9c3d ac54 d2bd
00000380: db22 04be 4851 11bd 4b9b 8cbd 2b0f ecbc
00000390: b585 cbbd ce5f 86bd 40ea 543c 8d86 dcbd
000003a0: a444 b13d d021 373d 5c55 283d 1cf4 023e
000003b0: 9c4a b5bd c18e bcbd 7453 9ebd c84f 46bd
000003c0: 0328 fbbd b0c4 a7bc 22bc 9e3d 7006 94bb
000003d0: b14c f4bd 932c 02bd 78ad 623d fb04 6cbd
000003e0: 57a2 633d c850 ddbc 0bde a73d b8bf 89bd
000003f0: fcb7 c53d 60c2 133d 626d b63d c8cf 63b7
-0.03167351 0.051524144 0.09934816 0.005838344 0.059604157 0.041147362 -0.15293919 0.052609473
0.037946623 -0.0064859185 0.09002321 0.045359917 -0.094670735 -0.0624315 -0.12612306 0.082405806
-0.009725356 -0.011463134 0.12591828 0.057454452 0.0406819 -0.0914592 0.03901678 -0.037320506
0.10425355 0.05610177 -0.00011147317 0.039049733 -0.061569292 0.036078002 -0.093123056 -0.13141236
0.043732014 0.032049727 0.003500078 0.108189024 0.02956087 -0.048402857 -0.058423694 0.064782165
-0.06532707 -0.10922854 0.050114404 0.109038934 0.063118815 0.041420113 0.011504576 -0.0066909194
-0.0992255 -0.076555625 0.11047861 0.04060857 -0.046084702 -0.0044860765 0.013077036 -0.03278438
0.09480879 0.09436177 0.074049875 0.07647145 -0.06360258 -0.039887138 -0.10986078 0.038337737
0.05441881 -0.09541425 0.04414054 -0.009890135 -0.040786486 -0.037496537 0.0518467 0.05689756
-0.07594103 -0.08943346 0.07068427 -0.045209613 0.078028314 -0.0799569 -0.10864057 -0.020155434
0.009832852 -0.11412669 -0.032186314 -0.01456904 -0.08045937 0.07117392 0.0688983 0.1000461
0.11689449 -0.11803961 0.042673845 0.121566296 0.074828655 0.06318226 0.118846074 -0.036269255
0.08170162 0.02779562 0.057696663 0.09415279 0.012365628 -0.01697585 0.11632285 0.073653445
0.01713925 -0.07135582 -0.10307614 -0.06873277 -0.028508872 0.121236876 -0.009594955 -0.09105385
0.123557806 0.04280314 0.08583227 -0.06410077 0.10480441 -0.05893766 -0.015986614 0.09432833
0.008182645 0.060912028 0.06280077 0.058753293 0.037068933 0.068512306 -0.05339562 0.088367805
0.13968489 -0.054422162 -0.0357818 -0.12764859 0.06961797 -0.0031468866 0.06812682 -0.10950644
-0.06204468 0.10864275 0.03142403 -0.047015436 -0.0968768 -0.064578995 -0.020708121 -0.086917244
-0.03636999 -0.051923595 -0.1422978 -0.035799637 0.12274209 0.060502864 0.019474149 0.040714286
-0.10548907 -0.051609304 -0.007864046 0.02399808 0.069761075 -0.03965192 -0.0848497 0.12295287
-0.006785328 -0.03297866 0.0264 0.03176873 -0.015323901 -0.09170884 0.10271586 -0.004095214
0.087343186 -0.08818883 0.087414116 0.026415199 8.864701e-05 -0.056144685 0.12618831 0.050026983
-0.013201542 0.077273265 -0.0030241758 -0.064615846 -0.09013629 -0.05981359 -0.0006018579 0.14633755
-0.08557323 0.10915691 0.03630438 -0.09477957 0.04222792 -0.020099841 0.010092275 -0.13155134
-0.052904163 0.035334688 0.10569257 -0.1119205 0.06414761 -0.008068081 -0.05859396 0.10918799
-0.036177367 0.055234462 -0.023730315 0.13309373 0.05180342 -0.051834676 -0.034698702 0.095363505
-0.042927198 0.06267195 -0.07060394 0.12107513 0.033146482 0.06951953 -0.110876985 -0.05387361
-0.112426825 -0.018711375 -0.0219336 -0.085661724 -0.13057849 -0.087828875 0.076651186 -0.10270056
-0.12903921 -0.035477906 -0.06865557 -0.028815826 -0.09937612 -0.06561242 0.012995303 -0.10767851
0.0865567 0.04470998 0.04109703 0.12788433 -0.08852121 -0.09206916 -0.07730761 -0.04841593
-0.12263491 -0.02047953 0.07750727 -0.004517369 -0.1192869 -0.03178079 0.055341214 -0.057621937
0.05557474 -0.027016059 0.08196648 -0.067260206 0.09654233 0.036074042 0.08907582 -1.3578632e-05

mlp1.0.bias f4 [150]
00000000: b354 e93d 5223 933d f834 0abe 6795 ea3c
00000010: 57dc ecbb db3d 94bd 8c58 5bbb 5152 2d3d
00000020: 8efc ac3d 75a8 85bc 29f4 dabd 10d2 fbbd
00000030: b059 5e3d 0d7e 8b3d fda2 0dbd 7fa8 c13d
00000040: 408a e1bd 286c 78bd 5ba8 6e3a b4c2 d7bd
00000050: ea7b 4cbd 9ce9 7e3d 7928 ad3d 95df f83c
00000060: fcee ad3c 9e51 3e3d f02a f2bd 89ea f9bc
00000070: bfce 053d 3835 553d b073 3b3d bb90 f2bc
00000080: cb03 c13d f759 363d 8a3d f3bb 9a07 fe3c
00000090: 3ad4 1dbc 7ee1 b03d c442 d23d 9608 a7bc
000000a0: 2e69 773d 4046 20bd acc6 b4bc a426 f6bd
000000b0: 1a7f 733d 21a9 2dbd 3a0a da3d 314a b53b
000000c0: c2bc 65bd 9237 72bd e96c e4bd 3605 863d
000000d0: 4de4 e8bc 6b72 d3bd 3bda 30ba abe4 cb3d
000000e0: e601 003d b2a6 b9bd 8529 5abd a8b8 2c3b
000000f0: 54e2 21bd a90b fabc b346 e6bd 6bc1 56bb
00000100: f06a 9a3d 02d2 ce3d fbb2 dbbd 75cb 8d3d
00000110: 532b bfbb 1340 f4bc ce9b e7bd cf85 f73d
00000120: d214 4fbd 9773 d9bd dc50 2a3d eb1c a63c
00000130: ce70 543d 9f4c 50bd bf83 42bd 0265 14bd
00000140: e0a7 80bd 34c1 bc3d 0c81 053d 7941 f53d
00000150: ecbc b73d d8e5 01be 5d17 f63d 8a1a c8bd
00000160: a227 75bd 00f5 8abd 3ec8 94bd 5584 35bb
00000170: 8e7e e83d 7fe6 01be 2933 97bb f737 363d
00000180: c140 b3bc ea82 003e 9741 abbd de83 a5bd
00000190: cff6 a9bd bc7f 84bd 1e7a 843c 5498 bb3d
000001a0: b1d3 c9bd 527f 98bd 90b4 33bd b9d1 8fbd
000001b0: 90cb c33d e1b2 9a3d d5b1 99bd 9d5a 12bd
000001c0: b444 c43c 0292 6dbc dcb5 5bbd de8e 983d
000001d0: 4d8d 82bd 297f b13d b901 bc3d 85f2 ba3d
000001e0: 44a3 3c3d cec3 71bd fb0c d3bd 9d36 883d
000001f0: 6102 8fbd 1052 9ebd 8ccf 9e3d 7a5a dabd
00000200: d1e6 25bd eb81 da3b 3ea4 723b 4a34 9e3d
00000210: dee2 9cbd 3687 5bbd 3594 6abd 7b47 f53d
00000220: 3678 af3d 9603 543d 3b14 bc3c a82f b2bc
00000230: 3d4a 82bc 5191 c73d 44d0 e7bd 939a dcbd
00000240: 8985 21bd 31a8 94bd b666 903c de68 cc3d
00000250: 0c71 b5bd cadf 8f3d
0.11393108 0.07184471 -0.13496768 0.028635694 -0.007228415 -0.072383605 -0.0033469526 0.04231483
0.084466085 -0.016315678 -0.10691101 -0.122959256 0.05428475 0.06811152 -0.034579266 0.09455966
-0.11012697 -0.06065002 0.00091040664 -0.105351835 -0.04992286 0.062234506 0.08454985 0.03038005
0.02123212 0.046464555 -0.11824596 -0.030507343 0.03266787 0.052052706 0.045764625 -0.029610028
0.094245516 0.04451939 -0.0074231075 0.031009484 -0.009633118 0.08636759 0.10266641 -0.020389836
0.06040304 -0.039129496 -0.02206739 -0.12019089 0.059447385 -0.042397622 0.10646482 0.005532526
-0.056088217 -0.059135027 -0.111535855 0.06543963 -0.028429175 -0.10324558 -0.0006746386 0.09955724
0.03125181 -0.09064998 -0.053262252 0.002635518 -0.039522484 -0.030523138 -0.112439536 -0.0032769095
0.07539928 0.100986496 -0.10727497 0.06923572 -0.005834022 -0.02981571 -0.11309014 0.12086069
-0.050556965 -0.1061775 0.04158102 0.020277461 0.05186539 -0.05085432 -0.047488924 -0.03622914
-0.062820196 0.09216538 0.03259377 0.119753785 0.08971581 -0.12685335 0.12016175 -0.09770687
-0.05985225 -0.06785011 -0.07264756 -0.0027697284 0.113522634 -0.12685584 -0.004614253 0.044486966
-0.021881463 0.1254994 -0.0836212 -0.08081792 -0.08299028 -0.06469676 0.016171511 0.09159914
-0.0985483 -0.074461594 -0.04387337 -0.07022423 0.09560311 0.0755365 -0.07504622 -0.035730947
0.023958541 -0.014500143 -0.05364023 0.07449125 -0.06374607 0.08666832 0.09180016 0.09128288
0.04605414 -0.059024625 -0.1030521 0.06651042 -0.069828756 -0.07730496 0.0775443 -0.10661788
-0.040503327 0.0066683195 0.0037024166 0.07724817 -0.07660459 -0.053595744 -0.057270247 0.119765244
0.0856785 0.051761232 0.022958865 -0.02175124 -0.01590454 0.09744514 -0.113190204 -0.1077167
-0.03943399 -0.072586425 0.017627101 0.09980939 -0.088594526 0.07025106

mlp1.2.weight f4 [100, 150]
00000000: 1ef4 25bd e2aa a13d 8590 7cbc 62b4 51bd
00000010: 06af a3bd a680 7cbd d43d 583d 250b a33d
00000020: 63e2 3d3d d462 00bc 6b03 f33c 9f83 62bd
00000030: 5f6a fabc 8cc3 51bc 5609 2bbd 2d8b 89bd
00000040: 8504 103c 6c36 07ba 3645 77bd fec2 31bd
00000050: bf42 01bd 6769 8b3d c420 95bd 609a 7abb
00000060: 50cb fa3c 3dec 463d e183 9cbd 6d98 2f3c
00000070: c098 f7ba 0330 3dbd 2f55 78bd e6c0 42bd
00000080: bb67 7cbd 07ac ae3a b1da 3a3d a29c 9dbd
00000090: 461c 7c3d 512b 0ebd d6e9 32bd 3437 8b3d
000000a0: 3651 523b f948 8fbd 37f9 d43a c859 7e3c
000000b0: 4899 95bd fdee a13d a236 a6bd c31a a03c
000000c0: b3b7 81bd a85b 423c a8e3 a0bc 3d65 1cbd
000000d0: db52 11bd 2fed 8d3d 1529 813d 8bd9 c73c
000000e0: 3e7a 74bc ea44 f8bc 94a7 563d 393c 2fbd
000000f0: aba5 1fbd 5e66 483c c017 43bb ddf9 3e3d
00000100: 8b3a a03d 2f4a 5e3d 5282 dabc 9c5c 3ebd
00000110: 441e 9c3d 431c 09bd 1358 263d a4ef fdbc
00000120: 740d 2d3c a6e5 2ebd 381a 62bd 7c91 883c
00000130: 7046 a6bb de15 9e3d 66d2 6d3d 0aea 85bd
00000140: 4735 01bd bb89 10bc 45dd 513d fef7 bfbc
00000150: 7fb7 80bb 226e 9dbd 4f77 a03d e115 3e3d
00000160: 8034 70bb 1515 993c de75 76bd b2e3 88bd
00000170: 3a19 043d 283e 6fbc 0058 db3c 26b9 5abd
00000180: 89a6 96bd fb2c 7d3c 040b 383d e0ff 95bc
00000190: e84b 593c 05d5 34bd 5556 25bd 5ef3 86bd
000001a0: 8cdc 9abd c521 a3bc 17ce 9ebc 948b ecbb
000001b0: e31c 1c3d 7c2e 223d 3871 6d3d 64bc 8a3b
000001c0: 2e9a 3a3d f0bb 9ebd 5eb9 21bd 98e8 423d
000001d0: 2d19 c03c f43e e03c 8e79 093d e7b8 9abd
000001e0: ae0d 863d db77 8abc 6b4b 8f3c 4fb7 6e3c
000001f0: fad8 67bd d51f 67bd 10da a3bc 7883 073d
00000200: 9b23 dc3a e726 693d f1bb 57bd d803 813d
00000210: 6e6a 34bd 72a3 6bbd 17f1 9f3d 77fc cdbc
00000220: e538 a3bc a036 a9bc 4a7a d63c 1f37 bebb
00000230: 057a 29bb 1207 53bc 3f23 733b 7e96 803d
00000240: a034 01bd b186 94bd a5c9 043d 7e41 523d
00000250: 27df d3bb 0927 a3bc a2b8 903d 6835 9b3d
00000260: 1608 9d3d fb30 8cbc 64c7 5bbc 2254 03bc
00000270: d513 eb3c 8ac8 09bd 49e9 65bd c975 813c
00000280: f451 9c3b 6fb3 76bd 6aec 2cbc f160 41bb
00000290: 9f0a 7abc 9504 413c 814d 293c 5447 eebc
000002a0: ec59 183d ce19 a93d fb44 333d 92ae 4d3d
000002b0: 4283 66bd 036c 903d 3e1f 9dbd 4e38 9c3d
000002c0: 2112 91bd d098 7bbd 9630 92ba 2234 4a3c
000002d0: 46d6 873d cc88 20bd 0a71 2d3d b4fd 813b
000002e0: d24d 783d 2a93 9f3d d200 cbbc 4106 34bd
000002f0: d573 0d3d 237c 473d 3af0 8c3d a29c 96bc
00000300: 6e2a 5f3d 3c95 a53d 3be0 86bd b16b ab3c
00000310: f798 5b3d 8b97 953d 0d4f 6a3d ddb8 54bd
00000320: 25dd 60bd 7e98 5ebd 1ecc e8bc c581 4bbc
00000330: a811 a43c 6f76 b93c 5c3d 9bba f686 6b3c
00000340: 199a 91bc cae7 5a3d cc31 403d 586f 783d
00000350: 1e3b 1d3d b8c0 0b3d 72b5 a83c 1671 223d
00000360: b11b 4dbd 7a81 703b 9f4c debb f121 79bd
00000370: 6274 51bd ff12 013d 5dfa a83c b3b1 683d
00000380: 762d 3c3c 8e18 773d 7fc7 0ebc d29d 843d
00000390: 717c fc3c 7fc3 983d f77e 6d3d dd3e 6c3d
000003a0: c1e5 af3d 161a 9abd a930 633b faa0 883c
000003b0: f427 023d 4cd6 aebd 904e 5c3b 0f1b 2abc
000003c0: 64d3 093d 926a 463d 4682 d8bc 7baa 4b3d
000003d0: 46bb 8ebc 3d2c 3dbd a050 2fbd 8d0b 30bd
000003e0: 0045 793d 22dd 6b3b 9007 953d 64fb 4d3d
000003f0: a779 dbbb 6de7 1cbd efc7 7e3c 162b f5bc
-0.04051601 0.078939214 -0.0154153155 -0.051197417 -0.079923674 -0.061646126 0.05279334 0.0796111
0.046358477 -0.007836062 0.029664716 -0.055301305 -0.0305683 -0.01280297 -0.04175695 -0.06715999
0.00879014 -0.0005157951 -0.06036874 -0.04339885 -0.031557795 0.06807213 -0.0728164 -0.0038238987
0.030614525 0.048565138 -0.076423414 0.0107174935 -0.0018890128 -0.046188366 -0.060628112 -0.047547244
-0.061622363 0.0013326415 0.045618717 -0.07695891 0.0615504 -0.03470928 -0.043680035 0.067976385
0.0032091863 -0.0699634 0.0016248588 0.015524335 -0.07304627 0.079069115 -0.08115889 0.019544011
-0.06333866 0.011862673 -0.019639805 -0.038182486 -0.035479408 0.06930005 0.06306664 0.024395725
-0.014921723 -0.030306298 0.05240591 -0.042782042 -0.038976353 0.0122314375 -0.0029768795 0.046625007
0.07823666 0.054269966 -0.02667347 -0.046475038 0.0762296 -0.033474218 0.040611338 -0.030998059
0.0105622895 -0.04269948 -0.055200785 0.016670935 -0.005074315 0.077190146 0.05806198 -0.0653878
-0.03154495 -0.0088219 0.05123641 -0.023433682 -0.0039281244 -0.07687022 0.07835256 0.046407584
-0.0036652386 0.01868681 -0.060171 -0.066840544 0.03225062 -0.014602222 0.02677536 -0.053399228
-0.07355983 0.015452619 0.04493238 -0.018310487 0.013262726 -0.044148464 -0.040365536 -0.06589387
-0.07561597 -0.019913564 -0.01938538 -0.0072187874 0.038113486 0.039595112 0.057969302 0.0042338837
0.045557193 -0.0775069 -0.03948342 0.0475851 0.023449505 0.027373768 0.03356319 -0.075547986
0.06545578 -0.016902855 0.017492017 0.014570071 -0.05660341 -0.05642684 -0.020001441 0.033084363
0.0016795279 0.056921866 -0.05266947 0.06299561 -0.04404681 -0.05752892 0.07809656 -0.025144799
-0.01992459 -0.02065593 0.026181359 -0.005804911 -0.0025860083 -0.012880104 0.0037099866 0.06278704
-0.031544328 -0.07252253 0.032418866 0.05133199 -0.006465811 -0.019916074 0.07066466 0.07578546
0.07667558 -0.0171132 -0.013414238 -0.008015664 0.02869598 -0.033638515 -0.05613068 0.015803235
0.0047705118 -0.060229715 -0.010554412 -0.0029507244 -0.015261321 0.011780878 0.01033342 -0.029086746
0.03719513 0.08256875 0.043766957 0.05021531 -0.05627752 0.070518516 -0.076719746 0.07627927
-0.07083536 -0.06142503 -0.0011153396 0.012341531 0.06632666 -0.03919296 0.04234413 0.0039670113
0.06062109 0.07791741 -0.024780665 -0.043951277 0.034534294 0.04870237 0.06881757 -0.018385235
0.054483823 0.08085105 -0.06585737 0.020925375 0.053612676 0.07304295 0.057204295 -0.051934112
-0.0548984 -0.054344647 -0.028417643 -0.012421076 0.02002795 0.022639481 -0.0011843848 0.014375439
-0.017773675 0.053443708 0.04692249 0.06065306 0.038386457 0.034119338 0.020594332 0.03965863
-0.050075237 0.0036698268 -0.0067840363 -0.060823385 -0.051136382 0.031512257 0.020627195 0.056810092
0.011485448 0.06032615 -0.008714556 0.06475414 0.030821057 0.07459163 0.05798241 0.05767714
0.08588744 -0.07524507 0.0034666455 0.016678322 0.031776384 -0.08536968 0.0033616163 -0.010382428
0.033648863 0.048441477 -0.026429307 0.04972313 -0.017423283 -0.046184767 -0.0428015 -0.042979766
0.06085682 0.003598996 0.07276833 0.050288573 -0.0066978517 -0.038306642 0.015550598 -0.029927772

mlp1.2.bias f4 [100]
00000000: 8c57 323d 08ea a53d 1142 a33c 59eb aebb
00000010: 4931 7f3b 6651 c7bc 95ab 163b 4e2e 8cbd
00000020: 986f 48bd afec 9e3d 0ccb 183c 78b2 913d
00000030: aadd f8bc 2435 80bd 3072 8b3d 183e 7e3c
00000040: 3ca2 82bd a53c 953d aba3 9b3d 34d7 6c3d
00000050: dba1 acbb f457 7a3b b301 7b3d 18bc 0b3c
00000060: fe99 933d 7018 06bd 472b 4e3d b40e 3a3d
00000070: 0ba9 10bd ab7b 023d ce44 233d fc36 a43d
00000080: a212 f4bc 3765 383d b215 a63c 9ae4 263a
00000090: 90d4 2c3d e41f 4c3d 7e62 9d3c 6cb4 3e3d
000000a0: d0ec 97bd dfd1 973d 4868 1d3d af9a 403d
000000b0: 5004 573c f6e2 b6bc 25c3 76bc 039f 933d
000000c0: 1e91 92bd 7bba b73b 1d50 69bd b80e 503d
000000d0: 8f77 acbd be43 77bd 2f01 5b3d 4c8c 6cbb
000000e0: beb0 a63c b042 833d af5c e4bc 881b ad3d
000000f0: 87b7 a0bb a6eb 463c b220 15bd 7ddf ae3d
00000100: 0ba7 3d3c c814 f23c 0c88 7cbd 5a25 333c
00000110: 3dcd ca3c 86cb 8a3d c130 673c 36e5 e83c
00000120: b7a5 8bbd 4784 7e3d 953b 593d f2f8 963d
00000130: 27ab 09bd 0c9f adbd 3588 21bd 0fbc 8c3d
00000140: 8b02 0bbd d2d6 91bd 9b91 643d d117 7fbc
00000150: 7a4d db3c 7060 9cbd e3fe 69bd 3dce 9abc
00000160: 3b94 7f3b b3dd 803d 6224 853d af2d 9f3d
00000170: 78c8 433d e108 803d 0daa 323d 3e35 4fbd
00000180: fb34 9f3c 04a0 1f3d 8a2b 70bd 504e 313d
0.043540522 0.081012785 0.019928964 -0.005338114 0.0038939288 -0.024330806 0.0022990454 -0.068447694
-0.04893455 0.077599876 0.009325754 0.07114118 -0.030379135 -0.06260136 0.06808889 0.015517734
-0.063786 0.07286958 0.075995766 0.05782242 -0.005268318 0.0038199397 0.061280917 0.008528732
0.07207106 -0.03273815 0.05033424 0.04542418 -0.035317462 0.03185622 0.03986054 0.080183
-0.029794041 0.0450184 0.020274017 0.0006366462 0.042194903 0.0498351 0.019212004 0.046558782
-0.07418215 0.074130766 0.03842953 0.047022518 0.013123587 -0.02232502 -0.0150611745 0.072080635
-0.07156585 0.005606947 -0.056961168 0.050795287 -0.084212415 -0.06036734 0.053467926 -0.0036094366
0.02034795 0.06409204 -0.027876226 0.08452517 -0.0049046907 0.012141144 -0.036408134 0.08538721
0.011575471 0.029550925 -0.061653182 0.010934198 0.024756068 0.067771 0.014110745 0.028429609
-0.06818717 0.06213787 0.053035337 0.07371701 -0.03361049 -0.084776014 -0.039436538 0.06871807
-0.033937972 -0.07121052 0.055802923 -0.015569643 0.026770342 -0.076355815 -0.057127845 -0.01889717
0.0038998264 0.06292286 0.0650108 0.07772385 0.047798604 0.062516935 0.043619204 -0.050587885
0.019434443 0.038970962 -0.058635272 0.043287575

mlp2.0.weight f4 [100, 100]
00000000: 5767 30bd e19e ce3c 748e bfbc 417e 4dbd
00000010: 9a99 af3c 19cc 893d 889e af3b b9fd a4bd
00000020: e49c 7d3d 2dcd 273d 8cc1 fbbb 0a30 a3bd
00000030: d787 293c 3c53 d3bc 8e63 7b3d f6ff 643d
00000040: 9154 5abd 9df5 0bbd d0c2 8bbc fe7f 93bc
00000050: 59ea 3bbd 4ef1 b9bd 0c4b ca3c c80b f4bc
00000060: 1d00 723d bb60 f63c de12 b1bd 3701 67bc
00000070: 9532 a13d 3109 dfbc 472a 90bd 7b09 843d
00000080: 6721 a3bc 343e 96bd 05c6 5ebd e86a 223c
00000090: f27b bebd 5efc 683d b460 14bd 2db9 b0bd
000000a0: 67e1 5dbd adbf e63c b7fd 0f3c 6935 2fbd
000000b0: 44cf c2bd adca 343d b991 ba3c 5b1b 083d
000000c0: fa6e 7e3d 933b 0f3c 07fb 78bd a8fa 21bd
000000d0: 54b4 85bd ac11 82bd 4946 a9bd 6a34 b8bd
000000e0: 4252 87bc 0a88 193d ea88 363d 3886 293d
000000f0: e170 b93d eaa7 9fbd 19bb cc3d fc44 29bd
00000100: 607f 2fbd 3642 5ebd 82e0 babd f822 a33d
00000110: 7eb5 b5bc b7d5 a53d 8a11 9a3d 7904 893d
00000120: bd05 a53d 3ca3 59bd b4c0 adbd dff5 9b3d
00000130: 0685 1abd f51d 953d 424c a73d 36cf babd
00000140: 8777 bbbd b81b 56bd 7126 5a3d a420 03bd
00000150: 31bb fdbc 599d 2dbd d4ef a8bd 6f76 48bd
00000160: ac10 96bd 8dc6 0e3d c068 fbba 2606 963d
00000170: 4a99 153d cb5d 86bc 6dc8 ba3d d968 7fbc
00000180: 5f19 803d 48c4 4fbd 62e8 b8bd 8ff6 233d
00000190: fde5 2cbd 8c2f 313d e896 bbbd 540b c4ba
000001a0: 2067 bebc b09d f63c 93fc 803b d27c 973d
000001b0: 3cc1 593d 132a a7bd 724b 903d e232 493d
000001c0: e274 d73c ac99 efbc e612 0dbd e308 013d
000001d0: d72c 3ebd 7a71 863d c8d6 ab3d a78d 2d3d
000001e0: 18db a0bd cdb2 923d 0cf9 c9bc 6d87 a0bc
000001f0: 5247 b53d 3c01 9d3a 8417 c83d 1c8a e33c
00000200: f5fb 993d 7ef1 773d c459 afbd 95a8 963d
00000210: 3757 8d3c 5366 91bd 9394 b93d cd1e 18bd
00000220: 3a9d 8dbd 2d64 813d 9e89 40bd fa4f a2bc
00000230: f803 abbd 90c5 b23d f304 a23d 6494 39bd
00000240: 3e3a 543c 06f9 5d3d 2009 bcbd e0e3 083c
00000250: 6e86 2b3d 5816 873d 6435 47bd 1bd6 babd
00000260: f491 2bbd 2766 22bd 43d4 0cbd 3ae0 273d
00000270: 6713 c7bd c930 39bd 5b21 a53d c57a 673d
00000280: 777e bd3d 92dd b13d 2889 8bbd c953 83bc
00000290: 4128 afbd b02d 0c3d 1895 fabc fb63 a13d
000002a0: 7b8a adb9 1455 a63d 6323 533d 6a65 60bd
000002b0: 9889 c4bb 6d82 b8bd 99f4 53bd 48ca 05bd
000002c0: b6a8 c3bd 73dc 9e3d 236b 97bd 8609 8fbd
000002d0: 86a9 36bd de54 2ebd d4b5 813c afff c0bd
000002e0: 9cbc 183d a68c d438 ae17 7f3c 6899 94bd
000002f0: 3be6 0f3d a358 7f3d f836 773d 7f17 bfbd
00000300: 2943 febc d439 093d 7a2d bcbd 8944 40bd
00000310: aae0 a9bd 2132 993c e0df 0abd fdc6 c53d
00000320: f983 88bd fdad ae3d c887 ca3d 882e 633d
00000330: 07d6 343c e63e 1d3d 4fcf cc3c cf49 c6bd
00000340: 49a0 c4bd 20ec 493d 0755 febc d5a0 a8bc
00000350: 676b ae3c 2ed2 8e3d 6f7d f13c 355c 6a3d
00000360: b621 363d 970b c43d 55ed eabb bdde b83c
00000370: ea3d 293d 848f ae3d b927 8c3d 3e48 58bd
00000380: baa9 d8bc 8e7a c13d 5e04 7a3d 07bf 78bd
00000390: 1c9f ac3d b9b2 c3bd 092a 503d d977 7f3c
000003a0: 005d a93d a97e bd3d cbf2 80bd d77e 0f3d
000003b0: c2c4 95bc 9301 5e3d 0f96 2a3c af49 99bd
000003c0: 960f 203d 0063 8cbd e2bb afbc 6373 313c
000003d0: 7628 34bd 0a53 a33d 1c02 36bd dee5 e13c
000003e0: 31eb 8f3d becf c73d 708a 02bd 0c6d 943d
000003f0: 2dce 823d a4be 7b3d 0449 a5b7 ec48 b1bd
-0.043067303 0.025222244 -0.023383357 -0.050169233 0.021435548 0.06728382 0.0053594746 -0.08056206
0.0619172 0.040967155 -0.0076829847 -0.07968147 0.010347328 -0.025796525 0.06137424 0.055908166
-0.053303305 -0.034169782 -0.017060667 -0.018005367 -0.04587779 -0.09079228 0.024693988 -0.029790774
0.05908214 0.030075422 -0.08646177 -0.014099411 0.07870976 -0.027226062 -0.07039314 0.06447121
-0.019913388 -0.07336083 -0.054388065 0.009913184 -0.093009844 0.0568813 -0.036225036 -0.086290695
-0.05417004 0.02816757 0.008788518 -0.042775545 -0.09512189 0.0441386 0.022774564 0.033229213
0.062117554 0.008742231 -0.060786273 -0.039545685 -0.065285355 -0.06351027 -0.08265359 -0.08994372
-0.016518716 0.037483253 0.044564165 0.041387767 0.09054733 -0.07795699 0.099966235 -0.041325554
-0.042846084 -0.054262362 -0.09124853 0.07965654 -0.022181269 0.080974035 0.075228766 0.06690306
0.08057735 -0.053134188 -0.08484021 0.076152556 -0.037724517 0.072811045 0.08168842 -0.091215536
-0.091536574 -0.05227253 0.053259317 -0.03201355 -0.030973049 -0.042386387 -0.082488686 -0.048941072
-0.07327399 0.03485732 -0.0019180998 0.073253915 0.03652314 -0.016402146 0.091202594 -0.0155889625
0.06254839 -0.050724298 -0.090286985 0.04003006 -0.04221152 0.043258235 -0.091596425 -0.0014956989
-0.023242533 0.030104488 0.003936359 0.073968545 0.0531628 -0.08162322 0.0704564 0.04912079
0.026300851 -0.029248081 -0.03444185 0.031502616 -0.04642948 0.06564613 0.08390576 0.04237142
-0.07854289 0.0716301 -0.024654888 -0.019595826 0.08851494 0.0011978517 0.0977011 0.027775817
0.0751876 0.06053304 -0.08562043 0.07356373 0.017253501 -0.07099595 0.090615414 -0.03713875
-0.06914754 0.06317935 -0.047006242 -0.019813526 -0.08350366 0.08729088 0.079111 -0.045307532
0.012953339 0.054192565 -0.09181428 0.008355111 0.04187625 0.065960586 -0.0486349 -0.091228686
-0.04188724 -0.0396482 -0.034382116 0.040985323 -0.097204976 -0.04521254 0.08063003 0.056513567
0.09252637 0.08684839 -0.0681327 -0.016031163 -0.085526 0.03422326 -0.030588672 0.07880398
-0.00033100307 0.08121696 0.05154742 -0.054784216 -0.0059978478 -0.09009252 -0.05174694 -0.032663614
-0.095536634 0.07756891 -0.073934816 -0.06984238 -0.044595264 -0.042561404 0.015833773 -0.09423768
0.037289247 0.000101351456 0.0155696105 -0.072558224 0.035131674 0.06234039 0.060355157 -0.093306534
-0.031037884 0.033502415 -0.091883615 -0.04694036 -0.082948044 0.018700661 -0.03390491 0.09657095
-0.06665797 0.085292794 0.098891795 0.055464298 0.011037356 0.038390063 0.025001196 -0.096820466
-0.096008845 0.049297452 -0.031046404 -0.020584503 0.021291448 0.06973682 0.029478757 0.05721684
0.044465743 0.09572523 -0.0071694055 0.022567147 0.04131881 0.08523467 0.06843514 -0.05280327
-0.02644812 0.094472036 0.06103932 -0.060729053 0.08428785 -0.09555573 0.050821338 0.015592539
0.082696915 0.09252674 -0.06296309 0.035033073 -0.018282298 0.05420072 0.010411753 -0.07484757
0.039077364 -0.0685482 -0.021451894 0.010830733 -0.0439839 0.07974823 -0.044435605 0.02757543
0.07027281 0.097564206 -0.031870306 0.072473615 0.06386981 0.061461106 -1.9703533e-05 -0.08656487

mlp2.0.bias f4 [100]
00000000: 428d ebbb 53a2 b3bd a396 44bd 784d 703d
00000010: 0685 f03c 5989 27bd a7b0 cf3d 16d0 51bd
00000020: 8dfd 26bc 7665 6abc 9732 1e3d 5ed6 30bd
00000030: 9e90 dd3c 442e b33d 59e1 dbbc 6731 4fbc
00000040: d732 1d3c 3505 963c 327a 853d e679 953d
00000050: d853 633c 7563 a03b 717e a4bd fdcb 7e3d
00000060: 8c2d c4bd f608 83bd 0eee 2dbd 5c15 f6bc
00000070: f75f 99bd 666b 2e3d 910b 9dbd c352 063d
00000080: a209 c6bd 5aac 90bd 68dd 3b3c b624 4f3d
00000090: 785d fb3c a79b 2abd 8f66 9cbd ba68 95bc
000000a0: 599c c63d a096 773d 142e 873b 553e a4bd
000000b0: 7633 b73c aef2 973d 011e 523d 553b 07bd
000000c0: eaae 4dbd 8f19 91bd cf69 513c 6aad ccbd
000000d0: ba9f a63b 0272 36bc 2800 b43d cc48 3f3d
000000e0: ebad 19bb cb2c 913c c78a 9cbd 0474 d63d
000000f0: ee63 aebc 5b20 3c3d 22b8 be3d 8ec0 8f3b
00000100: 374a a83d aa6d 3dbd 4560 3f3d fced 353d
00000110: 681b 9cbd eecf 6d3d 5322 c23c 55bc 71bd
00000120: 912b acbc e683 9dbd afcd 243d d80d 243b
00000130: 0e6c 6e3d f165 ae3d 4df5 903c cf3d 13bd
00000140: 7c81 433d 7c1a 073d 570b 3c3d 750b bfbd
00000150: 0925 2fbd 25e4 673d 0f2a ba3d 0fc5 7d3c
00000160: 0ea6 583c 63e8 b43d 4865 8c3d 2115 20bc
00000170: a702 1ebc b1ed b4bd 37ae b3bd 22ba 9f3c
00000180: 169a 9bbd 7e73 b73d 759f 923d 58ee fcbc
-0.00718847 -0.08771195 -0.04799522 0.05866763 0.029360306 -0.04090247 0.10141116 -0.051223837
-0.010192287 -0.014306417 0.038622465 -0.043173186 0.027046498 0.08749059 -0.026840853 -0.012646056
0.009594641 0.01831303 0.065174475 0.07298641 0.01387497 0.0048946687 -0.08031929 0.062206257
-0.09579 -0.063981935 -0.042463355 -0.030039482 -0.07489007 0.042582892 -0.07668222 0.03279377
-0.09669806 -0.070641235 0.011466362 0.05057212 0.030684218 -0.041652348 -0.07636749 -0.018238414
0.0969779 0.06044638 0.004125366 -0.080197014 0.022363406 0.07419334 0.051298145 -0.033015568
-0.05021564 -0.07084953 0.012781574 -0.099940136 0.005084959 -0.01113558 0.08789092 0.046700284
-0.002344961 0.017721554 -0.07643657 0.10471347 -0.021287885 0.045929294 0.09312464 0.004386968
0.0821728 -0.046247162 0.04672267 0.044416413 -0.07622415 0.058059625 0.023698008 -0.059017498
-0.021016868 -0.07691173 0.040235218 0.0025032666 0.058208518 0.085155375 0.017695094 -0.035947617
0.047730908 0.03298424 0.045909252 -0.09328357 -0.04275993 0.05661406 0.09090053 0.015488877
0.013223184 0.08833387 0.06855255 -0.0097706625 -0.009644187 -0.088343985 -0.08773463 0.019497935
-0.07597749 0.08957575 0.0715932 -0.03087537

mlp2.2.weight f4 [50, 100]
00000000: 3f8a 433d da62 9a3d c914 583b e81b a1ba
00000010: 9d57 acbb 5f3c 573d 66ae d1ba 3cdd 4c3d
00000020: eb2f fd3a d2df 5c3b 64ce 93bb 73c4 ba3d
00000030: 46cd d63d 4368 c5bc 7fec 3a3d a253 c53b
00000040: 33e2 0e3d 77d4 c6bb e369 f03c 2b2a babd
00000050: 6cb0 19bc 29ff 8fbd 103b 723c 8a87 87bc
00000060: be1e 013d 39b4 acbd 7463 cbbd 7cce 6fbd
00000070: 6de7 d93c 8a87 b53d cdcc ad3d ef84 593d
00000080: cd77 9dbd 1230 fdbc 441a 733d a59b 81bd
00000090: a12b c6bb 5c85 953d acb4 8abd 239d 71bc
000000a0: 25ea 1ebc e3b2 b2bc 4499 553d dc08 a83b
000000b0: b103 a23d 1be0 d43b 78ee 15bd af98 99bd
000000c0: 2312 37bd c802 b03d 01f7 97ba 1939 8d3d
000000d0: 9628 cdbd 97b0 a8bd a35d 8e3d 5234 be3d
000000e0: 4880 813d 1a4e 843d 1331 923d 9335 af3d
000000f0: 33bb 38bc 7092 8e3c 22c8 0f3c b2f3 b7bd
00000100: 544e 3abc 367a 02bb d757 b63d f0cb 85bd
00000110: 1b8c 513d ed5f 2d3c da83 6abd 74f1 23bd
00000120: cf71 6dbd d220 5e3d a4f8 97bc e3be be3d
00000130: a54f 98bd 3b72 c33c 3655 95bd 98ae 2abd
00000140: e287 a0bd b5b1 f3bc 27ea 53bd 3f28 3f3d
00000150: e5db 97bd cc15 1abb feae 8a3d f440 1ebd
00000160: 5006 c23b ca9e 8cbd 32a0 87bd bd3c 7cbd
00000170: 185c 84bc 5c0c 8cbc 3b71 223d 9626 99bd
00000180: 185e 92bd ee12 c53d e12e 39bd 3f68 b0bd
00000190: 396a 6f3d ddb9 843d 8e6e 953d f9bc cb3c
000001a0: 52e1 7b3d d986 9b3d 2868 86bc abb1 8cbc
000001b0: bf1f 1ebd 5d9a 99bd 6ee8 6e3d 6985 92bd
000001c0: 42e5 33be 4bc0 4fbd 0430 c83d cc46 af3d
000001d0: c7a5 d93d 6fd5 cf3d f3f9 db3c 0427 883d
000001e0: f5a6 073e ea78 64bd 602b 57bd a06d 7dbd
000001f0: c20f a3bd 6ed8 25bd 7cd8 b43d f31e 04bd
00000200: 3be5 b5bc 1e58 9abd 1285 41bd f911 a1bb
00000210: feaf 013d c1de c53c 10a9 e4bd 8e5a a83d
00000220: b0f4 77bd d1d0 abbd a156 90bd aade ddbc
00000230: 7acf 7ebd b56e 363d 5c09 913d d4be 64bd
00000240: dbeb a93a 4962 083d db61 343b 362e a6bd
00000250: 6d17 b3bd 8247 45bd 284d 743c 3776 863c
00000260: 4382 17bd 55f1 af3d bb2b 8d3c 622c c3bd
00000270: 40a9 dfbc 7f42 1cbe 6917 933d a4c5 16bd
00000280: 8c1a cbbc 16a6 89bc 79aa d3bd 6639 783c
00000290: a755 c53d a823 21bd fa93 8c3d ea4c 983b
000002a0: 3589 88bd 19c1 93bc 613a 313b e1f2 5fbd
000002b0: 5de0 a5bd e025 f93b ded7 723b 63b6 e5bd
000002c0: 91e4 ba3d dcc4 c5bc 72e8 653d 6deb d3bd
000002d0: 0052 a83d 21c3 d03b 1a88 b33d 6a59 033c
000002e0: 0025 13bd b841 16bd 3ade a33c a5a4 d53d
000002f0: 0b27 a7bd 235a e6bd 43d3 cbbd 0162 bc3d
00000300: 433c 29bd d656 45bd 0c64 81bc 705f acbd
00000310: c791 cd3d dbb2 753c 60c7 02be 48ea 86bc
00000320: 331d 7dbd 57cf aabd a1fe f5bc 6077 a0bd
00000330: 168d 853d 3877 653d a7f8 8e3d b89d 0b3c
00000340: a00e e03c b3aa eebb e182 d63a c746 1a3d
00000350: 613c 713d b4ab 543d f345 cabc a41f f43c
00000360: 5f1a 25bd da29 cdbd 72d8 33bd d0c7 a8bd
00000370: afd4 b5bd 7df8 b43d 840a 9dbd 9247 c9bd
00000380: ccd0 de3c 0292 01bd 2294 1fbd 041d 003d
00000390: 8b9b b43d dc22 c63d 1fd1 633c cd40 2c3c
000003a0: 5658 203d 24d4 053d c2d6 243d b73e a1bd
000003b0: 525e 823d 8703 743c 57aa e2bc 84e3 77bd
000003c0: 2519 4ebd 0f11 ef3c 10f5 b9bd 7f34 0f3c
000003d0: 92b9 abbd a5b7 85bd e8fb f0bc 9604 3dbd
000003e0: a1f6 a0bd ae2e 2e3b 0e3e 0b3d c2b5 bfbd
000003f0: 029c 553d 1ed1 3fbd b7c0 c9bd f660 003d
0.047739264 0.07538386 0.0032971373 -0.0012291642 -0.0052594678 0.05254781 -0.0015997409 0.050015673
0.0019316649 0.0033702743 -0.0045106877 0.09119501 0.104883716 -0.024097567 0.045635697 0.0060219327
0.03488369 -0.0060678083 0.029347366 -0.09090074 -0.009380441 -0.0703109 0.014784589 -0.016544122
0.03152346 -0.08432812 -0.099310786 -0.05854653 0.02659961 0.08863743 0.08486328 0.05310529
-0.07688866 -0.03090671 0.05935122 -0.06328515 -0.0060476814 0.07300827 -0.06772742 -0.014746937
-0.009699379 -0.021813815 0.05214812 0.0051280092 0.0791086 0.006496442 -0.036604375 -0.07499825
-0.04469503 0.085942805 -0.0011593999 0.06895656 -0.10017507 -0.08236807 0.069514535 0.09287323
0.06323296 0.06460209 0.071382664 0.0855514 -0.0112751005 0.017403811 0.008775743 -0.08982028
-0.011371214 -0.001990927 0.08903473 -0.065330386 0.051159006 0.0105819525 -0.05725465 -0.04002519
-0.057969864 0.05423052 -0.018551178 0.093137525 -0.07437066 0.02385818 -0.07291643 -0.04167041
-0.078384176 -0.029747823 -0.051736977 0.04666924 -0.074149884 -0.0023511527 0.06771658 -0.038636163
0.0059211627 -0.06866224 -0.06622352 -0.061581362 -0.016157195 -0.017095737 0.039658766 -0.07478063
-0.07146853 0.09622751 -0.045210723 -0.08613633 0.05845091 0.06480763 0.07296477 0.024870383
0.06149418 0.075940795 -0.016407087 -0.017174562 -0.038604494 -0.075001456 0.05832713 -0.07154352
-0.17567924 -0.050720494 0.09774783 0.08558425 0.10627323 0.10148131 0.026852584 0.06648067
0.13247283 -0.055779375 -0.0525316 -0.061872125 -0.0796199 -0.040489607 0.088303536 -0.032256078
-0.022204032 -0.07536338 -0.047246046 -0.0049154726 0.03166198 0.024154069 -0.111650586 0.08220397
-0.060536087 -0.08389438 -0.07047773 -0.027083714 -0.062209584 0.044539172 0.07081863 -0.05584605
0.0012963967 0.033296857 0.0027524147 -0.08114283 -0.087447025 -0.0481639 0.014910974 0.016413791
-0.03698946 0.08590952 0.017232766 -0.0952995 -0.027302384 -0.15259741 0.071821995 -0.03680958
-0.024792932 -0.016802829 -0.103352495 0.015150404 0.096354775 -0.039340645 0.06864162 0.0046478407
-0.06666795 -0.018036412 0.0027042853 -0.054674987 -0.080994345 0.007603392 0.0037054936 -0.11216428
0.09125627 -0.024141721 0.05612988 -0.10347638 0.08218765 0.0063709174 0.08766194 0.008016923
-0.035923958 -0.036683768 0.020003427 0.10431794 -0.08161744 -0.11247661 -0.09952404 0.0919838
-0.041317236 -0.048178516 -0.015794776 -0.08416641 0.100375704 0.014996256 -0.12771368 -0.016469136
-0.061795425 -0.08340328 -0.030028643 -0.07835269 0.06521051 0.0560219 0.069810204 0.00852149
0.027350724 -0.0072835325 0.0016365909 0.037665155 0.058895472 0.05192156 -0.024691558 0.029800244
-0.040308353 -0.10017748 -0.04390759 -0.08241236 -0.08878457 0.08836458 -0.07668021 -0.09828104
0.027199171 -0.031633385 -0.03895963 0.03127767 0.0881873 0.09674618 0.013904839 0.010513497
0.039146744 0.032673016 0.04024387 -0.0787329 0.063656464 0.014893419 -0.027669115 -0.06051971
-0.05031695 0.029182939 -0.09079945 0.008740543 -0.08385004 -0.06529168 -0.029416993 -0.04614695
-0.07859541 0.0026578116 0.033994727 -0.093608394 0.052150734 -0.04683029 -0.098512106 0.03134247

mlp2.2.bias f4 [50]
00000000: 0499 6cbd a247 96bd f288 c93c 3224 fcbc
00000010: 03a8 b2bc 41c5 80bd 4e41 d4bd 826f 3d3d
00000020: 8045 323d ee6b 8abd 01d4 ab3d 670e 54bd
00000030: 1695 993d 9bb0 b5bd 86be 70bd 6227 5f3d
00000040: 87b6 debc 0d61 b33d 77da cc3d 9154 7bbc
00000050: cf50 7cbd 21b2 703d 0345 cbbc 01f5 9aba
00000060: ac0e 7cbc d01d 2cbc 7909 c83d c1f7 73bd
00000070: 282a 1a3d 6956 90bb f66f 323d e02a 033b
00000080: b9aa a13d 858a 0d3d 0aa6 1b3c fcb9 92bd
00000090: 9b2d bbbd 5242 96bd 5533 eebc 53d0 253d
000000a0: 8d2d ba3d 9ed1 653d c40a 913d af07 f1bb
000000b0: 47e2 573d 39e3 84bc e224 c13d 53e3 2c3b
000000c0: d840 d3bc 13f8 8cbd
-0.057763115 -0.073378816 0.024601433 -0.030778978 -0.02180863 -0.06287623 -0.103640184 0.04624892
0.04352331 -0.06758867 0.08390046 -0.051771548 0.07499139 -0.088715754 -0.058775447 0.054480918
-0.027186645 0.08758745 0.10002606 -0.015339986 -0.061600503 0.058763627 -0.02481318 -0.0011822284
-0.015384357 -0.010505155 0.09767432 -0.05956245 0.03763786 -0.004404832 0.043563806 0.002001457
0.07893891 0.03455593 0.009500036 -0.0716438 -0.09139558 -0.07336868 -0.029077211 0.040481877
0.09090719 0.05610811 0.070821315 -0.0073556523 0.05270603 -0.01622163 0.09430863 0.0026380613
-0.025787756 -0.06883254

attention.0.weight f4 [100, 200]
00000000: 940f f93c e528 89bd cf1d 3bbd f0d6 9fbb
00000010: db6b 87bc 4b6d 533d 6552 823d 400f 94bc
00000020: 3f94 2f3d 5c8d 1bbc 2bfe 2d3c 7d65 86bd
00000030: 7ae0 37bc 02e8 6fbd eedb 0c3c 404c 423d
00000040: d238 353d 0d28 093d 0a67 093c c6f2 683d
00000050: 0a5c 05bd 5bd5 813d b7fa 04bd da4a bc3c
00000060: 516c 903d 9e96 18bc c0a3 3d3d d23a e73c
00000070: 2a35 773d 563e 8cbb 9c1c 933d 17f4 ab3c
00000080: 789d 453d 4e7a 5dbd 40bd c9bc 3a75 3f3c
00000090: 370d 853d 37a5 e2bc 32c8 773d 813a 233d
000000a0: 5c56 8ebc bfd9 09bb d8a0 063d 8d53 b53c
000000b0: d195 38bd f569 bf3c 7f82 03bd 2ba1 793d
000000c0: e81d a33c 1766 573c b72c 873d 3d33 ff3a
000000d0: 36c0 18bd 0913 4bbd fb3c 44bd e3cd 14bd
000000e0: 5b65 06bd 531d 06bd 7b22 883d bd6f 013c
000000f0: 5234 e7bc 6ec5 46bd 62c7 71bd 06aa 04bd
00000100: 6a0f 73bd 75a5 6dbd f855 743c bfe5 ffba
00000110: bbb2 6abd 5982 833d 1a7d 493d c332 103b
00000120: edb2 8b3d 1931 1e3d 5569 5ebd 8e50 92bd
00000130: 00ee 3fbc a2f9 663d 64b9 7f3c adbb 3f3d
00000140: d380 caba 0a4d de3c 679e 683a d1f2 6c3d
00000150: 624a 93bd ed00 883d a876 34bd e67f 613d
00000160: c823 823c 63c0 103d 9d6d 773d b925 d23b
00000170: 1832 36bd 9b1c 39bd eff0 033d bb83 073d
00000180: 1a54 6a3d 8241 bcbc f3d8 fa3c b913 0bbc
00000190: ee07 013d 3f57 443d 04cb e1bc dc24 b53c
000001a0: eb33 e4bc c2bc 6fbd daac 813d a6ef 97bc
000001b0: db07 73bd 44e7 9fbc 05aa 933c b5f3 a9bc
000001c0: c16c 8fbd 30f5 243d a267 523d 99e2 a1bb
000001d0: 4069 65bd d94f 36bd 6e6d 213d bd90 5d3d
000001e0: 5a7a 86bb 8208 82bd f572 fdbc 4a8e 833d
000001f0: 09f6 f93b 4aa4 e2bc c9df 76bd e12a 1d3c
00000200: 4224 e8bb 401f 633d 6c29 6e3c 8643 d03a
00000210: 3d25 593d 70dc 2cbd 3739 ddbc 52a8 bd3c
00000220: 2356 17bd a94a 2abc e3d8 9e3a 0aac 4e3d
00000230: 16b5 7ebd 2eb9 69bd 8232 153b 347e 22bd
00000240: 64e9 573c ce9d 533d 98b6 14bd 8d10 40bd
00000250: 2f37 84bd 769a 2bbd c968 6abd 00a3 a9bc
00000260: 58e4 303c f8ee 25bc ad2f 95bc b718 1cbd
00000270: d50f a5bb f8de 933c 2aec f43c 0504 e73c
00000280: 5fcc 06bd c50a 753d e1e4 1bbd 6c03 c83b
00000290: acf0 e63c 1e4f 79bd c50a 68bd 7e1d 35bd
000002a0: 1eea 57bd 3a0a 39bc 7631 a43a 405e 1c3d
000002b0: 1ba2 98bc 0e20 4b3b 6f58 afbc 464f 603d
000002c0: 6328 7e3d 642e 3abd 8520 72bc 2a15 96bc
000002d0: 5c1d 3dbd ef93 8fbd ab0a 5b3d fecc 08bd
000002e0: d8de 4b3d 2709 07bd a26e b6bc 628c b5bc
000002f0: ebc2 443d 960e 213d 150b 333c c896 1abb
00000300: 88da 453d 9162 873d a8bd 86bd ea07 9cbb
00000310: 23cc 873d f7a9 ef3c 981b 61bd 552c 80bd
00000320: 60b5 4d3d e2f5 5cbd 56bb 483d 9c03 473d
00000330: bed7 223d ea3d 313d 0c63 bbbc b87a 3b3c
00000340: 9f49 08bd 0006 5cbc aa9b 09bd 3801 253c
00000350: 6e08 523d e838 363d 5775 52bd 0046 203b
00000360: 90ca af3b 2ad1 63bd f2e0 f6bc 6948 60bd
00000370: c86c 15bd baf9 88bd e839 913c d399 843d
00000380: 086e a23c 6881 ed3c 08aa bd3c 9870 053d
00000390: 4ad3 0a3d b693 473d 7310 90bd 66d7 6abd
000003a0: 4085 0fbb e540 903d 2010 d6bc a2cf 7b3d
000003b0: ac75 bb3c 08cf 0f3c 6030 35bd 8199 83bd
000003c0: ea82 213d a8e8 59bd 8841 dabc acbc cd3c
000003d0: 217b 08bd 07d7 83bd 8c5c 54bd 75e7 83bd
000003e0: 986b 553c f3e6 8c3d 0001 deb9 5973 8a3d
000003f0: c8a0 70bc 3e1a e6bc c841 583c cbbd 12bd
0.030402936 -0.06697253 -0.045682725 -0.0048779175 -0.016530922 0.0516179 0.06363372 -0.018073678
0.042865988 -0.009494152 0.01061968 -0.06562326 -0.011222953 -0.05857087 0.008597357 0.047436
0.04424364 0.03348546 0.008386383 0.05687215 -0.03255848 0.063395225 -0.032465663 0.02298491
0.0705191 -0.009313254 0.046298742 0.02822629 0.060353436 -0.004279892 0.07183191 0.020990415
0.048245877 -0.054071717 -0.024626374 0.011685664 0.06496661 -0.027666671 0.060493656 0.039850716
-0.017375164 -0.0021034328 0.032868236 0.022134567 -0.04506475 0.023365954 -0.032106873 0.060944717
0.019911721 0.013146899 0.066003256 0.0019470226 -0.03729268 -0.0495787 -0.047909718 -0.03632916
-0.032811504 -0.03274281 0.06647202 0.007900176 -0.02822319 -0.048528127 -0.059028037 -0.03238871
-0.059340872 -0.05801912 0.014913075 -0.0019523426 -0.057299357 0.06421346 0.04919157 0.0022002913
0.06821237 0.038621042 -0.05429967 -0.07144271 -0.011714458 0.056390412 0.015608165 0.04680984
-0.001544977 0.027136344 0.00088737014 0.057848755 -0.07191922 0.066408016 -0.044058472 0.055053614
0.015886202 0.035339724 0.06040727 0.0064131883 -0.044481367 -0.045193296 0.032212194 0.033084612
0.05720911 -0.022980455 0.030621028 -0.008488589 0.031501703 0.047934767 -0.027562626 0.022112302
-0.027856788 -0.058529623 0.06331797 -0.01854689 -0.059333663 -0.019519456 0.018025408 -0.020746091
-0.07003165 0.04027289 0.051368363 -0.0049403426 -0.056008577 -0.044509742 0.039411 0.05409311
-0.004103941 -0.06349279 -0.030938605 0.06423624 0.0076282066 -0.02766623 -0.060272012 0.009592743
-0.0070844004 0.055449724 0.014536243 0.0015889264 0.05301403 -0.042202413 -0.027004821 0.02315155
-0.03694738 -0.010393777 0.0012119081 0.050457038 -0.062184416 -0.057061367 0.00227657 -0.039671138
0.013178203 0.051664166 -0.036306947 -0.046890784 -0.06455838 -0.041895352 -0.057228837 -0.020707607
0.010796629 -0.010127775 -0.01821121 -0.038109507 -0.0050372877 0.018050656 0.029897768 0.028200159
-0.032909747 0.059824724 -0.038060073 0.0061039235 0.028190933 -0.060866468 -0.056650896 -0.04421758
-0.052713506 -0.011293942 0.0012526948 0.03817582 -0.018631985 0.0030994448 -0.021404473 0.0547631
0.062050235 -0.045454398 -0.014778261 -0.018320639 -0.046170577 -0.07010638 0.05347697 -0.03339862
0.049773067 -0.032967713 -0.02226955 -0.022161666 0.04803745 0.03932055 0.010927935 -0.0023588408
0.04830411 0.06610597 -0.06579143 -0.0047616856 0.06630733 0.02925585 -0.054957956 -0.06258456
0.0502218 -0.05394543 0.049006782 0.048587427 0.03975653 0.043271936 -0.022874378 0.011442833
-0.033273336 -0.013429165 -0.03359572 0.010071091 0.05127757 0.044487864 -0.051381435 0.0024455786
0.0053647235 -0.055619396 -0.03013656 -0.054756556 -0.036480695 -0.066882566 0.017727807 0.06474652
0.019827858 0.02899237 0.023152366 0.03257808 0.033892907 0.048724853 -0.070343874 -0.057334326
-0.0021899492 0.07043628 -0.026130736 0.06147731 0.022883259 0.008777387 -0.044235587 -0.06425763
0.03943149 -0.053200394 -0.026642576 0.02511438 -0.03332055 -0.064374976 -0.051846072 -0.06440631
0.013026141 0.068799876 -0.00042343885 0.06760282 -0.014686771 -0.028088685 0.013199277 -0.035825532

attention.0.bias f4 [100]
00000000: 11ac 033d 843a 69bd 4489 4a3c 48d4 bdbc
00000010: 485e 5e3d 34c3 053d 6155 44bd 6202 9c3d
00000020: 5ae0 24bc 4166 3fbd 0ad1 a53c cce3 263b
00000030: eae3 233d 6dd3 6e3d d5a4 66bd 338f 783d
00000040: 4885 8c3d aca2 723c 8819 3ebd 61b0 6f3d
00000050: 51b0 a0bc 1b3d 30bb d19c a93c 1158 443b
00000060: 88f3 f5bb da9e 40bc c105 853d c0cc 673d
00000070: c79b 49bd 310d 92bc 964c 62bd 2edc 723d
00000080: 19d9 4d3b 6bd0 0e3d 1d3d 133c f5a8 18bd
00000090: e9dd 373a 2b16 863d a8b4 27bc 65f9 6a3d
000000a0: c2e2 2ebd 2b34 fdbc cc8b 67bd 011d 0b3d
000000b0: e267 3fbc 55f1 40bd e3d2 b4bc 6c62 1fbd
000000c0: 0fc9 30bc 9dfe 61bd 7b47 ae3c 1078 15bc
000000d0: 0a22 7b3c 48b0 a33d 0bae 71bd 26b6 41bd
000000e0: 4a8a cc3b af2c 97bd 7a67 87bd ef09 8a3d
000000f0: beb2 203d 44ae ca3c 4ba6 83bd c1fc a03c
00000100: dbda 823d 146c 8abd 50ba 1d3c 86b3 0c3d
00000110: 50a4 553b d5db 033c dc53 01bd a786 063d
00000120: dc3d 92bd 9569 ed3c 3ae4 8b3d 13d3 53bd
00000130: a6ce 813a c0bd 8abd c9d4 db3c e07a 16bd
00000140: 09c5 2abd 4367 f43c 2c77 a73c 5d11 353d
00000150: 3a7a 81bd e61e 4ebb 8b97 1b3a 4cdf d1bc
00000160: 50c1 e63c cacc 25bd 204a 2dbd 83d7 73bd
00000170: 9947 2e3d 5853 a23c ada8 883c bccf bf3b
00000180: acbc 153c c368 1f3d ad4b d23c 7b22 893d
0.032146517 -0.05694057 0.012361828 -0.023172513 0.054289132 0.032656863 -0.047932986 0.07617642
-0.010063255 -0.046728376 0.02024128 0.0025465367 0.040012278 0.0583071 -0.05630954 0.06068344
0.06861359 0.014809292 -0.046411067 0.058517817 -0.019615324 -0.002689189 0.020704659 0.0029959718
-0.007505838 -0.011756623 0.06495238 0.05659175 -0.049220826 -0.017828556 -0.05524882 0.05929201
0.0031409918 0.03486673 0.0089867385 -0.037270505 0.0007013963 0.06547197 -0.010235943 0.057366747
-0.04269672 -0.030908665 -0.056529805 0.033963207 -0.011682482 -0.047105152 -0.022073215 -0.03891222
-0.010790124 -0.05517446 0.021274319 -0.009122863 0.01532794 0.07992607 -0.05900387 -0.04729285
0.0062420713 -0.073815696 -0.066115335 0.06740176 0.03923296 0.0247413 -0.06428202 0.019651772
0.063893996 -0.067588955 0.00962694 0.034350894 0.0032599159 0.0080480175 -0.031574115 0.03284326
-0.07140705 0.02898101 0.0683064 -0.051714968 0.0009903505 -0.06774473 0.026834862 -0.036738276
-0.041691814 0.029834395 0.020442568 0.044206012 -0.06322141 -0.0031451522 0.00059353624 -0.025619172
0.02816835 -0.040478505 -0.04230702 -0.0595317 0.04254875 0.019815132 0.016681993 0.0058536213
0.009139221 0.038918268 0.02567085 0.0669603
