models/rl/sarl_lm_orca/rl_model.pth (torch_old, 417884 bytes, 20 tensors)

mlp1.0.weight f4 [150, 61]
0	0x3cc4ff96	0.024047654
1	0x3d37671a	0.04477606
2	0x3dcb770c	0.09934816
3	0x3b79f89b	0.0038142565
4	0x3d4f9a75	0.05068441
5	0x3d009667	0.031393435
6	0xbe411d48	-0.18858826
7	0x3cdc0a8b	0.026860496
8	0x3cd95773	0.026530957
9	0x3cf6e613	0.030139005
10	0x3db43775	0.0879964
11	0x3daef62d	0.08543048
12	0xbdca2dd7	-0.098720245
13	0xbd80ed99	-0.06295318
14	0xbdebdf3b	-0.11517187
15	0x3da919c8	0.082568705
16	0xbc16f60f	-0.009213938
17	0x3c2abbd9	0.010420763
18	0x3de6ba27	0.112659745
19	0x3d808eb9	0.06277222
20	0x3d279a67	0.040918734
21	0xbd673d27	-0.056454804
22	0x3d07f50e	0.033192687
23	0xbd2af501	-0.04173756
24	0x3df2b1ba	0.11850305
25	0x3d4a8acc	0.049448773
26	0xbc07b334	-0.008282471
27	0x3d395122	0.04524339
28	0xbd86c5b3	-0.06580677
29	0x3d760782	0.060065754
30	0xbdbb2966	-0.091387555
31	0xbe24423d	-0.16040893
32	0x3d34953d	0.044087637
33	0x3c1c1368	0.009526111
34	0xbbeeb4af	-0.0072847228
35	0x3db42788	0.087966025
36	0x3cafc8d9	0.021458076
37	0xbd371124	-0.04469408
38	0xbd638142	-0.05554319
39	0x3d52de83	0.051481735
40	0xbd6eae2a	-0.058271565
41	0xbde92d06	-0.11385541
42	0x3d4ed0c6	0.05049207
43	0x3dd758dc	0.105149955
44	0x3d74ade8	0.059736162
45	0x3d05eec6	0.032698415
46	0x3c3c7db0	0.011504576
47	0xbbdb3f80	-0.0066909194
48	0xbdcb36bd	-0.0992255
49	0xbd9cc932	-0.076555625
50	0x3de2429c	0.11047861
51	0x3d26552c	0.04060857
52	0xbd3cc350	-0.046084702
53	0xbb92fff0	-0.0044860765
54	0x3c564110	0.013077036
55	0xbd0648ea	-0.03278438
56	0x3dc22b1c	0.09480879
57	0x3dc140be	0.09436177
58	0x3d97a776	0.074049875
59	0x3d9c9d10	0.07647145
60	0xbd824212	-0.06360258
61	0xbd09ef82	-0.033675678
62	0xbddc808e	-0.10766707
63	0x3d1d0808	0.038337737
64	0x3d61971d	0.055075753
65	0xbdc63481	-0.09677983
66	0x3d38da79	0.045130227
67	0xbbd03c33	-0.0063548326
68	0xbd3fc6c9	-0.046820436
69	0xbceaacc1	-0.028646829
70	0x3d5bfb92	0.053706713
71	0x3d6bbe45	0.057554502
72	0xbd9d4161	-0.07678486
73	0xbdb47809	-0.088119574
74	0x3d88e7a5	0.06684808
75	0xbd2b3576	-0.04179903
76	0x3db359a9	0.08757336
77	0xbda380e2	-0.07983567
78	0xbdf4195f	-0.11918902
79	0xbcab694b	-0.020924231
80	0x3c2dc683	0.010606411
81	0xbdece924	-0.115679055
82	0xbd1728bd	-0.036904085
83	0xbc91ba5c	-0.017789058
84	0xbda2ab30	-0.07942808
85	0x3d89155c	0.06693527
86	0x3d9b169c	0.07572672
87	0x3ddca7f2	0.107742205
88	0x3defabc7	0.11702686
89	0xbded77b2	-0.11595096
90	0x3d3875d4	0.045034245
91	0x3deebd5b	0.116572104
92	0x3da39c8c	0.07988843
93	0x3d7d48f0	0.061837137
94	0x3df6f0dc	0.12057659
95	0xbd256b7e	-0.040385716
96	0x3da0957a	0.078410104
97	0x3cfca03b	0.030838123
98	0x3d73b62e	0.059499912
99	0x3dbe9d30	0.09307325
100	0x3c416a7c	0.011805173
101	0xbc85ebe2	-0.01634783
102	0x3df15219	0.11783237
103	0x3d9938b9	0.07481522
104	0x3b9d82ca	0.004806851
105	0xbd8dd3b2	-0.06925143
106	0xbdcb8264	-0.099369794
107	0xbd8cc3c4	-0.06873277
108	0xbce98b70	-0.028508872
109	0x3df84b0a	0.121236876
110	0xbc1d3428	-0.009594955
111	0xbdba7a71	-0.09105385
112	0x3dfd0be0	0.123557806
113	0x3d2f5258	0.04280314
114	0x3dafc8d4	0.08583227
115	0xbd834744	-0.06410077
116	0x3dd6a3b2	0.10480441
117	0xbd71689e	-0.05893766
118	0xbc82f65c	-0.015986614
119	0x3dc12f36	0.09432833
120	0x3c061080	0.008182645
121	0x3d797ee4	0.060912028
122	0x3d744ca6	0.05964341
123	0x3d6a8506	0.057255767
124	0x3d17d598	0.037068933
125	0x3d8b6501	0.06806374
126	0xbd8a638e	-0.0675727
127	0x3d99df7a	0.07513328
128	0x3e13ed67	0.1444603
129	0xbdaaf209	-0.08346946
130	0xbbe47e53	-0.006973067
131	0xbe28af7b	-0.1647319
132	0x3d8da8b1	0.06916941
133	0xbc4c00b6	-0.012451341
134	0x3d89aec7	0.06722789
135	0xbde8ae54	-0.113613755
136	0xbd78fe7f	-0.06078958
137	0x3dd52ea5	0.10409287
138	0x3d056402	0.032566078
139	0xbd1e7900	-0.038689613
140	0xbdc58f61	-0.09646488
141	0xbd826f42	-0.06368877
142	0xbc8bb829	-0.017055588
143	0xbdb30fa1	-0.08743215
144	0xbd080734	-0.033209994
145	0xbd24a2a6	-0.040194176
146	0xbe0a2fd6	-0.1349481
147	0xbce819a1	-0.028332533
148	0x3ddfdf83	0.10931303
149	0x3d7802cc	0.060549542
150	0x3c4f04de	0.012635438
151	0x3ccb0a1c	0.024785094
152	0xbde0a238	-0.10968441
153	0xbd26d48d	-0.040730048
154	0xbc33eb44	-0.010981385
155	0x3ca76f56	0.020438831
156	0x3d901be1	0.070365675
157	0xbd0c8dee	-0.034315042
158	0xbd923a1f	-0.07139992
159	0x3de22a4e	0.11043225
160	0xbb19e708	-0.0023483653
161	0xbd123ba6	-0.035701416
162	0x3cdd0b3d	0.026982898
163	0x3d38d938	0.04512903
164	0xbcbe824e	-0.023255493
165	0xbdc47b87	-0.095938735
166	0x3dcbec43	0.09957173
167	0xbb901eb1	-0.00439819
168	0x3db2e0fc	0.087343186
169	0xbdb49c58	-0.08818883
170	0x3db3062c	0.087414116
171	0x3cd864b0	0.026415199
172	0x38b9e800	8.864701e-05
173	0xbd65f7f8	-0.056144685
174	0x3e013782	0.12618831
175	0x3d4ce918	0.050026983
176	0xbc584b48	-0.013201542
177	0x3d9e4172	0.077273265
178	0xbb463140	-0.0030241758
179	0xbd845550	-0.064615846
180	0xbdb89960	-0.09013629
181	0xbd74ff18	-0.05981359
182	0xba1dc600	-0.0006018579
183	0x3e1c9aff	0.15293501
184	0xbdcbef1c	-0.09957716
185	0x3ddf8da8	0.10915691
186	0x3d037e74	0.032103017
187	0xbddc3aae	-0.1075338
188	0x3d8523ae	0.06500946
189	0xbc78132f	-0.0151412925
190	0x3c4ff533	0.012692737
191	0xbe0467fe	-0.12930295
192	0xbd927258	-0.071507156
193	0x3cff0bf4	0.03113363
194	0x3df779ce	0.12083779
195	0xbdf66c06	-0.120323226
196	0x3d7e0aae	0.062021904
197	0xbc0067a0	-0.007837206
198	0xbd579c0a	-0.052639045
199	0x3df534a0	0.11972928
200	0xbd202188	-0.039094478
201	0x3d843f81	0.06457425
202	0xbca26ed7	-0.019828243
203	0x3dfdeb30	0.12398374
204	0x3d25418b	0.04034571
205	0xbd62ba9a	-0.05535374
206	0xbd1144fe	-0.035466187
207	0x3dbbada0	0.09163976
208	0xbd36b78d	-0.04460864
209	0x3d72ddfb	0.05929373
210	0xbd817745	-0.06321577
211	0x3dedb259	0.11606283
212	0x3d1c71c4	0.038194433
213	0x3d98b137	0.07455676
214	0xbde45e8b	-0.11150845
215	0xbd3a4e26	-0.045484684
216	0xbdc23d0f	-0.09484302
217	0xbc759a9d	-0.014990476
218	0xbc6147c2	-0.013750019
219	0xbdbfe470	-0.09369743
220	0xbe0db9f0	-0.13840461
221	0xbdabecc3	-0.08394768
222	0x3dac7a8d	0.08421812
223	0xbdc15910	-0.094408154
224	0xbdfff151	-0.12497199
225	0xbd1314d9	-0.035908554
226	0xbd78f238	-0.060777873
227	0xbd035120	-0.03205979
228	0xbdbd1e02	-0.09234239
229	0xbd865fce	-0.06561242
230	0x3c54ea40	0.012995303
231	0xbddc868d	-0.10767851
232	0x3db144a4	0.0865567
233	0x3d3721d0	0.04470998
234	0x3d28555c	0.04109703
235	0x3e02f41c	0.12788433
236	0xbdb54a9c	-0.08852121
237	0xbdbc8ec1	-0.09206916
238	0xbd9e5374	-0.07730761
239	0xbd464fc8	-0.04841593
240	0xbdfb2803	-0.12263491
241	0xbca7c4b0	-0.02047953
242	0x3d9ebc22	0.07750727
243	0xbb940670	-0.004517369
244	0xbdb52875	-0.08845607
245	0xbcae01b0	-0.021241039
246	0x3d62ad78	0.055341214
247	0xbd5f0f5b	-0.054458003
248	0x3d78b3cd	0.060718346
249	0xbce600fd	-0.028076643
250	0x3d9b22a6	0.07574968
251	0xbd9e092c	-0.07716593
252	0x3dca19e9	0.09868223
253	0x3d1f0adb	0.038828712
254	0x3dbce6e3	0.09223726
255	0x3c027096	0.007961413

mlp1.0.bias f4 [150]
0	0x3ddb84d1	0.10718692
1	0x3d97a173	0.07403841
2	0xbe0bbdf8	-0.13646686
3	0x3c6fc8dc	0.014635291
4	0x3b58fe6c	0.0033110632
5	0xbd67f5a3	-0.05663074
6	0xbbcd58cf	-0.0062666903
7	0x3d6defe4	0.058090106
8	0x3d9a8dbc	0.07546565
9	0xbc889e40	-0.016677022
10	0xbdc6a110	-0.09698689
11	0xbe056f90	-0.13030839
12	0x3d6d87bb	0.05799077
13	0x3d80179f	0.06254505
14	0xbd2c0d4f	-0.04200488
15	0x3db27ecd	0.087155916
16	0xbe13e40a	-0.14442459
17	0xbd1fd258	-0.03901896
18	0x3c2f2af6	0.010691395
19	0xbddc30af	-0.10751473
20	0xbd28980a	-0.04116062
21	0x3d28aaee	0.041178636
22	0x3da09c70	0.07842338
23	0x3d192fab	0.037398975
24	0x3cf2fb3b	0.029660812
25	0x3d3ee02a	0.0466005
26	0xbe07e9eb	-0.13272826
27	0xbd0b47f9	-0.034004185
28	0x3d047e0b	0.032346766
29	0x3d56b9cc	0.052423283
30	0x3cdcbdbc	0.026945941
31	0xbd03392c	-0.032036945
32	0x3dd2e178	0.10296911
33	0x3d31fdf5	0.043455083
34	0x3d201695	0.039084036
35	0x3d76c4c4	0.060246244
36	0x3c69e512	0.014275806
37	0x3df82e0d	0.121181585
38	0x3db0255d	0.086008765
39	0xbbb4ad64	-0.005513834
40	0x3da5d125	0.08096532
41	0xbceee043	-0.02915967
42	0xbc12c9dd	-0.008959261
43	0xbdf66e06	-0.12032704
44	0x3d1ba79a	0.038001634
45	0xbd2a2d14	-0.041546896
46	0x3dc684e8	0.096933186
47	0x3bbcfe34	0.005767608
48	0xbdb19feb	-0.0867308
49	0xbd59b297	-0.053148832
50	0xbde7cba6	-0.1131814
51	0x3d87abab	0.0662454
52	0xbd07ce8a	-0.033155955
53	0xbdd9d7af	-0.106368415
54	0x3c831d5d	0.016005212
55	0x3dfe77e1	0.12425209
56	0xbbce39c3	-0.006293507
57	0xbdbf2889	-0.09333903
58	0xbd4e1e4a	-0.050321855
59	0xbb3e7ea3	-0.002906718
60	0xbceb76c2	-0.028743152
61	0xbce35400	-0.027750015
62	0xbde63f03	-0.11242487
63	0x3b59e47c	0.003324776
64	0x3d9bddf2	0.07610692
65	0x3dcdda48	0.100513995
66	0xbde261b7	-0.11053794
67	0x3d862ab3	0.06551113
68	0xbc1eeec7	-0.009700484
69	0xbd0de288	-0.034639865
70	0xbdf27d7e	-0.11840342
71	0x3deeb1ed	0.116550304
72	0xbd660d70	-0.05616516
73	0xbdee6e22	-0.116421
74	0x3d16e8a3	0.036842953
75	0x3b61bec7	0.0034445988
76	0x3d98427f	0.07434558
77	0xbd464dbf	-0.04841399
78	0xbd2bf879	-0.04198501
79	0xbd196ebe	-0.037459128
80	0xbd8fe4bd	-0.0702605
81	0x3d89eb65	0.06734351
82	0x3d7888e4	0.060677424
83	0x3de2cba5	0.11073998
84	0x3d962f07	0.073331885
85	0xbe0ae619	-0.13564338
86	0x3dfd59df	0.12370657
87	0xbdc96ca2	-0.09835173
88	0xbd842ee8	-0.06454259
89	0xbd85eaa5	-0.065388955
90	0xbd851403	-0.064979576
91	0xbca9b756	-0.020717304
92	0x3e1cc9d5	0.15311368
93	0xbe025e7f	-0.1273136
94	0xbb6a12c6	-0.0035716756
95	0x3d6351ff	0.05549812
96	0xbca6a9f5	-0.020344714
97	0x3ded08ab	0.11573919
98	0xbda32a02	-0.07966997
99	0xbd8f3fdc	-0.06994602
100	0xbda8c39b	-0.08240434
101	0xbdba5269	-0.0909775
102	0x3d363c13	0.044490885
103	0x3dc80596	0.097666904
104	0xbde4c658	-0.111706436
105	0xbdab1642	-0.08353855
106	0xbd1ad3c4	-0.03779961
107	0xbcb0da0a	-0.021588344
108	0x3dc86738	0.097853124
109	0x3dc05a00	0.09392166
110	0xbd97c3d7	-0.074104
111	0xbd781d22	-0.06057466
112	0x3c8a6f6a	0.01689883
113	0xbc3250f5	-0.0108835595
114	0xbd20ed07	-0.039288547
115	0x3db752b1	0.08951319
116	0xbd62793c	-0.0552914
117	0x3db68fdf	0.0891416
118	0x3dc6160a	0.09672172
119	0x3db8038b	0.08985051
120	0x3d54e1b9	0.05197308
121	0xbd0e404e	-0.034729294
122	0xbdc78183	-0.09741499
123	0x3d468558	0.04846701
124	0xbd5a9b16	-0.053370558
125	0xbdb479ef	-0.088123195
126	0x3d90ec6c	0.07076344
127	0xbddb5413	-0.10709395
128	0xbd1ac2dd	-0.037783492
129	0x3ca281da	0.019837309
130	0xbb4d3904	-0.0031314502
131	0x3db90314	0.0903379
132	0xbd9e42cf	-0.077275865
133	0xbd81f9cb	-0.06346472
134	0xbd77dd13	-0.060513567
135	0x3e0319f6	0.12802872
136	0x3dad37ac	0.08457884
137	0x3db6cbb2	0.089255705
138	0x3cb7f425	0.022455284
139	0xbc0864c9	-0.00832481
140	0xbd017bf8	-0.031612366
141	0x3da0ccd7	0.0785157
142	0xbdeea16e	-0.11651884
143	0xbdde32a7	-0.10849505
144	0xbd24b61c	-0.040212736
145	0xbd93c17e	-0.0721464
146	0x3c377ede	0.011199681
147	0x3dcb541b	0.09928151
148	0xbdbf56c4	-0.09342721
149	0x3dac8725	0.08424214

mlp1.2.weight f4 [100, 150]
0	0xbd2412ca	-0.04005698
1	0x3da1513b	0.078768216
2	0xbc803dbd	-0.01565444
3	0xbd512fb0	-0.05107087
4	0xbda3af03	-0.07992365
5	0xbd7b4488	-0.061344653
6	0x3d58403c	0.052795634
7	0x3da33aa7	0.079701714
8	0x3d3f0db0	0.046643913
9	0xbbf113a9	-0.00735708
10	0x3cf42a74	0.0298054
11	0xbd62839a	-0.055301286
12	0xbcf6727b	-0.030083885
13	0xbc528aee	-0.012850506
14	0xbd2b0473	-0.04175229
15	0xbd882d9b	-0.066493236
16	0x3c10f3fa	0.008847231
17	0xba2e3bcf	-0.00066464854
18	0xbd769cc0	-0.060208082
19	0xbd32fb91	-0.043696944
20	0xbcff5c38	-0.031171903
21	0x3d8c9a6e	0.068653926
22	0xbd943ae6	-0.072377965
23	0xbb7a9a60	-0.0038238987
24	0x3cfd4734	0.030917741
25	0x3d46ec83	0.0485654
26	0xbd9bf285	-0.07614616
27	0x3c3015fd	0.01074743
28	0xbaf73b3d	-0.0018862259
29	0xbd3bfb46	-0.04589393
30	0xbd76e395	-0.060275633
31	0xbd42c136	-0.04754754
32	0xbd7c0652	-0.061529465
33	0x3aa1f4f6	0.0012356329
34	0x3d3acb84	0.045604244
35	0xbd9d6944	-0.076860934
36	0x3d7ce63f	0.061743017
37	0xbd0ef0f3	-0.034897756
38	0xbd31876d	-0.043342043
39	0x3d8b8d2a	0.06814034
40	0x3b662f4a	0.0035123401
41	0xbd8fabdb	-0.07015201
42	0x3ad24a6b	0.0016043907
43	0x3c7f3242	0.015575947
44	0xbd94e355	-0.07269923
45	0x3da1bd2e	0.07897411
46	0xbda62efd	-0.08114431
47	0x3c9ea905	0.019367704
48	0xbd81f902	-0.063463226
49	0x3c40743a	0.011746461
50	0xbca02344	-0.019548066
51	0xbd1c62c0	-0.038180113
52	0xbd124368	-0.035708815
53	0x3d8df094	0.06930652
54	0x3d811a00	0.06303787
55	0x3ccbee3b	0.02489387
56	0xbc6ef6b0	-0.014585182
57	0xbcf930a1	-0.030418696
58	0x3d5608f5	0.052254636
59	0xbd2ee790	-0.042701304
60	0xbd201da4	-0.039090768
61	0x3c48099d	0.012209323
62	0xbb4317c0	-0.0029768795
63	0x3d3eff0b	0.046629947
64	0x3da04538	0.078257024
65	0x3d5f79b9	0.054559443
66	0xbcd93e16	-0.026518863
67	0xbd3e5740	-0.046469927
68	0x3d9bdc8f	0.076104276
69	0xbd0903cb	-0.033450883
70	0x3d27023d	0.04077362
71	0xbcfa8a00	-0.030583382
72	0x3c2cfc1d	0.010558155
73	0xbd2ecce5	-0.04267587
74	0xbd6201f8	-0.05517766
75	0x3c89491f	0.0167585
76	0xbb97743e	-0.0046220114
77	0x3d9e4353	0.07727685
78	0x3d6df34c	0.058093354
79	0xbd85ea0a	-0.0653878
80	0xbd013451	-0.031544033
81	0xbc1034ef	-0.008801683
82	0x3d51b3b4	0.05119677
83	0xbcbf2eec	-0.023337804
84	0xbb73b5c3	-0.0037187196
85	0xbd9d3448	-0.076759875
86	0x3da1391c	0.07872221
87	0x3d3f5484	0.04671146
88	0xbb703480	-0.0036652386
89	0x3c9cd04a	0.019142289
90	0xbd771453	-0.060322117
91	0xbd88da6b	-0.06682285
92	0x3d05d05c	0.03266941
93	0xbc6f3774	-0.014600623
94	0x3cdb5800	0.02677536
95	0xbd59cd75	-0.053174455
96	0xbd96c90c	-0.073625654
97	0x3c7de72a	0.015497008
98	0x3d380b04	0.04493238
99	0xbc9630a0	-0.018333733
100	0x3c593e72	0.013259517
101	0xbd32f69b	-0.043692213
102	0xbd25c37c	-0.04046963
103	0xbd8678dd	-0.065660216
104	0xbd9ae980	-0.07564068
105	0xbca39699	-0.019969271
106	0xbc9ee663	-0.019396966
107	0xbbf1254d	-0.007359183
108	0x3d1bb8e2	0.038018115
109	0x3d23c399	0.03998146
110	0x3d6c4763	0.057685267
111	0x3b8d2953	0.0043079047
112	0x3d3cc000	0.046081543
113	0xbd9ea447	-0.07746177
114	0xbd220365	-0.03955402
115	0x3d431e81	0.047636513
116	0x3cbdcc1c	0.023168616
117	0x3ce0d4fa	0.027445305
118	0x3d0910f4	0.033463433
119	0xbd9aae54	-0.07552782
120	0x3d8670a1	0.06564451
121	0xbc89c6e3	-0.01681847
122	0x3c8f378e	0.017482545
123	0x3c76186c	0.015020471
124	0xbd685cd6	-0.05672916
125	0xbd66d790	-0.05635792
126	0xbca340da	-0.019928385
127	0x3d078378	0.033084363
128	0x3ad7c66d	0.0016462334
129	0x3d6974f6	0.05699631
130	0xbd56eddc	-0.052472934
131	0x3d819f9f	0.063292734
132	0xbd33ee07	-0.043928172
133	0xbd6be784	-0.057593837
134	0x3d9fe7eb	0.07807907
135	0xbccd455f	-0.025057493
136	0xbca41e4d	-0.02003398
137	0xbcabcd6f	-0.020971982
138	0x3cd94a62	0.026524726
139	0xbbb59384	-0.005541267
140	0xbb2ab68f	-0.0026048755
141	0xbc45be93	-0.012069362
142	0x3b73a756	0.0037178597
143	0x3d809585	0.062785186
144	0xbd0135b3	-0.031545352
145	0xbd9486b1	-0.07252253
146	0x3d04d306	0.03242781
147	0x3d545ee0	0.051848292
148	0xbbd1cfa0	-0.0064029247
149	0xbca4345b	-0.020044496
150	0x3d9cff83	0.076659225
151	0x3d9a8acb	0.07546004
152	0x3d8353f2	0.06412496
153	0xbcaf0e25	-0.02136905
154	0xbc64430c	-0.013932001
155	0xbba50f61	-0.0050372337
156	0x3cfe9511	0.03107694
157	0xbcf4662f	-0.029833881
158	0xbd495428	-0.049152523
159	0x3c9c22cd	0.019059563
160	0x3c0f2cf2	0.008738743
161	0xbd701e2f	-0.058622535
162	0xbbac5a87	-0.005259815
163	0xbb50b5c7	-0.003184663
164	0xbc217f84	-0.009857062
165	0x3c366400	0.01113224
166	0xbb4cae25	-0.0031231728
167	0xbd074338	-0.03302309
168	0x3cdc8389	0.02691819
169	0x3dab0642	0.08350803
170	0x3d46a0b3	0.0484931
171	0x3d49d2c5	0.04927327
172	0xbd47dc73	-0.04879422
173	0x3d9104ab	0.070809685
174	0xbda1fea1	-0.07909895
175	0x3d9d3abe	0.0767722
176	0xbd93f87f	-0.07225131
177	0xbd7285c8	-0.059209615
178	0xba93a06f	-0.0011263023
179	0x3cec60ac	0.02885469
180	0x3d8816a8	0.06644946
181	0xbd202038	-0.039093226
182	0x3d571f3e	0.05252003
183	0xbc67d95b	-0.014150943
184	0x3d75b3da	0.059985973
185	0x3d9cee79	0.076626725
186	0xbceb46b3	-0.028720235
187	0xbd3e319d	-0.046434034
188	0x3d0bdbdf	0.034145232
189	0x3d491892	0.049095698
190	0x3d6f17a3	0.05837215
191	0xbcab5452	-0.02091423
192	0x3d728e06	0.059217475
193	0x3dac3ea4	0.08410385
194	0xbd65f199	-0.05613861
195	0x3c9ca658	0.019122288
196	0x3d69b5f1	0.05705828
197	0x3dab29ca	0.0835758
198	0x3d418e71	0.047254983
199	0xbd51a205	-0.051179904
200	0xbd838ba1	-0.064231165
201	0xbd5dc878	-0.05414626
202	0xbce94adc	-0.028478079
203	0xbc342704	-0.01099563
204	0x3c5837e4	0.013196919
205	0x3cba9150	0.022774369
206	0xbb09a93f	-0.002100542
207	0x3c4c2e82	0.01246226
208	0xbc28d06b	-0.010303597
209	0x3d509657	0.050924625
210	0x3d47fc4d	0.048824597
211	0x3d7aa544	0.061192766
212	0x3d1d3b1e	0.038386457
213	0x3d099c79	0.03359649
214	0x3cd8657e	0.026415583
215	0x3d080555	0.03320821
216	0xbd5992c6	-0.05311849
217	0x3b6ea1fa	0.0036412464
218	0xbc39462e	-0.011308236
219	0xbd6e1fd9	-0.05813584
220	0xbd52d2ee	-0.05147069
221	0x3d02ed82	0.031964786
222	0x3c9b77e6	0.01897807
223	0x3d6d8eeb	0.057997625
224	0x3c3dbfa7	0.011581338
225	0x3d652229	0.05594078
226	0xbc55cd9d	-0.01304951
227	0x3d882d14	0.06649223
228	0x3d04fe75	0.03246923
229	0x3d986a00	0.07442093
230	0x3d79b398	0.06096229
231	0x3d967685	0.073468246
232	0x3db8d818	0.090255916
233	0xbd9db868	-0.07701188
234	0xbb709dbd	-0.0036715113
235	0x3ccbded2	0.024886522
236	0x3d19737a	0.037463643
237	0xbdae0f4f	-0.08499014
238	0x3b242a83	0.0025049753
239	0xbc3360c5	-0.010948365
240	0x3d2062d4	0.03915675
241	0x3d64e446	0.05588176
242	0xbd0952b2	-0.03352613
243	0x3d4a51d7	0.049394455
244	0xbc8e55ea	-0.017374951
245	0xbcc72ec9	-0.024314301
246	0xbd437e1f	-0.0477277
247	0xbd24e234	-0.040254787
248	0x3d7acce8	0.06123057
249	0x3bd2ec48	0.0064368583
250	0x3d83aa65	0.064289846
251	0x3d49b69a	0.049246408
252	0xbc61770f	-0.013761296
253	0xbd2e4988	-0.042550594
254	0xbad0435f	-0.0015889219
255	0xbcc9571a	-0.024577666

mlp1.2.bias f4 [100]
0	0x3d3680b8	0.04455635
1	0x3dc2f2dc	0.09518978
2	0x3c34800a	0.011016855
3	0xbba06246	-0.0048945276
4	0x3ccd118b	0.02503278
5	0xbd0c0202	-0.034181602
6	0xbc1775af	-0.009244367
7	0xbd8c784d	-0.06858883
8	0xbd79e2bf	-0.061007258
9	0x3d87992a	0.066210106
10	0x3d335b55	0.043788273
11	0x3d7e6d26	0.06211581
12	0xbd1e5206	-0.038652442
13	0xbd82a059	-0.0637824
14	0x3d9c58c2	0.07634117
15	0x3cc88b78	0.024480566
16	0xbd716b64	-0.058940306
17	0x3dae1c15	0.0850145
18	0x3de12cfc	0.10994908
19	0x3c0a9dce	0.008460475
20	0xbcfc6844	-0.030811436
21	0x3ba1995a	0.004931611
22	0x3ceb53c9	0.028726475
23	0x3cbfe7c6	0.023425948
24	0x3d91c19e	0.07117008
25	0xbd0b1d92	-0.033963747
26	0x3d0f3af5	0.034968335
27	0x3d4b9f42	0.049712427
28	0xbceb4bf5	-0.028722743
29	0x3cba0e90	0.022712022
30	0x3d213901	0.039361004
31	0x3d502fac	0.050826713
32	0xbce40a29	-0.027836876
33	0x3d1af1c0	0.037828207
34	0x3c90fed3	0.017699635
35	0xbc09f168	-0.008419372
36	0x3d75d841	0.06002069
37	0x3d57a6a4	0.052649155
38	0x3c9103d3	0.017702019
39	0x3da01245	0.07815985
40	0xbd97ecd0	-0.07418215
41	0x3d74c9e4	0.05976285
42	0x3d16bf98	0.03680381
43	0x3d1fdd97	0.039029684
44	0xbab20e68	-0.0013584616
45	0xbcab0933	-0.02087841
46	0xbc86f492	-0.016474042
47	0x3d71d2a8	0.059038788
48	0xbd8132b6	-0.063085005
49	0x3bfb02c6	0.0076602427
50	0x3cf79be0	0.030225694
51	0x3d5a5153	0.053300213
52	0xbda387f5	-0.07984916
53	0xbd7ded0c	-0.061993644
54	0x3d4ece10	0.050489485
55	0xbb1091e4	-0.0022059614
56	0x3cbeab0d	0.023274923
57	0x3d77852f	0.06042975
58	0xbd1c9491	-0.03822762
59	0x3d5f5731	0.05452651
60	0x3c6df94a	0.014524767
61	0x3cb5683a	0.022144426
62	0xbd10c131	-0.03534049
63	0x3dcb63c3	0.099311374
64	0x3c6fa078	0.014625661
65	0x3c61fe0b	0.013793479
66	0xbd7c880c	-0.061653182
67	0xbc59c452	-0.013291435
68	0x3cbf9ea4	0.023391075
69	0x3d8da92f	0.06917035
70	0x3baeaeb1	0.0053308834
71	0x3ddd06e1	0.10792328
72	0xbda78f21	-0.081815965
73	0x3d7caedb	0.061690193
74	0x3d4d9358	0.050189346
75	0x3dcbe784	0.099562675
76	0xbd24a94a	-0.04020051
77	0xbdbdb2ff	-0.092626564
78	0xbd30ec10	-0.043193877
79	0x3da6fc5a	0.08153601
80	0xbcdfb2b1	-0.027306886
81	0xbd941ed2	-0.07232441
82	0x3d9d76ad	0.07688651
83	0xbd08c4e3	-0.03339089
84	0x3d2894cd	0.041157532
85	0xbd9df66f	-0.07713019
86	0xbd4a91f2	-0.04945559
87	0xbc8a5aba	-0.016888965
88	0xbc8c6b87	-0.017141117
89	0x3d811b68	0.063040555
90	0x3d82f913	0.063951634
91	0x3d39fb6f	0.0454058
92	0x3d4d9896	0.050194345
93	0x3d1cde65	0.03829803
94	0x3cfffc86	0.031248342
95	0xbd5a7037	-0.053329673
96	0x3d877e79	0.066159196
97	0x3d2aea73	0.041727494
98	0xbd5b492a	-0.05353657
99	0x3d01d2f5	0.031695325

mlp2.0.weight f4 [100, 100]
0	0xbd30a75b	-0.043128353
1	0x3d05361c	0.032522306
2	0xbcad9ee6	-0.021193933
3	0xbd4d89fd	-0.050180424
4	0x3c810320	0.01574856
5	0x3d8f62af	0.07001244
6	0x3c50b0e9	0.012737491
7	0xbda3f3e4	-0.08005503
8	0x3d7d6350	0.06186229
9	0x3d2be7fe	0.041969292
10	0xbc2d023f	-0.010559618
11	0xbdb2282a	-0.08699067
12	0x3c295b41	0.010336698
13	0xbcb7959f	-0.022410212
14	0x3d73730f	0.0594359
15	0x3d64cbdc	0.055858478
16	0xbd615f55	-0.055022556
17	0xbcfdfa0e	-0.031003024
18	0xbc9dd0a9	-0.019264536
19	0xbc0ea7b0	-0.008706972
20	0xbd3fefc3	-0.046859514
21	0xbdbb5d1a	-0.09148617
22	0x3cfbb875	0.030727604
23	0xbcef21a9	-0.029190855
24	0x3d74cbec	0.059764788
25	0x3cf6fa3c	0.030148618
26	0xbdadbe1a	-0.084835246
27	0xbc540288	-0.012940057
28	0x3d9266ce	0.07148515
29	0xbcdbd093	-0.026832854
30	0xbd6d0e3d	-0.057874907
31	0x3d76cf05	0.060256023
32	0xbc1e86e7	-0.009675718
33	0xbd9405ac	-0.07227644
34	0xbd60cd48	-0.05488327
35	0x3c2b8e42	0.010470929
36	0xbdb8b2b1	-0.09018458
37	0x3d68a281	0.0567956
38	0xbd1b0b43	-0.037852537
39	0xbda7752d	-0.081766464
40	0xbd5de167	-0.05417004
41	0x3d02ec74	0.03196378
42	0x3c1028a3	0.008798751
43	0xbd2f6365	-0.0428194
44	0xbdb7507f	-0.089509
45	0x3d30e900	0.043190956
46	0x3cb85f11	0.022506269
47	0x3d214555	0.03937276
48	0x3d7cd31a	0.06172476
49	0x3c577050	0.013149336
50	0xbd7c8eef	-0.06165975
51	0xbd1cfbd1	-0.03832609
52	0xbd81b27b	-0.063328706
53	0xbd8211ac	-0.06351027
54	0xbdc3741f	-0.09543633
55	0xbdb3f294	-0.087865025
56	0xbc897956	-0.01678149
57	0x3d191df8	0.037382096
58	0x3d2de0fa	0.042450882
59	0x3d2bb4ac	0.04192035
60	0x3dbc1899	0.09184379
61	0xbd990cf2	-0.07473172
62	0x3dcca03c	0.099915
63	0xbd3c68e4	-0.04599847
64	0xbd14a54b	-0.03629045
65	0xbd3ce130	-0.046113193
66	0xbdbae082	-0.09124853
67	0x3dac479b	0.08412095
68	0xbc91c578	-0.017794356
69	0x3db2398b	0.08702382
70	0x3d993323	0.07480457
71	0x3d796d5f	0.06089532
72	0x3da43950	0.08018744
73	0xbd599821	-0.053123597
74	0xbda87c66	-0.08226852
75	0x3d9e0050	0.07714903
76	0xbd157ca8	-0.036495835
77	0x3da0eab6	0.078572676
78	0x3db3e26a	0.087834194
79	0xbdc0e15b	-0.09417983
80	0xbdbb8456	-0.091561005
81	0xbd6b0cc5	-0.057385225
82	0x3d6393ee	0.055561
83	0xbcea0a06	-0.028569233
84	0xbd1eaf8e	-0.03874164
85	0xbd2dd205	-0.04243662
86	0xbd9da861	-0.07698131
87	0xbd49dcb4	-0.049282745
88	0xbd8409b8	-0.06447166
89	0x3d19e246	0.037569307
90	0x3a09d24f	0.00052574737
91	0x3d9386f7	0.07203477
92	0x3d1babb2	0.03800554
93	0xbc1670b9	-0.009182149
94	0x3dbcffb5	0.0922846
95	0xbc43b1a1	-0.0119442055
96	0x3da39c7b	0.07988831
97	0xbd4911f3	-0.049089383
98	0xbdb92f14	-0.090421826
99	0x3d257feb	0.040405195
100	0xbd2ce5fd	-0.04221152
101	0x3d3a1dc9	0.04543856
102	0xbdbcaf0f	-0.09213077
103	0xbac4047d	-0.0014954951
104	0xbcbcf6d8	-0.023066923
105	0x3ce5bb29	0.028043346
106	0x3b650c7a	0.0034950064
107	0x3d975cb6	0.0739073
108	0x3d59c941	0.053170446
109	0xbda8f61a	-0.08250065
110	0x3d8ed201	0.06973649
111	0x3d4b0b13	0.049571108
112	0x3cd789c4	0.026310809
113	0xbceb0c80	-0.028692484
114	0xbd04fd29	-0.032467995
115	0x3cfc5cb0	0.030805916
116	0xbd3f0d70	-0.046643674
117	0x3d87afd3	0.06625333
118	0x3dacabcc	0.08431205
119	0x3d353b34	0.044245914
120	0xbda0df71	-0.07855118
121	0x3d91c830	0.07118261
122	0xbcc927c5	-0.024555096
123	0xbca39caf	-0.019972173
124	0x3db51990	0.08842766
125	0x3a9a8840	0.0011789873
126	0x3dc787ac	0.09742674
127	0x3cd4da59	0.025983023
128	0x3d9d2f63	0.07675054
129	0x3d77dab4	0.060511306
130	0xbdb232e7	-0.08701115
131	0x3d9b4461	0.075814016
132	0x3c9c511b	0.019081643
133	0xbd8f32f9	-0.06992144
134	0x3db99133	0.09060898
135	0xbd16a312	-0.03677661
136	0xbd925862	-0.07145764
137	0x3d8111c4	0.06302217
138	0xbd3b67ac	-0.045753166
139	0xbca0d363	-0.019632047
140	0xbdab03f8	-0.08350366
141	0x3db90691	0.090344556
142	0x3da204f2	0.079110995
143	0xbd3a1c55	-0.045437176
144	0x3c86ad68	0.016440108
145	0x3d623e16	0.05523499
146	0xbdbc1779	-0.091841646
147	0x3be9ae32	0.0071313614
148	0x3d2a531d	0.04158317
149	0x3d88e5a5	0.06684426
150	0xbd472a9e	-0.048624627
151	0xbdbb7248	-0.09152657
152	0xbd2a5faa	-0.04159514
153	0xbd226627	-0.0396482
154	0xbd0c93c9	-0.034320626
155	0x3d25a44f	0.0404399
156	0xbdc71503	-0.097208045
157	0xbd396f0f	-0.04527193
158	0x3da5aa2c	0.08089098
159	0x3d66dece	0.056364827
160	0x3dc1ca71	0.09462441
161	0x3db09187	0.08621507
162	0xbd8b8928	-0.0681327
163	0xbc8114af	-0.015756933
164	0xbdaaab82	-0.08333494
165	0x3d077b56	0.033076607
166	0xbcfa9518	-0.030588672
167	0x3da19b5d	0.07890961
168	0x3b679432	0.0035336134
169	0x3daa37e2	0.0831144
170	0x3d52eb50	0.051493943
171	0xbd604f72	-0.054763265
172	0xbb9d915b	-0.0048085875
173	0xbdb8826d	-0.09009252
174	0xbd50c822	-0.05097211
175	0xbd0d6731	-0.03452224
176	0xbdc4ce61	-0.09609676
177	0x3da0335d	0.07822297
178	0xbd94a0f6	-0.07257263
179	0xbd90a0bb	-0.07061907
180	0xbd3a16f6	-0.045432054
181	0xbd2b3ccd	-0.04180603
182	0x3c85f432	0.016351793
183	0xbdbe1b79	-0.09282584
184	0x3d19342d	0.037403274
185	0x38efd641	0.00011436316
186	0x3c8462eb	0.016160449
187	0xbd9528a6	-0.07283144
188	0x3d07c4f2	0.033146806
189	0x3d8254b3	0.06363811
190	0x3d780e8b	0.060560744
191	0xbdba09f1	-0.090839274
192	0xbcfc2d96	-0.030783456
193	0x3d15d703	0.036582004
194	0xbdb94753	-0.09046807
195	0xbd3e3c28	-0.04644409
196	0xbdaa44c9	-0.08313901
197	0x3ca7e692	0.020495687
198	0xbd0adff1	-0.033904973
199	0x3dc409c6	0.09572177
200	0xbd88b519	-0.06675167
201	0x3db96d71	0.090540774
202	0x3dca3062	0.098725095
203	0x3d631f4f	0.05544978
204	0x3c2dc975	0.010607113
205	0x3d166aee	0.03672307
206	0x3cfb61c7	0.030686272
207	0xbdc4ad40	-0.09603357
208	0xbdc4eec2	-0.09615852
209	0x3d2dd764	0.04244174
210	0xbcd6f24d	-0.026238585
211	0xbc9911a3	-0.018685168
212	0x3cbaa141	0.02278197
213	0x3d89fb80	0.06737423
214	0x3cd62a65	0.026143262
215	0x3d6e39f0	0.058160722
216	0x3d2fae0b	0.04289059
217	0x3dc8de6f	0.09808051
218	0xbbbe2efa	-0.00580394
219	0x3ce144af	0.027498571
220	0x3d3ba5bf	0.045812365
221	0x3da60d96	0.0810806
222	0x3d8d4a4a	0.06898935
223	0xbd515f7f	-0.051116463
224	0xbcd1dfc2	-0.025619391
225	0x3dc15b43	0.09441235
226	0x3d693140	0.056931734
227	0xbd80279f	-0.06257557
228	0x3dacc911	0.08436788
229	0xbdc62ac9	-0.09676129
230	0x3d4dd0d4	0.050247982
231	0x3bf915de	0.0076014837
232	0x3da8bcef	0.08239161
233	0x3dc0965a	0.09403677
234	0xbd81b2d9	-0.063329406
235	0x3d112b56	0.03544172
236	0xbcc93daf	-0.024565546
237	0x3d587ed0	0.052855313
238	0x3bf42e99	0.007451844
239	0xbd8a61ea	-0.06756957
240	0x3d200f96	0.039077364
241	0xbd8204d0	-0.06348574
242	0xbcafa9a3	-0.021443194
243	0x3c2c5510	0.010518327
244	0xbd1c5bf3	-0.038173627
245	0x3da44afd	0.080221154
246	0xbd34900e	-0.044082694
247	0x3cd87f81	0.026427986
248	0x3d8a8471	0.067635424
249	0x3dcec67e	0.10096453
250	0xbd276212	-0.04086501
251	0x3d991357	0.07474392
252	0x3d86f736	0.065901205
253	0x3d7ae4d3	0.06125338
254	0xbb7cbf2c	-0.0038566096
255	0xbdb1c8a0	-0.08680844

mlp2.0.bias f4 [100]
0	0xbc6ae2ac	-0.014336269
1	0xbdb3d101	-0.08780099
2	0xbd2d2550	-0.042271912
3	0x3d76fb25	0.060298104
4	0x3d1a96ec	0.037741587
5	0xbd4ecac4	-0.05048634
6	0x3dc0edfc	0.09420392
7	0xbd1615f3	-0.036642026
8	0xbbb68f13	-0.005571255
9	0xbd57e21d	-0.052705873
10	0x3cf36400	0.02971077
11	0xbd30daf8	-0.043177575
12	0x3d6ae732	0.05734939
13	0x3d939b79	0.072073884
14	0xbcdbb067	-0.026817514
15	0xbc77c9b8	-0.015123777
16	0x3bffc066	0.007804918
17	0x3cc7a30d	0.02436974
18	0x3d8734aa	0.06601842
19	0x3dcbbd03	0.099481605
20	0x3d102c42	0.035198458
21	0x3d06021f	0.032716867
22	0xbda430ef	-0.08017146
23	0x3d7795ee	0.06044572
24	0xbdc518e7	-0.0962389
25	0xbdd01b9c	-0.10161516
26	0xbd7ec08b	-0.062195342
27	0xbce5ea4a	-0.02806582
28	0xbd8e1938	-0.06938404
29	0x3d201bd1	0.039089028
30	0xbd9d0acd	-0.07668076
31	0x3ce4d38c	0.027932905
32	0xbdc609a2	-0.09669806
33	0xbd80ebdf	-0.06294989
34	0x3ba6a28a	0.005085294
35	0x3d639a67	0.05556717
36	0x3d555089	0.052078757
37	0xbd04f4a0	-0.032459855
38	0xbda74b4d	-0.08168659
39	0xbc87f8f4	-0.016598202
40	0x3db1ce62	0.086819425
41	0x3dc109be	0.09425686
42	0x3bd529b6	0.0065052165
43	0xbd858959	-0.065203376
44	0x3cb0044d	0.021486426
45	0x3dcf44f0	0.10120571
46	0x3d3bc7c4	0.04584481
47	0xbd0bc629	-0.034124527
48	0xbd4b926c	-0.049700186
49	0xbd80e4b7	-0.06293624
50	0x3b46a1d4	0.003030886
51	0xbdacb542	-0.0843301
52	0xb9f123d5	-0.000459938
53	0x3ad3bb6e	0.0016153881
54	0x3dcdf505	0.100564994
55	0x3d3a1c19	0.045436952
56	0x3a41309d	0.00073696097
57	0x3d174529	0.03693119
58	0xbda38f08	-0.079862654
59	0x3de1ce55	0.11025683
60	0x3bfa1f02	0.007633091
61	0x3d616f37	0.055037703
62	0x3e10db21	0.14146091
63	0x3b918d61	0.0044419025
64	0x3db79186	0.08963303
65	0xbd4336e7	-0.04765978
66	0x3d0ee628	0.034887463
67	0x3d6753e1	0.056476478
68	0xbda5be94	-0.080929905
69	0x3d93eb80	0.072226524
70	0x3d0260b8	0.03183052
71	0xbcab232a	-0.020890791
72	0xbcacac6d	-0.021078313
73	0xbd9d45ee	-0.07679354
74	0x3da924c7	0.08258968
75	0xbb920a6a	-0.004456808
76	0x3d7a5cc1	0.061123613
77	0x3dc6dcd7	0.097100906
78	0x3c90f54d	0.017695094
79	0xbd5ad8ab	-0.053429287
80	0x3d329764	0.04360141
81	0x3d1f3b8b	0.038875144
82	0x3d38e821	0.04514325
83	0xbdb849ed	-0.08998475
84	0xbd1aa6c8	-0.03775671
85	0x3d53431b	0.05157767
86	0x3dd1a544	0.102366
87	0x3c93ede6	0.018057775
88	0x3c490dba	0.012271339
89	0x3dcce6a0	0.10004926
90	0x3d8e9ae3	0.06963136
91	0xbbdaadf6	-0.00667357
92	0xbc10d5d4	-0.008840043
93	0xbdb434c2	-0.08799125
94	0xbdc0b321	-0.09409166
95	0x3cc8d3f9	0.024515139
96	0xbda056bc	-0.07829043
97	0x3d9abd24	0.07555607
98	0x3da09510	0.078409314
99	0xbcfcee58	-0.03087537

mlp2.2.weight f4 [50, 100]
0	0x3d3aa7b1	0.04557008
1	0x3d95acbd	0.07308338
2	0x3b33267d	0.0027336173
3	0x39646bc0	0.00021783914
4	0xbbb59799	-0.0055417535
5	0x3d56826c	0.052370474
6	0xbb0ba0a2	-0.0021305461
7	0x3d4e9aec	0.050440714
8	0x3b699f36	0.0035647876
9	0x3b883017	0.0041561234
10	0xbb8bea94	-0.0042699073
11	0x3dbadf3c	0.0912461
12	0x3dea7839	0.11448712
13	0xbcc20a3f	-0.023686526
14	0x3d3aeca4	0.045635834
15	0x3bb3966c	0.005480578
16	0x3d082c73	0.033245515
17	0xbbe30107	-0.0069276127
18	0x3cfac7df	0.030612884
19	0xbdbd799a	-0.09251709
20	0xbc342dbb	-0.010997231
21	0xbd8cfb3e	-0.06883858
22	0x3c82171f	0.015880166
23	0xbc90c579	-0.017672287
24	0x3d011ebe	0.03152346
25	0xbda7e523	-0.08198001
26	0xbdd2f2e5	-0.10300235
27	0xbd730fe3	-0.059341323
28	0x3cd1c033	0.025604343
29	0x3db87704	0.090070754
30	0x3dadcccd	0.08486328
31	0x3d5b7a9d	0.05358373
32	0xbd9d77cd	-0.07688866
33	0xbcfd857a	-0.030947436
34	0x3d78833f	0.06067204
35	0xbd81ccdc	-0.06337902
36	0xbc19c9a2	-0.009386452
37	0x3d952750	0.07282889
38	0xbd87e189	-0.06634814
39	0xbc8017ac	-0.015636288
40	0xbc2436e0	-0.010022849
41	0xbc96e39b	-0.018419078
42	0x3d566fee	0.05235284
43	0x3bbefbd7	0.0058283615
44	0x3da2db05	0.07951931
45	0x3c223c73	0.0099021075
46	0xbd144df9	-0.036207173
47	0xbd96e63f	-0.07368135
48	0xbd3e7b40	-0.04650426
49	0x3daf5819	0.08561725
50	0xb9a55503	-0.0003153459
51	0x3d93a26e	0.072087154
52	0xbdcec8c7	-0.10096889
53	0xbda430b1	-0.080171
54	0x3d8b1990	0.06791985
55	0x3dc1279a	0.094313815
56	0x3d81d995	0.063403286
57	0x3d952d33	0.07284012
58	0x3d92427c	0.07141587
59	0x3db3d3f8	0.08780664
60	0xbbd75735	-0.006571675
61	0x3c85f6ae	0.016352978
62	0x3c740f8d	0.014896286
63	0xbdb7f1f2	-0.08981694
64	0xbc19bb9d	-0.009383109
65	0xbb0791d2	-0.002068628
66	0x3db6bfb2	0.08923282
67	0xbd85e5de	-0.06537984
68	0x3d5208b9	0.05127785
69	0x3c356ded	0.011073572
70	0xbd61f34b	-0.055163663
71	0xbd18e675	-0.037329156
72	0xbd6d5cf5	-0.05794998
73	0x3d5e20d2	0.05423052
74	0xbc51f8c5	-0.012815659
75	0x3dc5c18d	0.096560575
76	0xbd9acbd6	-0.0755841
77	0x3cb1be18	0.02169709
78	0xbd955536	-0.07291643
79	0xbd204a4f	-0.039133366
80	0xbda36c6c	-0.07979664
81	0xbcf586be	-0.029971477
82	0xbd5eee0c	-0.054426238
83	0x3d3f0320	0.04663384
84	0xbd8878c9	-0.06663663
85	0xbbbefc75	-0.005828435
86	0x3d896b20	0.067098856
87	0xbd2c5a27	-0.042078163
88	0x3bd1693b	0.0063907183
89	0xbd7cc44e	-0.06171065
90	0xbd836be8	-0.06417066
91	0xbd806576	-0.06269352
92	0xbc89f460	-0.01684016
93	0xbc87cd72	-0.016577456
94	0x3d2488f1	0.04016966
95	0xbd995820	-0.07487512
96	0xbd977edd	-0.07397244
97	0x3dcbd457	0.0995261
98	0xbd24198e	-0.040063433
99	0xbdb0683f	-0.08613633
100	0x3d6714ea	0.05641643
101	0x3d83c080	0.06433201
102	0x3d9b8ebc	0.07595584
103	0x3c9e28e4	0.019306608
104	0x3d84404b	0.064575754
105	0x3d9fa7c9	0.07795674
106	0xbc36790e	-0.01113726
107	0xbcba74f7	-0.022760851
108	0xbd3d4481	-0.04620791
109	0xbda3efb3	-0.080047034
110	0x3d6b482f	0.057441887
111	0xbd92d1ba	-0.071689084
112	0xbe7d0564	-0.24709088
113	0xbd54ac75	-0.05192228
114	0x3dc829e6	0.097736165
115	0x3d9ad01b	0.07559224
116	0x3dd505af	0.10401475
117	0x3ddd5e7f	0.10809039
118	0x3cc32d2c	0.02382525
119	0x3d9698a3	0.07353332
120	0x3e1819ef	0.14853643
121	0xbd8ee3e2	-0.06977059
122	0xbd84d38a	-0.064856604
123	0xbd621a5b	-0.055200916
124	0xbda30fcb	-0.07961997
125	0xbd3ea9a7	-0.04654851
126	0x3dde7dea	0.1086386
127	0xbcf3a067	-0.029739572
128	0xbc5986f6	-0.013276806
129	0xbda9c35b	-0.08289214
130	0xbd418512	-0.047246046
131	0xbc2bd4a3	-0.010487708
132	0x3d01affe	0.03166198
133	0x3c9ef0da	0.019401956
134	0xbdecb90e	-0.11558734
135	0x3db0e116	0.08636682
136	0xbd3dd84b	-0.04634885
137	0xbdad38bf	-0.08458089
138	0xbdb2539a	-0.08707352
139	0xbc606b74	-0.013697494
140	0xbd809b0a	-0.06279571
141	0x3c8f3e0e	0.017485645
142	0x3d8f1ae9	0.069875546
143	0xbd75eb87	-0.06003907
144	0x399be359	0.0002973329
145	0x3bfaa20c	0.007648712
146	0x3ae24f25	0.0017266019
147	0xbdc2b66a	-0.09507449
148	0xbdb20f1d	-0.08694289
149	0xbd401bf6	-0.046901666
150	0x3c365daf	0.011130734
151	0x3c397207	0.01131869
152	0xbd2cd0cc	-0.04219131
153	0x3d9ae957	0.07564037
154	0x3c917684	0.017756708
155	0xbdbfdeae	-0.09368645
156	0xbcfdba3c	-0.030972593
157	0xbe5b0150	-0.2138722
158	0x3d91be41	0.07116366
159	0xbd4d467c	-0.050116047
160	0xbd78ec4c	-0.060772225
161	0xbca0b0f6	-0.019615632
162	0xbe18744a	-0.14888111
163	0x3c79090b	0.01519991
164	0x3dc48b09	0.09596831
165	0xbd167fd9	-0.03674302
166	0x3d609653	0.05483086
167	0x3b86ffc3	0.0041198446
168	0xbd89536c	-0.067053646
169	0xbc9fc620	-0.019503653
170	0xbc8f5155	-0.017494837
171	0xbd98bf21	-0.0745833
172	0xbda4fdfc	-0.08056256
173	0x3bf918be	0.0076018265
174	0xbd23f5e2	-0.040029414
175	0xbe0614cf	-0.13093875
176	0x3db1def6	0.086851045
177	0xbcb1f18b	-0.021721622
178	0x3d65e872	0.05612988
179	0xbdeaaba3	-0.11458518
180	0x3db8d6d9	0.09025354
181	0x3c00ba17	0.007856867
182	0x3dd04113	0.10168662
183	0x3c4213be	0.011845527
184	0xbdc15467	-0.094399266
185	0xbca6823c	-0.020325772
186	0x3cb87d36	0.022520643
187	0x3de99d4c	0.11406955
188	0xbdabe72c	-0.08393702
189	0xbe29fedc	-0.16601127
190	0xbdd5924b	-0.10428294
191	0x3dcd7651	0.10032333
192	0xbd368150	-0.044556916
193	0xbd545e5c	-0.0518478
194	0xbc8a0e84	-0.016852625
195	0xbdade80a	-0.084915236
196	0x3dd11b29	0.102102585
197	0xbc010356	-0.0078743305
198	0xbe3078cf	-0.17233585
199	0xbc86ea48	-0.016469136
200	0xbd799b4e	-0.060939126
201	0xbdae35db	-0.08506366
202	0xbcf050f6	-0.02933548
203	0xbd9c99da	-0.07646532
204	0x3d84fe52	0.0649382
205	0x3d63e9c7	0.05564287
206	0x3d8c3a3a	0.06847043
207	0x3c1f5a72	0.009726154
208	0x3ce933e3	0.028467124
209	0xbbd1b57a	-0.0063998075
210	0x3b061c6e	0.0020463723
211	0x3d1a99d1	0.037744347
212	0x3d928158	0.071535766
213	0x3d5366b1	0.051611606
214	0xbcca42b5	-0.024690012
215	0x3d067430	0.03282565
216	0xbd1be31f	-0.038058396
217	0xbdcf8a15	-0.10133759
218	0xbd349c73	-0.044094514
219	0xbda75fd3	-0.08172574
220	0xbdba97ce	-0.09110986
221	0x3dbdeabc	0.09273288
222	0xbd997295	-0.07492558
223	0xbdcbb17d	-0.099459626
224	0x3cded0cc	0.027199171
225	0xbcead5a4	-0.028666325
226	0xbd2fee1b	-0.042951684
227	0x3cf9a0b9	0.030472146
228	0x3db1b100	0.08676338
229	0x3dcc81ed	0.09985719
230	0x3c63d11f	0.013904839
231	0x3c5eb781	0.013593555
232	0x3d205856	0.039146744
233	0x3d08bf77	0.03338572
234	0x3d28546b	0.041096132
235	0xbd9f2164	-0.07770041
236	0x3d7fd9c9	0.062463555
237	0x3c6f3bd9	0.014601671
238	0xbcd1b1ed	-0.025597537
239	0xbd800cfe	-0.06252478
240	0xbd494e75	-0.049147088
241	0x3d0a1c3b	0.03371833
242	0xbdb9801a	-0.090576366
243	0x3c1b6651	0.009484843
244	0xbda9c3d2	-0.08289303
245	0xbd756619	-0.05991182
246	0xbce8499d	-0.028355414
247	0xbd388ac7	-0.045054223
248	0xbda6c059	-0.08142156
249	0x3b24928b	0.002511176
250	0x3d0e3826	0.034721516
251	0xbdb92019	-0.09039325
252	0x3d617206	0.05504038
253	0xbd29d7ff	-0.041465756
254	0xbdc7b80a	-0.097518995
255	0x3cff85d4	0.031191744

mlp2.2.bias f4 [50]
0	0xbd74d128	-0.05976978
1	0xbd929a9e	-0.07158397
2	0x3cf76c75	0.030203084
3	0xbca3e0e3	-0.020004695
4	0xbd1432b7	-0.036181178
5	0xbd8a0ed4	-0.067411095
6	0xbdc99f3a	-0.09844823
7	0x3d2f7e41	0.042845014
8	0x3d0cf2bb	0.034411173
9	0xbd7dcd81	-0.061963562
10	0x3dc41049	0.09573419
11	0xbd63f013	-0.055648874
12	0x3d668e67	0.05628815
13	0xbdaff6f3	-0.08592024
14	0xbd83c0c0	-0.064332485
15	0x3d647a87	0.055780914
16	0xbd040bdc	-0.032237872
17	0x3dbe49c2	0.09291412
18	0x3dc4f22f	0.09616505
19	0xbb05dd61	-0.0020426142
20	0xbd7334eb	-0.05937664
21	0x3d83ae5c	0.06429741
22	0xbd468d6a	-0.048474707
23	0x3c4702ff	0.01214671
24	0xbcd134df	-0.025537906
25	0xbc95c185	-0.018280754
26	0x3ddd063e	0.10792206
27	0xbd9d05f8	-0.07667154
28	0x3d221e8e	0.03957992
29	0xbc1ea84f	-0.009683683
30	0x3d074c30	0.033031642
31	0x3c0e7063	0.008693787
32	0x3dc70463	0.097176336
33	0x3d30cb27	0.04316249
34	0xb97aeefe	-0.0002393089
35	0xbd97c80f	-0.07411205
36	0xbdadaf8e	-0.0848075
37	0xbd8492d6	-0.06473319
38	0xbca060da	-0.019577432
39	0x3ca4228a	0.020036
40	0x3dbbd5c7	0.09171634
41	0x3d8276e6	0.06370334
42	0x3d85cdee	0.065334186
43	0xbbc298de	-0.0059386333
44	0x3d3df9c4	0.046380773
45	0xbc5df1d0	-0.013546422
46	0x3dbcbaa8	0.09215289
47	0xb9f05c7d	-0.00045845276
48	0xbce3fe54	-0.027831234
49	0xbd81cfc2	-0.06338455

attention.0.weight f4 [100, 200]
0	0x3cf8b4c6	0.030359637
1	0xbd896b3a	-0.06709905
2	0xbd3847c9	-0.044990335
3	0xbb9fd0b2	-0.0048771733
4	0xbc8c15bc	-0.017100208
5	0x3d5befc5	0.05369546
6	0x3d7c42d2	0.061587162
7	0xbc944fa5	-0.018104384
8	0x3d2f5938	0.042809695
9	0xbb9bab56	-0.0047506494
10	0x3c1ecb3d	0.0096920105
11	0xbd884dd0	-0.066554666
12	0xbc365216	-0.011127969
13	0xbd615b93	-0.055018973
14	0x3bd60a6e	0.006532005
15	0x3d346924	0.044045582
16	0x3d359f02	0.044341095
17	0x3d292ebc	0.041304335
18	0x3bbdecfb	0.0057960725
19	0x3d8428bb	0.06453081
20	0xbd031eb4	-0.032011703
21	0x3d832fc4	0.06405595
22	0xbce7a7fa	-0.02827834
23	0x3cafebe8	0.021474794
24	0x3d9074c5	0.07053522
25	0xbc186a6c	-0.009302717
26	0x3d3f2060	0.046661735
27	0x3d03cb32	0.032176204
28	0x3d7eee9d	0.062239278
29	0xbb66b4e0	-0.0035203025
30	0x3d965d3d	0.073420025
31	0x3ce2e6c1	0.027697923
32	0x3d5241b9	0.05133221
33	0xbd5722c2	-0.052523382
34	0xbcc99955	-0.024609247
35	0x3c45b047	0.012065954
36	0x3d8b2cb5	0.067956366
37	0xbce0026c	-0.027344905
38	0x3d7f0894	0.06226404
39	0x3d203346	0.0391114
40	0xbc8e565c	-0.017375164
41	0x3b668e1d	0.003517992
42	0x3d069e99	0.032866094
43	0x3cb5f697	0.02221231
44	0xbd33d90f	-0.043908175
45	0x3cde7b3b	0.02715837
46	0xbd03e4c5	-0.032200594
47	0x3d87b4ba	0.06626268
48	0x3ca2a810	0.01985553
49	0x3c570044	0.013122622
50	0x3d7e7cd6	0.06213077
51	0x3ae69cb2	0.0017594306
52	0xbd0d8474	-0.034550145
53	0xbd4b13d5	-0.04957946
54	0xbd4e57fe	-0.050376885
55	0xbd16eb00	-0.036845207
56	0xbd06735c	-0.03282486
57	0xbd04fbea	-0.032466806
58	0x3d8f4ddc	0.06997272
59	0x3c53d07c	0.0129281245
60	0xbcf77a91	-0.030209811
61	0xbd4c2c1d	-0.049846757
62	0xbd71c730	-0.05902785
63	0xbd13e138	-0.036103457
64	0xbd7051dd	-0.05867182
65	0xbd6140db	-0.05499349
66	0x3c7455f8	0.014913075
67	0x3bca8d87	0.006181422
68	0xbd68def1	-0.05685324
69	0x3d8259ad	0.063647605
70	0x3d490dbb	0.04908536
71	0xba81a80a	-0.0009891998
72	0x3d90c464	0.070687085
73	0x3d1e3119	0.038621042
74	0xbd5d833a	-0.054080226
75	0xbd95c83b	-0.073135816
76	0xbc3586fe	-0.011079548
77	0x3d7230e4	0.059128657
78	0x3c825620	0.015910208
79	0x3d338e4d	0.04383688
80	0xba6e985f	-0.00091016846
81	0x3d0219a3	0.03176273
82	0xba8db6c9	-0.001081192
83	0x3d840097	0.06445425
84	0xbd9cc234	-0.07654229
85	0x3d8800ed	0.066408016
86	0xbd1fcfbb	-0.039016467
87	0x3d618af5	0.05506416
88	0x3ca204f9	0.019777762
89	0x3d138081	0.036011223
90	0x3d74e30d	0.059786845
91	0x3c59bd50	0.0132897645
92	0xbd369e39	-0.044584487
93	0xbd14dda8	-0.0363442
94	0x3d0f365b	0.034963947
95	0x3d21860e	0.039434485
96	0x3d5abaa9	0.05340067
97	0xbcb10db9	-0.021612989
98	0x3cfade59	0.030623602
99	0xbbe52669	-0.0069931042
100	0x3d0107ee	0.031501703
101	0x3d435ada	0.047694065
102	0xbce2ef82	-0.027702097
103	0x3cb524dc	0.022112302
104	0xbce509ad	-0.027958715
105	0xbd6f56d6	-0.058432423
106	0x3d810d9b	0.06301423
107	0xbc97eed6	-0.018546503
108	0xbd73076a	-0.059333242
109	0xbca03d5a	-0.019560505
110	0x3c93c865	0.018039891
111	0xbca9f476	-0.02074645
112	0xbd8f6d3b	-0.07003256
113	0x3d2499ea	0.040185846
114	0x3d519fbf	0.051177736
115	0xbba33f43	-0.0049819066
116	0xbd653726	-0.055960797
117	0xbd36126c	-0.044451162
118	0x3d217b52	0.039424248
119	0x3d5c59ef	0.053796705
120	0xbb84bcec	-0.0040508416
121	0xbd81dce7	-0.06340962
122	0xbcfe8ad4	-0.031072058
123	0x3d831d0e	0.06402026
124	0x3bfa00d8	0.007629495
125	0xbce2a568	-0.027666762
126	0xbd776dc2	-0.060407408
127	0x3c1e9f9b	0.009681608
128	0xbbe7046d	-0.007050088
129	0x3d633e30	0.05547923
130	0x3c6e2c5c	0.014536943
131	0x3aff5508	0.0019480297
132	0x3d58ada4	0.05289997
133	0xbd2c536a	-0.042071737
134	0xbcdd458f	-0.027010707
135	0x3cbdf95d	0.023190195
136	0xbd188535	-0.03723641
137	0xbc275f48	-0.010215588
138	0x3a9cf987	0.001197622
139	0x3d4e82be	0.050417654
140	0xbd7eb516	-0.062184416
141	0xbd6a22f4	-0.05716224
142	0x3b153295	0.0022765745
143	0xbd22543d	-0.039631117
144	0x3c5fb853	0.013654786
145	0x3d549a45	0.051904935
146	0xbd14b698	-0.036306947
147	0xbd3f7360	-0.04674089
148	0xbd84573d	-0.06461952
149	0xbd2b503b	-0.04182456
150	0xbd6a97b7	-0.057273593
151	0xbca9c65b	-0.020724466
152	0x3c340af5	0.0109889405
153	0xbc25e7af	-0.010126038
154	0xbc94ec34	-0.018179037
155	0xbd1cad7f	-0.038251396
156	0xbba4dc9d	-0.005031182
157	0x3c93b950	0.0180327
158	0x3cf5971f	0.029979287
159	0x3ce6a865	0.028156469
160	0xbd05f9db	-0.032708984
161	0x3d74ed78	0.05979678
162	0xbd1be4e1	-0.038060073
163	0x3bca37ff	0.006171226
164	0x3ce5fa69	0.028073506
165	0xbd787971	-0.06066269
166	0xbd680ac5	-0.056650896
167	0xbd34658a	-0.044042148
168	0xbd55d8b7	-0.05220863
169	0xbc3c09f9	-0.011476987
170	0x3aa82061	0.0012827032
171	0x3d1c64fa	0.038182236
172	0xbc9a4d16	-0.018835586
173	0x3b4b241d	0.0030996867
174	0xbcae93f9	-0.021310793
175	0x3d5e9c03	0.054348003
176	0x3d7ddf8e	0.061980776
177	0xbd3a39be	-0.045465223
178	0xbc720fb0	-0.014774248
179	0xbc954bd4	-0.018224634
180	0xbd3e0735	-0.046393592
181	0xbd8eba79	-0.069691606
182	0x3d5be074	0.053680852
183	0xbd08e1a6	-0.03341832
184	0x3d4c0406	0.049808525
185	0xbd070927	-0.032967713
186	0xbcb633eb	-0.022241553
187	0xbcb58c59	-0.02216165
188	0x3d42bedc	0.0475453
189	0x3d227e4a	0.03967122
190	0x3c329270	0.010899171
191	0xbb13cb17	-0.002255147
192	0x3d45dfe9	0.04830924
193	0x3d8754a0	0.06607938
194	0xbd86c1be	-0.06579922
195	0xbba1de09	-0.0049397987
196	0x3d873cea	0.06603415
197	0x3cf106ae	0.02942213
198	0xbd611b98	-0.054957956
199	0xbd8035bd	-0.0626025
200	0x3d4db560	0.0502218
201	0xbd5cf5e2	-0.05394543
202	0x3d48bb56	0.049006782
203	0x3d47039c	0.048587427
204	0x3d22d7be	0.03975653
205	0x3d313dea	0.043271936
206	0xbcbb630c	-0.022874378
207	0x3c3b7ab8	0.011442833
208	0xbd08499f	-0.033273336
209	0xbc5c0600	-0.013429165
210	0xbd099baa	-0.03359572
211	0x3c250138	0.010071091
212	0x3d52086e	0.05127757
213	0x3d3638e8	0.044487864
214	0xbd527557	-0.051381435
215	0x3b204600	0.0024455786
216	0x3bafca90	0.0053647235
217	0xbd63d12a	-0.055619396
218	0xbcf6e0f2	-0.03013656
219	0xbd604869	-0.054756556
220	0xbd156cc8	-0.036480695
221	0xbd88f9ba	-0.066882566
222	0x3c9139e8	0.017727807
223	0x3d8499d3	0.06474652
224	0x3ca26e08	0.019827858
225	0x3ced8168	0.02899237
226	0x3cbdaa08	0.023152366
227	0x3d057098	0.03257808
228	0x3d0ad34a	0.033892907
229	0x3d4793b6	0.048724853
230	0xbd901073	-0.070343874
231	0xbd6ad766	-0.057334326
232	0xbb0f8540	-0.0021899492
233	0x3d9040e5	0.07043628
234	0xbcd61020	-0.026130736
235	0x3d7bcfa2	0.06147731
236	0x3cbb75ac	0.022883259
237	0x3c0fcf08	0.008777387
238	0xbd353060	-0.044235587
239	0xbd839981	-0.06425763
240	0x3d2182ea	0.03943149
241	0xbd59e8a8	-0.053200394
242	0xbcda4188	-0.026642576
243	0x3ccdbcac	0.02511438
244	0xbd087b21	-0.03332055
245	0xbd83d707	-0.064374976
246	0xbd545c8c	-0.051846072
247	0xbd83e775	-0.06440631
248	0x3c556b98	0.013026141
249	0x3d8ce6f3	0.068799876
250	0xb9de0100	-0.00042343885
251	0x3d8a7359	0.06760282
252	0xbc70a0c8	-0.014686771
253	0xbce61a3e	-0.028088685
254	0x3c5841c8	0.013199277
255	0xbd12bdcb	-0.035825532

attention.0.bias f4 [100]
0	0x3d035275	0.03206106
1	0xbd693a84	-0.05694057
2	0x3c67f14c	0.014156651
3	0xbcbd74f5	-0.023127059
4	0x3d58343a	0.052784182
5	0x3d5314bc	0.051533446
6	0xbd2cbe28	-0.042173535
7	0x3db1499f	0.0865662
8	0xbc382a62	-0.011240574
9	0xbd4f2f3a	-0.050582148
10	0x3cac2258	0.02101247
11	0x3aa85d42	0.0012845176
12	0x3d4071a2	0.04698337
13	0x3d7624c6	0.060093664
14	0xbd71985e	-0.0589832
15	0x3d73d412	0.059528418
16	0x3d8c09cd	0.06837807
17	0x3c80cb80	0.015722036
18	0xbd418dc7	-0.04725435
19	0x3d7129eb	0.058877867
20	0xbca21cd7	-0.019789143
21	0x3a19e443	0.00058705005
22	0x3cc45550	0.023966461
23	0xbaa4ebf5	-0.0012582528
24	0xbb4bd9dc	-0.0031105196
25	0xbc3b3a9e	-0.01142755
26	0x3d89cc02	0.067283645
27	0x3d7294ff	0.059224125
28	0xbd5c036b	-0.053714197
29	0xbc4db533	-0.012555408
30	0xbd62a7c8	-0.05533579
31	0x3d780c62	0.060558684
32	0x3bd45904	0.006480338
33	0x3d0a5145	0.03376891
34	0x3ca0fcc4	0.019651778
35	0xbd0dd924	-0.03463091
36	0x3a3668ab	0.0006958346
37	0x3d86692a	0.06563027
38	0xbc27b4a8	-0.010235943
39	0x3d74afdc	0.059738025
40	0xbd2ee2c2	-0.04269672
41	0xbcfbc73f	-0.030734656
42	0xbd641dad	-0.055692364
43	0x3d08cd59	0.03339896
44	0xbbf6ccdc	-0.0075317454
45	0xbd06722d	-0.03282373
46	0xbcbaeb41	-0.022817256
47	0xbce2c059	-0.02767961
48	0xbb629d74	-0.0034578713
49	0xbd61459d	-0.05499803
50	0x3caa4230	0.020783514
51	0xbc157810	-0.009122863
52	0x3c5e899f	0.013582616
53	0x3da862d2	0.082219735
54	0xbd71476e	-0.05890601
55	0xbd426716	-0.04746159
56	0x3ba96398	0.005169343
57	0xbd93c35c	-0.07214996
58	0xbd7b67bc	-0.061378226
59	0x3d89aa47	0.06721931
60	0x3d31c5e0	0.0434016
61	0x3ccb5eb0	0.024825424
62	0xbd83a64b	-0.06428202
63	0x3caf8819	0.021427201
64	0x3d8582a4	0.06519058
65	0xbda15541	-0.07877589
66	0x3c1dbce5	0.0096275555
67	0x3d0cb100	0.034348488
68	0x3b98e387	0.0046657952
69	0x3c0bb8b7	0.008527926
70	0xbd01048a	-0.03149847
71	0x3d06f18c	0.0329452
72	0xbd949e38	-0.0725674
73	0x3d02fca6	0.031979226
74	0x3d967549	0.07346589
75	0xbd1c7bc4	-0.03820397
76	0x3a99ae5a	0.0011724934
77	0xbd8abdc0	-0.06774473
78	0x3cf2d489	0.02964236
79	0xbd110848	-0.03540829
80	0xbd2a058c	-0.041509196
81	0x3cfa37c7	0.030544175
82	0x3cafe5b1	0.02147183
83	0x3d637f79	0.05554149
84	0xbd809128	-0.06277686
85	0x3b822c1f	0.003972545
86	0x3c2b5e42	0.0104594845
87	0xbcc50271	-0.024049016
88	0x3d0c8767	0.034308817
89	0xbd12acd4	-0.035809353
90	0xbcf40227	-0.029786183
91	0xbd6be9c9	-0.057596
92	0x3d4680c1	0.048462633
93	0x3ca252cf	0.019814877
94	0x3c88a8ad	0.016681993
95	0x3c40e5cd	0.011773539
96	0x3c169462	0.009190651
97	0x3d2845fa	0.04108236
98	0x3cdebb4a	0.027188916
99	0x3d86a1bd	0.06573818
