models/rl/sarl_orca/rl_model.pth (torch_old, 389084 bytes, 20 tensors)

mlp1.0.weight f4 [150, 13]
000000 11 8e 45 be 41 17 0a be da e9 77 be 3e a0 14 be
       -0.19292475 -0.13485433 -0.24210301 -0.14514253
000010 2f ee 71 be 94 79 8a bd c0 4e 8d 3e 4c 0d f8 bc
       -0.23626016 -0.067614704 0.27599144 -0.030279778
000020 40 ff 91 3e 32 21 1b be e2 72 22 be f4 92 8a 3e
       0.28515053 -0.15149382 -0.15864137 0.2706524
000030 de 52 c8 3d 4c 7b ee 3c 43 f8 c7 3b 88 13 05 3d
       0.09781431 0.029111527 0.006102593 0.03248933
000040 d2 87 e0 3d 86 28 55 3e 5f bf 7e be b8 bd 98 be
       0.10963406 0.2081624 -0.2487769 -0.29832244
000050 c7 89 6e be 9f 43 4a be 66 bf cb bd 20 c6 35 3d
       -0.23294745 -0.19752358 -0.09948616 0.0443784
000060 d1 88 b8 3d c9 96 3b 3d 09 b6 1c be ad fc 8e be
       0.09010471 0.045798097 -0.15303816 -0.2792715
000070 e8 4e 4e 3d f3 75 27 3e c1 a8 9b 3d 62 f7 35 3e
       0.05036822 0.16353588 0.07600547 0.1777015
000080 08 2c 5d 3d 39 4a 7c 3e 97 aa 4f be 94 1e 0b 3e
       0.05399707 0.24637689 -0.20279919 0.13585883
000090 45 ed 88 bd 54 39 99 3b 2b 23 d9 3d 1b 2c 33 3e
       -0.066858806 0.0046760235 0.10602411 0.17497294
0000a0 36 9c 4a 3e fe ca eb bd 2d 8f e8 bd 38 93 05 b8
       0.19786152 -0.11513327 -0.113554336 -3.184678e-05
0000b0 92 fc 68 be bc 7b 82 be ac f8 0b bd a3 23 8e be
       -0.22752598 -0.25485027 -0.0341727 -0.27761564
0000c0 a6 aa 82 bd 91 f5 b8 3d 7d 27 88 bd f6 b6 1d bc
       -0.06380205 0.09031213 -0.06648157 -0.009626141
0000d0 64 5b 3a bd e2 53 3e be b0 2b 0a be 32 9c db 3d
       -0.045497313 -0.18586686 -0.13493228 0.10723151
0000e0 84 fc 10 be 06 1d bd 3d 47 d3 66 be 4b aa 58 3e
       -0.14158827 0.092340514 -0.22541533 0.21158712
0000f0 67 4a 81 be 27 80 0a be 5b 2f 89 be 3f 65 0d 3e
       -0.25252077 -0.13525449 -0.26793942 0.13808154
000100 af 29 a3 3d e9 12 96 bb 0e 49 d7 bd e7 e8 7f be
       0.07966935 -0.004579891 -0.10511981 -0.24991189
000110 d7 34 3b 3e ca 94 75 3d 98 45 4a bd 33 10 03 3e
       0.18281876 0.05995635 -0.049382776 0.12799148
000120 36 ed 7f be b9 a8 17 bd 78 1a 87 3e 19 0c 16 be
       -0.24992833 -0.03702614 0.26387382 -0.14653052
000130 49 ec 6a 3d 3d c2 02 3e 54 fb 4f bd 69 f2 11 3e
       0.057354245 0.12769409 -0.050776795 0.14252628
000140 10 56 8e 3d 06 36 da 3d a3 45 39 3e e2 39 7b 3e
       0.06950009 0.106548354 0.1809297 0.245338
000150 b6 f0 87 3e 79 7b 9a be dd 48 d1 bd 35 70 3c 3e
       0.26550835 -0.30172327 -0.10218976 0.18402179
000160 f3 53 32 3e d6 ba b8 bd f2 2a 1c 3e e5 d8 fe 3c
       0.17414837 -0.09020011 0.15250757 0.031109283
000170 48 a6 55 bc 19 f1 86 3e ca 8a 4b be 79 dc 28 3e
       -0.013040133 0.26355818 -0.19877163 0.16490354
000180 01 59 b8 bc e2 93 64 3e c1 8e 47 be b2 37 93 be
       -0.022503378 0.22322038 -0.1948805 -0.2875343
000190 17 d2 60 bc fc 60 ec 3b e2 21 15 be a7 86 8e 3e
       -0.013721964 0.00721371 -0.14563707 0.27837107
0001a0 02 9a 7b be 4b 37 19 bd 6e 87 1f 3e 2a 1d d2 3d
       -0.24570468 -0.037406247 0.15579006 0.10259469
0001b0 59 c9 31 3d 49 72 94 bd 2d 8e 22 3e 2c 51 45 be
       0.04340491 -0.07248361 0.15874548 -0.19269246
0001c0 a8 07 04 be bf 42 ba 3c 8c 1a 4c 3e c5 b6 61 3e
       -0.12893546 0.022736905 0.19932002 0.22042377
0001d0 fa 84 72 3d 4b 59 0c bc 80 f7 fc 3c 34 93 e6 3d
       0.059208848 -0.008566211 0.030879736 0.112585455
0001e0 ef 7d 89 bd 8a da 0f be 49 9a e6 bd 66 32 22 be
       -0.06713473 -0.1404821 -0.11259896 -0.15839538
0001f0 e1 21 2b 3e 52 48 21 3e ba 5c 4c 3e c0 c7 59 3d
       0.16712143 0.15750244 0.19957247 0.053169012
000200 84 0e 34 3d e1 e2 29 bd 8c 31 7e 3e f4 11 4d 3e
       0.043959156 -0.041476134 0.24823588 0.2002638
000210 54 3a f5 3d 8c 65 bc 3d 2d de 22 be 17 fb 71 3d
       0.11974016 0.09199056 -0.15905066 0.05907735
000220 0b a6 07 be e9 70 83 be 71 b9 67 3e 02 f3 3c bd
       -0.13246934 -0.2567208 0.22629334 -0.046130188
000230 b9 32 43 be 1b 0e d5 bd 58 1d 5d 3d 08 01 b6 bd
       -0.19062318 -0.10403081 0.053983063 -0.088869154
000240 98 56 bb bd 9c bf c6 3d 0e bd df 3d 5d 93 93 3d
       -0.09147376 0.09704515 0.10924731 0.07205842
000250 1a b1 a9 bd 5f ce a4 be d0 47 5d 3c 0d 3c 90 be
       -0.082857326 -0.321887 0.013505891 -0.28170815
000260 e8 03 b5 bc e0 e2 29 3e 76 ea 9a 3e 82 2b 48 3e
       -0.02209659 0.16590452 0.30257004 0.19547847
000270 30 c7 21 3c a2 b3 2d be 16 27 4c 3e 40 11 18 be
       0.00987415 -0.16963056 0.19936785 -0.1485033
000280 8b 91 30 bc 33 e1 b1 39 d5 45 2d be d5 2c 97 3e
       -0.010776888 0.00033927857 -0.1692117 0.29526392
000290 27 02 be bc e8 59 61 3e fa bb 82 be 1f 04 e1 3d
       -0.023194386 0.22006953 -0.2553404 0.10987114
0002a0 eb a2 79 be b8 9a 71 3d 69 cb 01 be 16 59 32 be
       -0.24378555 0.058985442 -0.12675251 -0.17416796
0002b0 c2 70 30 3e f8 b4 29 bd e2 b6 34 3e e5 84 d3 3d
       0.17230514 -0.04143235 0.1764789 0.10328082
0002c0 25 25 10 ba 0c 98 e3 3d be f7 83 3e ce 0d 44 3e
       -0.0005498699 0.11112985 0.2577495 0.19145891
0002d0 32 5f 78 3a 89 a0 1c 3d ea 81 a5 3d 87 a2 f7 3d
       0.00094746344 0.038239036 0.0808142 0.120915465
0002e0 50 e0 1c 3e 85 c4 83 be 17 28 19 be 2f 7e 3c be
       0.15319943 -0.2573587 -0.149567 -0.1840751
0002f0 2d 22 ab bd 95 e2 96 bd ee a7 69 be 00 de 4e be
       -0.08356128 -0.07367436 -0.22817966 -0.20201874
000300 94 04 0b 3e eb c5 85 3c ad 38 38 3e 86 54 3c 3c
       0.13575965 0.016329726 0.1799037 0.011494761
000310 fe 20 68 3d 44 5c 54 bd 3a cf 9b 3d ba f6 59 3e
       0.05667209 -0.051845804 0.07607885 0.21285525
000320 2f 61 71 be c2 b8 36 3d 3e 9e 81 3e aa 09 78 be
       -0.23572229 0.044609793 0.25316042 -0.24222437
000330 f7 51 92 3d 76 d4 89 3e 9e a2 96 3e e7 e9 22 be
       0.0714454 0.26919907 0.29420942 -0.15909539
000340 17 58 c1 3d f1 08 88 3e e8 30 79 3d 25 e6 90 bd
       0.0944063 0.26569322 0.060837656 -0.070751466
000350 b2 8b 91 bd 05 c1 43 be bd b0 4d bd 02 a8 ba bd
       -0.07106723 -0.191166 -0.05021738 -0.09114076
000360 66 43 95 3d ec 25 50 be a9 4f 1a bd 49 02 ea bd
       0.07288246 -0.20326966 -0.037673626 -0.11426217
000370 84 ae 90 bb 22 aa 94 bb 98 18 48 3d a2 7a 1e 3e
       -0.004415335 -0.004536883 0.04885158 0.15476468
000380 bf e3 2d bd 2f 1a 3c be 46 f7 a8 3d de 11 42 be
       -0.042453524 -0.18369363 0.08250289 -0.18952128
000390 e1 cd 85 bd 1d 53 39 3e 93 f9 b6 3d ef fb 68 be
       -0.06533409 0.18098111 0.08934321 -0.22752355
0003a0 ee 36 78 3e e2 04 7a bd 5a 8f e3 bb 6f 66 43 3e
       0.24239704 -0.061039813 -0.006944579 0.19082044
0003b0 a4 4b 55 3e 20 ad b4 bb ec 66 10 3e 09 d5 85 3d
       0.20829636 -0.005513802 0.14101762 0.06534774
0003c0 9d 00 78 3e 7d 47 85 be 82 04 80 3e 7a 33 9a 3d
       0.24218984 -0.26031104 0.2500344 0.075293496
0003d0 47 76 70 3e 17 1b 91 3e 6f 9f 69 be 53 88 65 3d
       0.23482619 0.2834098 -0.22814725 0.056038212
0003e0 bc 12 47 3e 46 4c 09 be 23 ea 18 be 21 0b 74 3e
       0.1944074 -0.13408002 -0.14933066 0.2383237
0003f0 f4 c8 17 bd a4 88 0a be 24 93 a0 3d 6f 86 de 3d
       -0.03705688 -0.13528687 0.07840565 0.10865485

mlp1.0.bias f4 [150]
000000 e3 82 68 3e 8e 53 e8 bd a2 2a 46 3e a5 da 60 bc
       0.2270618 -0.11344062 0.193522 -0.013724004
000010 d0 1a cc bd 0f 46 5f 3d c1 ac 94 bc 1b 84 69 be
       -0.099660516 0.054510172 -0.018148782 -0.228043
000020 39 d6 e7 3c 55 40 63 3e de 9a 1e 3e 0c 3b ab 3d
       0.028300392 0.2219251 0.15488765 0.08360872
000030 c0 fc 73 3d 96 26 0d be 01 31 53 3e b2 08 57 3e
       0.059567213 -0.1378425 0.20624162 0.20999411
000040 0d d0 d0 bc 69 ce 89 3e 62 db f8 bd d5 d0 b3 bd
       -0.025489831 0.2691529 -0.12151219 -0.08780066
000050 0b 10 76 3d 14 3a 87 be 75 c6 80 be 6d 1b 6f be
       0.060073894 -0.26411498 -0.2515141 -0.23350306
000060 65 7a 0d 3e ce 08 56 bc 1f 51 99 3e 4c 52 97 3d
       0.13816221 -0.013063623 0.29944703 0.07388744
000070 e2 68 4c 3d 5a 02 1c be af 9a 39 bd 1f 63 83 be
       0.04990471 -0.15235272 -0.045313533 -0.2566156
000080 ed f2 67 bc 22 a4 f6 3d b1 f6 0c be a8 85 41 3e
       -0.014157039 0.120430246 -0.1376598 0.18898642
000090 7b 75 3d 3e d4 07 19 bd 18 c6 6c bc c9 d0 8c 3e
       0.18501846 -0.03736098 -0.014451526 0.2750304
0000a0 67 6b 7d be 87 1c be 3d b3 8b 1f be 11 f6 20 bc
       -0.24748002 0.09282785 -0.15580635 -0.009824292
0000b0 35 20 62 be 9f 8e 88 3e 7d 82 7e 3e 8f 6a 79 3e
       -0.22082599 0.2667131 0.24854465 0.24357055
0000c0 e4 7c 83 3e 96 e4 94 bd a1 c2 4b 3e 97 e3 37 be
       0.2568122 -0.07270162 0.19898464 -0.17957912
0000d0 23 aa d5 bd fa 9f 5f bd 34 17 f2 3d 4e ed 9b bd
       -0.10432842 -0.054595925 0.11820832 -0.07613622
0000e0 76 9f d1 bd 8c 56 38 3e 37 3b 13 be c3 22 66 3e
       -0.10235493 0.18001765 -0.14378057 0.22474198
0000f0 7e 1e 03 be 69 6b 00 3d 1f e1 8e 3d 80 b1 34 be
       -0.128046 0.031352434 0.06976532 -0.17645836
000100 f6 f6 33 3e 62 72 67 3e e4 fb 42 3e 45 f1 80 be
       0.17574677 0.22602227 0.19041401 -0.25184074
000110 73 c7 e2 bd 8f 28 83 be 36 62 86 be 23 95 25 3d
       -0.11073198 -0.2561688 -0.26246804 0.04042543
000120 5b ec 03 3e d6 2c 3f be c1 eb 89 3e 8c 0e 2e be
       0.12883131 -0.18669447 0.26937678 -0.16997737
000130 78 41 65 be f6 11 69 be af fc 37 3e 3b 90 de 3d
       -0.22388256 -0.22760758 0.17967485 0.108673535
000140 47 9a 42 be 6c fc 53 3e bf 41 8e be a3 ff d8 3d
       -0.19004165 0.2070176 -0.27784535 0.10595634
000150 88 43 17 3e 04 d7 85 bd fb 3d 9e 3c 00 d7 ae 3c
       0.14771855 -0.065351516 0.019316664 0.021342754
000160 a3 99 4e 3e 1e a5 bf 3c 5d 0a 38 3e e9 b5 7a be
       0.20175795 0.023394164 0.17972703 -0.24483456
000170 3e fe 18 3d 85 34 e7 bd 6c cc 04 3e e2 6f 80 3d
       0.03735184 -0.11289314 0.12968606 0.0627134
000180 6d 48 24 be 5d 5f 38 bd 92 46 76 bd 9d 82 93 3d
       -0.16043253 -0.04501282 -0.060125895 0.07202647
000190 e7 a3 a7 3c 9a 2c cb bd 9f e3 7c 3e 7d df 44 3e
       0.020463897 -0.099206164 0.24696206 0.19225879
0001a0 8f 5d 10 3d b9 f4 e8 3d 01 fd 16 be 13 d2 8a be
       0.035245474 0.11374802 -0.14744951 -0.271134
0001b0 24 4e e9 3d a2 83 8f bd 22 99 3c 3e ad d1 69 3e
       0.11391857 -0.07007529 0.1841779 0.22833891
0001c0 09 0e 3b 3e f8 f0 84 3e ea b9 0c 3d ee 78 54 bb
       0.18267073 0.25965095 0.03435699 -0.0032420713
0001d0 77 41 87 be 95 36 02 bd df 3c 84 3e 68 4d cc 3d
       -0.26417133 -0.031790335 0.2582769 0.099757016
0001e0 35 2f 36 be ab 09 8c be e8 8e 4f 3d 13 bf 3e 3e
       -0.17791446 -0.27351126 0.050673395 0.18627577
0001f0 ec 1e be 3d 0b cc 77 bd 69 82 18 bd c9 d8 7d be
       0.09283242 -0.060497325 -0.037233744 -0.24789728
000200 0b 75 3b 3e 82 fb 89 be b5 30 67 be e6 71 52 be
       0.18306367 -0.26949698 -0.22577174 -0.20551261
000210 f9 f4 55 3e d5 fa 34 be b2 b9 11 be df ff 77 be
       0.20894231 -0.1767381 -0.14230993 -0.24218701
000220 0a 14 42 be 8f 4d 6c 3e 1f d4 68 bd 58 fe 3b 3d
       -0.18952957 0.23076461 -0.05684292 0.045896858
000230 40 e0 d1 3c db e5 21 be 8c c0 1f be 05 17 92 bd
       0.025619626 -0.15810339 -0.15600795 -0.07133297
000240 7d ca 92 bd 72 ef 01 be 66 a8 12 bd b8 2c 4a 3d
       -0.07167528 -0.12688997 -0.03580513 0.049359053
000250 58 56 87 be ee e8 51 3e
       -0.26433063 0.20499012

mlp1.2.weight f4 [100, 150]
000000 86 ea 93 bc 23 db a6 3a 62 05 9c 3c e2 bd c7 3d
       -0.018056165 0.0012730103 0.019045535 0.09753014
000010 c3 10 3f 3c be 0a 82 3d d3 16 82 bc 32 2a 1f 3d
       0.011661711 0.06349705 -0.015880024 0.0388586
000020 70 9b b9 3c 56 31 93 bd 2f 5e 57 3d ea 34 8b 3d
       0.022657126 -0.071871445 0.052580055 0.06797202
000030 38 60 25 bd 1a c2 6f bc 3a f6 c6 3c e8 12 07 bd
       -0.040374964 -0.01463368 0.024287332 -0.032977015
000040 b3 7d a5 3d 76 b3 3d 3d 9d 84 6f 3d 72 9e dd 3b
       0.08080616 0.046313725 0.05847608 0.006763273
000050 c9 c9 8e 3d b3 3c 5e 3d 14 c5 9f bd 38 c3 46 3c
       0.06972081 0.054257106 -0.078012615 0.012131505
000060 b2 80 d5 3b 1c 2c 48 3d 31 dd 8b 3d 43 da 89 3c
       0.006515586 0.04887019 0.06829298 0.016827708
000070 de 70 26 bd 75 99 ae 3d 4f 9c 71 3d 49 ec 03 bd
       -0.040634982 0.08525363 0.058986958 -0.03220776
000080 47 79 31 bd 38 b3 95 bd a8 f6 af bd 93 95 8b bd
       -0.04332855 -0.07309574 -0.08591968 -0.068156384
000090 d8 4e 9f bd 65 c8 c3 bc 64 57 61 3d aa 5d ba bc
       -0.0777871 -0.023899266 0.055014983 -0.02274974
0000a0 01 0f c4 bc e4 cd 27 3d 09 fd 36 3d ed 26 2b bc
       -0.023932936 0.040967837 0.044674907 -0.010446292
0000b0 87 0c 9e bd 80 ef 94 3d f5 ea 9e 3c 75 51 f9 3c
       -0.07717233 0.072722435 0.019399146 0.03043435
0000c0 fa e2 08 3d 39 e6 4d 3d 69 79 1a bd a2 0a de bb
       0.033419587 0.050268386 -0.037713442 -0.00677617
0000d0 31 9a 59 3d 25 6b 81 3d 2d 70 86 bd 78 ab b2 3c
       0.053125564 0.06319264 -0.065643646 0.021810278
0000e0 2d 95 93 bc 59 db c0 3b 31 7c 11 bd 53 9e a4 bd
       -0.018015468 0.0058855233 -0.03551883 -0.080380104
0000f0 be 58 17 bd 43 40 b4 bd 8a c7 8b 3c a5 4f 29 bd
       -0.036949866 -0.088013195 0.017062921 -0.04133572
000100 8e 80 99 3d e9 9b cb ba 60 a1 1f 3d b4 52 34 3c
       0.07495223 -0.0015534136 0.03897226 0.011006046
000110 1a 19 9a ba 02 ef 9a 3d 9c 8a 7f 3d c9 8e a7 bd
       -0.0011756748 0.07565118 0.062388048 -0.08181531
000120 db 3a da bc 8c 90 ec 3c a6 f5 39 3d 89 d8 4a 3d
       -0.026639393 0.02887752 0.045400284 0.04952291
000130 74 a7 51 3d a4 c2 21 bc ff 2a 30 bd 4f 1e 37 3d
       0.051185086 -0.009873066 -0.043009754 0.04470664
000140 c7 20 5c 3d 7b d4 d9 bc 8e 93 dd 3c e0 32 1a 3d
       0.053742196 -0.026590576 0.027047899 0.037646174
000150 66 e3 94 bd 48 80 3b 3d 27 c5 4d 3c 2c ab 71 3c
       -0.07269935 0.045776635 0.012559212 0.014750283
000160 34 4b fd 3c 42 ef 91 bc be 53 38 bc 97 ac 20 3d
       0.030919649 -0.017814282 -0.011250434 0.039227095
000170 d2 5f 7e 3d 33 4b 59 3d 67 37 3f bd 55 f8 57 3d
       0.0621031 0.05305023 -0.046683695 0.052727062
000180 6f 08 82 bd 52 48 eb bd 28 21 4d 3c e4 8e 95 bc
       -0.06349265 -0.114884034 0.012520112 -0.018256612
000190 a1 62 86 bd 97 4b 8f 3d 75 fc 39 bb 58 f5 7c 3d
       -0.06561781 0.069968395 -0.0028379236 0.061757416
0001a0 22 c2 74 3d f1 63 b8 b9 1c 6d f1 bb eb 77 f9 bb
       0.059755452 -0.00035169677 -0.007367743 -0.0076131723
0001b0 03 cb 17 bd 2c e2 5f bc 36 5d 93 bd 28 da 40 bd
       -0.03705884 -0.013664763 -0.07195513 -0.04708305
0001c0 57 d6 87 3d 05 b7 01 3d 06 1a 73 3c 72 0b 4a 3d
       0.06632679 0.03166868 0.014837747 0.04932732
0001d0 de 91 9a bb 95 23 35 bd fd c2 09 3c e0 a8 65 bd
       -0.0047170958 -0.044223387 0.008408305 -0.056069255
0001e0 62 da 58 3d c1 39 00 bd 03 a3 86 3c db 28 8b 3d
       0.05294264 -0.03130508 0.016435152 0.06794902
0001f0 ae d7 1a bd 63 c0 17 bd f5 98 c8 ba 2e 8e 43 bd
       -0.037803344 -0.03704871 -0.0015304374 -0.047743015
000200 8a 5e a1 3d 75 a4 e0 3a 94 6e 4c 3c 75 72 5a 3d
       0.0787936 0.0017138856 0.012477536 0.05333181
000210 20 56 26 3a f9 e8 53 b9 14 85 c3 bc 03 70 91 bd
       0.0006345231 -0.00020209317 -0.023867168 -0.07101443
000220 a1 44 5e bd 29 2d a0 bd 36 f8 3d 3d 9b 76 c0 3d
       -0.05426467 -0.078211136 0.04637929 0.09397622
000230 55 12 50 bd 7c a7 95 bb d4 74 78 3d 61 8d 87 3d
       -0.050798733 -0.004567085 0.06065829 0.06618763
000240 16 f5 55 bb 55 62 8a 3d fb 5a 0c bc 8a 97 ad 3b
       -0.0032647303 0.067570366 -0.008566613 0.005297606
000250 28 db 4e bd ae bd e7 bc 77 1e 24 3d 37 b6 3b 3d
       -0.050501972 -0.028288689 0.040068116 0.04582807
000260 57 da a5 bd ab 89 ba bd 38 1a a1 3c 16 f2 69 bc
       -0.08098286 -0.09108289 0.019665822 -0.014278909
000270 7a ec da 3d 31 d0 a4 3c e9 56 20 3d e3 5c a4 bc
       0.106896356 0.020118805 0.039145384 -0.020063823
000280 af 6a b7 bc 7e de c1 3c 97 9a a5 bd fe 61 95 bd
       -0.022389738 0.023665663 -0.08086126 -0.07294081
000290 a1 45 73 3d b6 d7 a2 3d fa ff 85 3d d0 d4 6c bd
       0.059392575 0.079513 0.06542964 -0.05782014
0002a0 d3 8b b9 3d 2d 08 e9 bd 56 9c 73 3d 6d f7 cf bc
       0.090598725 -0.113785125 0.059475265 -0.025386536
0002b0 c1 4a c0 bc a7 5a 9b bd 9f 57 01 bd c8 6d b2 bd
       -0.023473145 -0.0758565 -0.031577703 -0.08712345
0002c0 11 52 c7 bd bc 08 bd 3c c4 0c 71 3c 77 6c 9b 3c
       -0.0973245 0.023075454 0.014712516 0.018972619
0002d0 26 63 11 bd 62 06 8b 3d 50 cd 52 bc 11 52 7e bd
       -0.035494946 0.06788327 -0.012866333 -0.062089983
0002e0 57 f7 18 bd dc 1b fb 3b 84 4a f9 bb b3 4f 77 bd
       -0.037345257 0.007663233 -0.00760776 -0.06037874
0002f0 1b dd 8d bd 0c 46 dc bd 5d b9 27 bd 1d 7d 13 3d
       -0.06926938 -0.10755548 -0.04094826 0.03600799
000300 53 95 9c bd e8 4b bf 3d 0e 3d 8f 3d 92 ec 85 3d
       -0.07645669 0.0934065 0.06994067 0.06539263
000310 e0 b3 9e 3c ee 05 7b bd b3 d7 c5 bc 85 24 4e bc
       0.01937288 -0.061284952 -0.024150705 -0.012581949
000320 b6 64 31 bd 8b f2 66 3d ed 84 a3 bc 51 6a f0 3b
       -0.043308936 0.05638365 -0.019960845 0.0073368927
000330 9a 48 52 3d 30 02 00 3d 0e 14 6a bb d3 45 91 3d
       0.05133877 0.031252086 -0.003571752 0.07093396
000340 4c 7f 04 3c 77 74 11 3c a9 9c 5c 3c ab 2a 14 3d
       0.008086991 0.008877865 0.013465085 0.036173504
000350 ef 9a 7d bd 4f 09 1f bd 7c 76 84 bc 64 77 9a bd
       -0.061915334 -0.038827237 -0.016169779 -0.07542303
000360 a3 64 8d 3c a9 3e 2f 3d c6 d0 83 bd bd ff 99 3d
       0.017259901 0.042784367 -0.06436305 0.07519481
000370 8f 5f d0 3c a1 d6 87 3c 9d ef e4 3c 19 22 83 bd
       0.02543619 0.016581835 0.027946288 -0.06402988
000380 85 da 6c bc a4 f8 86 3d 8a ac eb bc 95 3b 8f 3d
       -0.014456396 0.06590393 -0.028768796 0.06993786
000390 54 98 2a 3d c8 82 9b 3d 01 a1 b3 ba 63 bc 74 bd
       0.041649178 0.07593304 -0.0013704599 -0.059749972
0003a0 b3 1a 38 bc 58 60 91 3d 32 2e 94 bc 9a d5 81 bd
       -0.011236834 0.07098454 -0.018088434 -0.063395694
0003b0 f6 21 b9 3d 54 f4 56 3d b6 45 9a 3d a4 7e bd bd
       0.09039681 0.052479103 0.075328276 -0.092526704
0003c0 62 0c 8e 3d 96 bb 8f 3d 39 03 66 3c 78 a0 16 bd
       0.069359556 0.07018201 0.014038854 -0.03677413
0003d0 6a 8c 8f 3c 3c 7d dc 3c 48 41 48 bd b3 83 96 3d
       0.01752301 0.026915185 -0.048890382 0.073493384
0003e0 e6 40 fb 3b 68 ee ab bc e1 31 42 3d 9d 37 7e bd
       0.0076676486 -0.020987704 0.04741085 -0.062064756
0003f0 50 6e 3a 3d 83 21 93 3c 20 ac c1 bd d7 0b 86 bd
       0.04551536 0.017960316 -0.09456658 -0.06545227

mlp1.2.bias f4 [100]
000000 98 f5 a8 3d a4 ba 32 3d 87 f4 af bc a7 2a a0 3d
       0.08249968 0.043635026 -0.021478904 0.07820635
000010 ee 74 93 3d 8d 11 83 3c 95 3d 6b 3d 52 ae 60 bc
       0.07200037 0.01599958 0.057431776 -0.013713436
000020 8b d6 c4 bc ae 5f b4 bb 38 9c 3a bc 63 42 62 3c
       -0.024028083 -0.00550457 -0.0113897845 0.013809773
000030 a3 42 3b bd 6d 31 68 bd 02 1a 47 bb 49 41 85 bc
       -0.045717847 -0.05668776 -0.0030380492 -0.016266482
000040 34 7f fe 3c a7 f5 c1 3c 78 be 29 3d a0 ca f4 bb
       0.031066515 0.023676706 0.04144141 -0.007470444
000050 93 10 67 3d 9d 5e 27 bd d3 5b 87 bd 17 79 47 3d
       0.05641229 -0.040861715 -0.06609311 0.048699465
000060 20 6f 00 bb bd 90 65 3c fe 48 61 bd 9f a6 18 3d
       -0.0019597486 0.014011559 -0.05500125 0.037268277
000070 95 5e 38 bc 6e 77 92 bd 7f 57 82 bd b8 75 00 be
       -0.011253019 -0.07151686 -0.06364345 -0.12544906
000080 fd 4d 4f bd 10 51 40 3d 95 5f dd 3d d8 df 15 bc
       -0.050611485 0.046952307 0.108092465 -0.009147607
000090 3a c3 5b 3d cb 44 6e bd d7 35 56 bc 09 e0 68 bd
       0.05365298 -0.058171075 -0.01307436 -0.05685428
0000a0 25 29 77 bd 3f 48 63 bd 52 14 7c 3b 13 3a 68 3c
       -0.060341973 -0.05548882 0.003846426 0.014174002
0000b0 a4 19 fa bc 5e a6 50 bc 37 b4 aa 3c 91 8f 84 ba
       -0.030529805 -0.0127349775 0.020837886 -0.0010113587
0000c0 aa 39 15 bb 6e 70 55 3a df 65 59 3d d5 67 c6 bc
       -0.0022769966 0.00081420585 0.053075667 -0.024219433
0000d0 98 1e 89 bd 7d 7a dc bb 0e 86 56 bd d1 a1 c5 3c
       -0.066952884 -0.006728469 -0.05237394 0.024125012
0000e0 93 6b 3c 3b ad b7 1d 3d 42 a8 b0 3d 42 bb 1b bd
       0.0028750643 0.038505245 0.08625843 -0.03802038
0000f0 13 af 16 bd ef a0 bb bb 03 fc 89 bd 2e 56 81 bd
       -0.036788058 -0.005725972 -0.067375205 -0.063152656
000100 66 dd 83 bd e6 7b c0 ba 6b 94 fd 3c cc 5b 25 bd
       -0.06438713 -0.0014685362 0.03095456 -0.040370747
000110 ce f1 8d bd 6f 2c a7 3d c2 df d4 3c b6 c0 ab bd
       -0.06930886 0.08162772 0.025985602 -0.08386366
000120 b5 98 d3 3c 70 1a 50 3d 92 63 80 bb 75 ba 7b bd
       0.025829652 0.050806463 -0.0039181197 -0.061457116
000130 ea af cb 3d 82 b8 76 bd 7f 45 34 bd c9 19 6b 3a
       0.09945662 -0.060234554 -0.04401159 0.0008968381
000140 0e 61 e5 3c 5f 89 2d 3d 09 75 5a bd be 71 c2 3b
       0.02800038 0.042367335 -0.05333427 0.0059339693
000150 19 00 35 3d 37 5b 08 3e db 78 7c 3c 5b 33 13 3d
       0.044189546 0.13316046 0.015409674 0.03593765
000160 d6 de 61 3c 73 23 43 bd 34 b2 0e 3d 58 69 5d bd
       0.013786038 -0.04764123 0.034837916 -0.05405554
000170 50 3e 69 3b c7 b9 62 3d ea 18 2d bd 5c f4 98 bc
       0.003559012 0.055352952 -0.042260088 -0.018671207
000180 0a ed 51 3d 29 fc 8a 3c a4 d8 aa bc 17 a8 d1 3d
       0.05125145 0.016965942 -0.020855255 0.10237139

mlp2.0.weight f4 [100, 100]
000000 dc 54 be bd 5d f8 86 bd 3a a3 4d 3d f2 8f 45 3d
       -0.092935294 -0.0659034 0.050204493 0.04823298
000010 d0 7e 04 3c fa e7 65 bd e8 d4 64 bd 71 c4 7a 3d
       0.008086875 -0.056129433 -0.055867106 0.061222497
000020 1d 7d cb 3d a2 a3 67 3d 62 c7 22 3d 2a 48 3e bd
       0.09935973 0.056552537 0.039740928 -0.04645554
000030 33 8c 2c bd 50 dd 20 bc 8c 12 f0 bb 15 3c 5a bd
       -0.042125892 -0.00981839 -0.0073264297 -0.053279955
000040 ff b1 4a 3d a4 53 3b bd aa b5 a0 bd 6a bd 0c 3d
       0.049486157 -0.045734063 -0.0784715 0.034360327
000050 2a a9 7d bd d0 ec b8 bd 1e 1c f8 ba e3 43 ab bc
       -0.061928906 -0.090295434 -0.0018929278 -0.020906394
000060 3e 16 37 3d 24 d1 37 3d 65 d3 73 bb d0 76 98 3b
       0.044698946 0.044877186 -0.0037204858 0.0046528354
000070 bd 00 56 bd 23 a8 93 bd 1e 5c 7f 3d b3 2e 89 bc
       -0.052246798 -0.07209804 0.06234371 -0.0167459
000080 ee 3d 97 bc c7 60 8d 3d 4a 2a ed bc 1c 61 88 3d
       -0.018462148 0.069032244 -0.028950829 0.06659147
000090 d8 24 cb bb 02 cc 84 bd ee 3b 69 3d 4c 8f 3b 3b
       -0.0061994605 -0.06484224 0.05694192 0.0028619347
0000a0 0d d4 ca 3c c9 9c 46 bd dc 31 c7 bd 92 86 a0 bd
       0.024759317 -0.048489366 -0.09726307 -0.07838167
0000b0 4d 89 a5 bd e1 92 a1 3d a0 d3 02 bd b3 23 41 bd
       -0.08082829 0.07889343 -0.031940103 -0.047153186
0000c0 44 4b 85 bb ae 95 b7 bd 5e 6c 4e bd 76 96 11 bd
       -0.0040678103 -0.08964096 -0.050396316 -0.03554388
0000d0 40 56 af 3c c9 b5 4f bc a0 bb 90 bc fa d8 85 3d
       0.021403432 -0.012677618 -0.017667592 0.065355256
0000e0 a3 99 d8 3c c3 64 02 bd 6c 88 5f bd b3 1b be ba
       0.026440447 -0.031834375 -0.05457346 -0.0014504105
0000f0 dc 90 63 3c 75 15 a0 3c 6a bc 7d 3d 2a c7 23 bd
       0.013889518 0.019541482 0.061947264 -0.03998486
000100 4d 85 a4 3d 3a aa 8a bb b7 9b dc 3c f2 84 b7 bd
       0.080332376 -0.0042317184 0.02692972 -0.08960904
000110 bb f7 fc 3c da d1 f3 bc 60 4b 1b bc 51 02 42 3d
       0.030879846 -0.029763151 -0.00947842 0.04736549
000120 d5 05 30 bc 0a 80 98 bd 94 8d 9b 3d ab ec ac ba
       -0.010743578 -0.074462965 0.07595363 -0.0013193091
000130 be 0d 41 3a 81 84 99 3c 00 69 b1 3b 51 42 ad bd
       0.00073644135 0.01873994 0.0054141283 -0.084599145
000140 69 af b8 bd f9 e9 8b bd 6b 8e 89 bd 64 24 c6 bc
       -0.09017832 -0.06831736 -0.06716617 -0.024187274
000150 85 16 b9 bd d8 55 25 bd c6 c1 71 3d d8 03 55 3d
       -0.090374984 -0.04036507 0.059022687 0.05200562
000160 84 38 59 bd 27 65 6f 3d 19 3b 3c bd 22 ec cb bd
       -0.053032413 0.058446076 -0.045954797 -0.09957148
000170 f9 df b4 3d 10 47 94 bc d0 88 f6 bb a1 3b 16 3d
       0.08831782 -0.018100291 -0.0075236335 0.03667796
000180 cf 15 ad 3d 10 bb 8d 3c e5 e3 c9 3d 19 65 4f bd
       0.08451425 0.017301112 0.098579206 -0.050633524
000190 3c 9a 3e 3d 52 6c 8b bc 25 65 d2 3b 5c 29 53 3d
       0.046533808 -0.017019425 0.006420749 0.051553115
0001a0 c7 3b 79 3d e2 e5 87 bd b1 be aa bd 49 eb bd bc
       0.060848024 -0.066356435 -0.08337153 -0.023183482
0001b0 9d 22 9c bd 80 ba 22 bd 9a 38 22 bd 7e b7 31 3d
       -0.076237895 -0.03972864 -0.03960476 0.043387882
0001c0 86 6f 87 3d c4 30 ea bb 0b b0 61 bd fd 08 53 bc
       0.06613068 -0.0071469266 -0.05509953 -0.012880561
0001d0 8e 7f 78 3d 8c 18 8d 3d 62 c0 8b bd af fe b7 3d
       0.06066852 0.068894476 -0.068238035 0.08984124
0001e0 f6 42 b8 bd e7 a4 ab bd 2b 89 e9 bc 42 25 86 3d
       -0.08997147 -0.08381062 -0.02850779 0.06550075
0001f0 56 d8 0d 3d b1 66 cd bb 5f aa f7 ba 4a 69 a1 3d
       0.034630142 -0.0062683453 -0.0018895379 0.078814104
000200 8c 6e d5 bc 89 57 d3 3c fe 4b 83 bd 93 f6 82 bc
       -0.02605369 0.025798576 -0.06410979 -0.015986716
000210 86 32 28 bc db 10 5f bd 29 72 af 3d f3 8f 8b 3d
       -0.010265952 -0.054459434 0.08566696 0.068145655
000220 1e d8 bd 3d 08 da c6 3d 87 e0 a1 3c 49 9a 4d 3a
       0.09269737 0.09709555 0.019760383 0.00078431197
000230 2f 63 a1 bd 6e a2 bc 3d 5e 73 8b bd c3 3c ab bc
       -0.07880246 0.092106685 -0.06809114 -0.020902997
000240 24 6a 19 bd 75 73 36 bb f8 37 ca 3c be ac b7 bd
       -0.03745474 -0.0027839814 0.024684891 -0.08968495
000250 60 7a 55 3d 56 43 4f 3d 77 67 97 bc e9 3c 6a 3d
       0.05211866 0.050601326 -0.018481953 0.057186995
000260 7d a7 5a 3d 68 12 24 3d 8a 4c 7e 3d 3f c1 39 bd
       0.053382386 0.040056616 0.062084712 -0.04535031
000270 b9 62 ed 3b 4a c6 95 3c 15 45 8c 3d 2d 6d 25 bd
       0.0072444347 0.018283028 0.06849114 -0.04038732
000280 ac cd 06 3c b0 94 2b 3d 83 bd 5b bd ba 49 ab bd
       0.008227747 0.041889846 -0.05364753 -0.083636716
000290 b9 06 a2 bd fa ad 41 3d e2 94 1b 3d 8d be fd 3b
       -0.079114385 0.047285058 0.037983783 0.0077436627
0002a0 12 41 9d 3d 19 93 d8 3d 91 89 2f bd fd d5 d1 bb
       0.07678427 0.10574932 -0.042855803 -0.006403683
0002b0 07 24 ff bc 3d 4b 86 bd 00 89 3f 3d 21 ce 0c bd
       -0.031145109 -0.06557319 0.046761513 -0.034376267
0002c0 1f 23 ab bd 8e 8d c3 bd 23 60 a7 bd 12 4c ea 3c
       -0.08356308 -0.09548484 -0.081726335 0.028600726
0002d0 63 ad c2 bd 74 51 45 bd d0 61 6a 3c 5a 5d 2c bc
       -0.09505727 -0.048173383 0.014305547 -0.010520304
0002e0 87 74 8b bc cc 05 65 3d 74 9b 95 bc e0 b3 7c 3d
       -0.017023338 0.05591373 -0.018262602 0.06169498
0002f0 7a e0 ac bc c7 0f 88 bd 74 a1 b1 bd 42 5b 71 3b
       -0.021103133 -0.06643634 -0.08673373 0.0036828076
000300 01 7b 13 3d 6f 12 1a 3c 94 72 9c bc 4c 22 2c 3d
       0.036005978 0.009403809 -0.019097604 0.042024896
000310 c4 67 98 3c ef 20 30 3d 25 3d a0 bd f2 73 34 bd
       0.018604167 0.043000158 -0.078241624 -0.044055887
000320 0b 5c e3 3c ee 37 cd 3c db d1 16 3d 1f 9b dd 3d
       0.02775385 0.025051083 0.036821228 0.108206026
000330 51 58 b1 3d 86 33 99 bd f3 9c b0 3d cf 42 a8 3d
       0.08659423 -0.074805304 0.08623686 0.08215868
000340 a5 34 56 3d 18 ae 8e bc 30 fb 09 bc 67 aa e0 3c
       0.0522963 -0.017416999 -0.008421704 0.027425004
000350 c2 05 18 3d eb cf 40 bd d0 d6 8b 3c a7 b8 a4 3d
       0.037114866 -0.047073286 0.017070204 0.08043032
000360 49 30 e2 3d 15 5f ee 3c 94 05 87 bd ba 91 b7 bd
       0.11044366 0.029098073 -0.06592861 -0.08963342
000370 e0 d8 b2 bd 64 7f fa bc 17 92 c9 3c c2 a6 88 bc
       -0.08732772 -0.030578323 0.024605794 -0.016681079
000380 6a 07 76 3d cb 45 d3 bc 8f fc c4 3d 96 3c 90 3d
       0.060065664 -0.025790116 0.09618484 0.07042806
000390 01 15 3d bd 46 08 35 3c 1c 6f 86 3a f8 ed b1 bd
       -0.04616261 0.011049336 0.0010256502 -0.08687967
0003a0 e2 1d a3 3d a3 2c 91 3d 59 34 11 bd 93 e7 a7 3d
       0.07964684 0.07088592 -0.035450313 0.08198466
0003b0 53 2c 03 bc 38 ef 7d bc 38 2e e9 bd 6c 76 4b 3c
       -0.008006173 -0.015498929 -0.11385769 0.012418371
0003c0 ac 99 53 bd a0 94 bd bd e0 c0 7b bd 91 d7 97 bd
       -0.051660225 -0.092568636 -0.061463237 -0.07414163
0003d0 00 b0 98 3d c3 62 7c 3c 82 d4 b8 bd a1 ee 73 3c
       0.07455444 0.015404406 -0.09024908 0.0148884365
0003e0 c7 55 c9 bc 29 a3 23 bd 53 42 a0 bd e6 42 87 bd
       -0.024577035 -0.039950524 -0.0782515 -0.06604557
0003f0 9f 1d 80 3d 03 23 ba 3c 7b ab a3 3d df db d0 3d
       0.0625565 0.022721773 0.07991692 0.10198187

mlp2.0.bias f4 [100]
000000 b2 98 9f bd 8f 15 78 3d 6a 4f bf 3d 1e 90 45 3d
       -0.07792796 0.060567435 0.09341319 0.048233144
000010 7a af 7e 3d 1b 90 ca 3d 5b e3 35 bd 0e 9f 8f bd
       0.062179066 0.09890767 -0.044406276 -0.07012759
000020 b5 90 96 bc 8b 85 56 3d f9 9f b4 bc 32 4e b1 bd
       -0.018379549 0.05237345 -0.022048937 -0.08657493
000030 46 0c d0 bc f9 d4 f2 ba 44 7a 5e bd df 49 88 3d
       -0.025396477 -0.0018526606 -0.05431582 0.06654715
000040 af c8 8d bd 12 03 1d 3d 0b 47 44 bd 5a bc a3 bd
       -0.06923043 0.038333006 -0.047919314 -0.079949096
000050 b8 5a 9c 3c e3 66 8a 3d 2d f7 0e 3d 40 bf bf 3d
       0.019086227 0.06757905 0.034903694 0.0936265
000060 bc 70 86 3d af a9 ca bd db c9 e1 bc 5d 74 aa 3d
       0.06564471 -0.09895646 -0.027562073 0.08322976
000070 8b c8 26 3d e0 f2 63 bd 85 96 c8 3d e0 69 b0 bc
       0.040718596 -0.055651546 0.09794334 -0.02153486
000080 f4 e6 89 bd 63 d3 32 bd 53 12 b3 bc 28 65 83 bd
       -0.06733504 -0.043658625 -0.021859324 -0.064157784
000090 77 3c 4b bc 3f 69 d2 3d 28 f9 04 3c 5f 08 2e bd
       -0.012404553 0.1027398 0.008116044 -0.042488452
0000a0 0d 16 a9 3d de c8 93 bd 18 9f 8a 3a a3 a9 43 3d
       0.08256159 -0.07216047 0.0010575978 0.0477692
0000b0 2d dc b7 bd 87 6a c8 3d 00 1a 49 bd ee fd 56 3d
       -0.08977542 0.097859435 -0.04909706 0.05248826
0000c0 a6 49 3c bd 9f eb f8 bc c3 f0 e6 3c 40 09 dc 3d
       -0.045968674 -0.03038579 0.028190976 0.10743952
0000d0 7b 1b ca 3c d0 53 1b 3d 05 d4 08 3c 74 d5 b0 3d
       0.024671307 0.037921727 0.008351331 0.08634463
0000e0 c3 ac ab 3d 8a ed f9 3c db 55 b5 3c ce bd 8b bd
       0.08382561 0.030508775 0.022135666 -0.06823312
0000f0 9c 4d e8 3d ad 28 11 3d e0 44 1c bc 07 34 40 3d
       0.11342928 0.035439182 -0.009537905 0.046924617
000100 3e 64 9e bd fc f2 78 bd 91 0e 0d bd 32 82 8e bd
       -0.077339634 -0.060778603 -0.03443772 -0.069584265
000110 a2 81 6b 3c d5 b3 aa bd 68 49 1d 3d 5c a7 ba bd
       0.014374169 -0.083350815 0.038400084 -0.091139525
000120 bf 45 cc 3b d3 81 11 3d d6 8c 89 3c 0a c8 a3 bb
       0.0062339003 0.0355242 0.016790789 -0.0049982117
000130 84 7d 82 3b 92 d3 8d 3c bb 0d 07 bc 7e 69 0f bc
       0.003982248 0.017312799 -0.00824302 -0.008753179
000140 90 11 cb bd 31 66 54 3d 3a 64 c8 bc 72 fb d1 bd
       -0.09915459 0.05185527 -0.024461854 -0.102530375
000150 d9 5e a8 bc 81 16 80 bd 54 79 c7 bb 54 50 78 3d
       -0.02055304 -0.06254292 -0.0060874615 0.060623482
000160 6b 08 85 bd ea b5 81 bc cb f0 ad bd e3 7b 0a bd
       -0.06495746 -0.015833814 -0.08493193 -0.033809554
000170 cb 9c 13 3d 13 a2 2a bd 00 1a 79 3d f2 b4 07 3d
       0.0360382 -0.041658472 0.06081581 0.033131547
000180 6b fe 26 3d e0 a5 e9 3c df ae 27 3d 91 ea ba bd
       0.040769976 0.028521478 0.040938254 -0.09126771

mlp2.2.weight f4 [50, 100]
000000 a6 b2 96 3d 09 26 b2 3d bd 30 93 bd 93 0b 36 bd
       0.07358293 0.08698661 -0.071870305 -0.04444463
000010 03 06 2c 3d 3c 4d b3 bd 95 3e b7 3d ba 44 ca 3d
       0.04199792 -0.08754966 0.089474835 0.0987639
000020 1f ce 71 bd e2 0a 88 3d a3 58 63 bd 5a 92 bd bc
       -0.059034463 0.06642701 -0.055504452 -0.023141075
000030 36 e3 af 3d 9d 7d f0 bc 11 37 d0 3b c7 4b cd 3c
       0.08588259 -0.029356772 0.0063542207 0.025060548
000040 88 57 95 bd 9f 08 0a 3d 6f 03 a9 3b 49 28 db 3c
       -0.07292086 0.033699628 0.00515788 0.026752608
000050 0c c9 5c bd 8b 68 d7 3d 7a 61 c6 bd 1a a1 d6 bd
       -0.05390267 0.10517987 -0.09686561 -0.104799464
000060 b6 07 40 bd 95 29 61 3d f2 42 4c 3d 9b 9e 05 bd
       -0.046882354 0.054971296 0.04986853 -0.03262196
000070 55 0a c8 bc bb e4 00 3d f2 aa 01 3d 33 61 da bb
       -0.02441899 0.031468134 0.031657167 -0.006664419
000080 ad bf 24 3d ec cc 24 bd 9e 89 8a 3d 81 db 90 bd
       0.04022186 -0.04023449 0.0676453 -0.07073117
000090 1b de 52 3c 86 6b 2b be dd 25 9c 3c 36 28 07 3d
       0.012870337 -0.16740236 0.019061023 0.032997333
0000a0 7d 04 ae bd 28 0c 9a 3d 3f ad 89 bd cd fb 64 3a
       -0.0849695 0.0752185 -0.06722497 0.0008735031
0000b0 dc e2 29 bc 0e e4 07 3a f5 ff 18 bc 0e 44 ee 3c
       -0.010369029 0.0005183824 -0.009338369 0.029085185
0000c0 ea 69 c8 3c 2a b0 e8 3c 61 95 36 3d 92 d0 0f bb
       0.024464566 0.028404314 0.044576053 -0.0021944386
0000d0 24 4a a2 ba d2 15 c3 3d 0c 37 8b bd 71 c8 f5 bc
       -0.0012381715 0.09525646 -0.06797609 -0.030002804
0000e0 4c c5 43 bd 79 0f bf 3d 86 a2 43 3d 3b 61 66 3d
       -0.04779558 0.09329123 0.047762416 0.05624507
0000f0 c1 e5 0a be d1 13 a3 3d c8 69 9b bd 4e fb ad bd
       -0.13564207 0.07962764 -0.075885355 -0.08495198
000100 e9 75 90 3d ec 3b 31 3d cd 1a 95 3d 63 90 43 bd
       0.070537396 0.043270037 0.072805025 -0.04774512
000110 61 9e 91 bc a1 8f 46 bd 92 af 14 3d 58 44 2a 3c
       -0.017775716 -0.04847682 0.03630025 0.010392271
000120 d6 11 e3 bc 17 c2 59 bd d3 d6 c6 3c 84 67 a3 bd
       -0.027718466 -0.053163614 0.024272358 -0.079787284
000130 b3 a4 1c 3d 48 f4 1a bb 71 ca b1 bd 5b 5c ac 3c
       0.038243007 -0.0023644138 -0.08681191 0.021040132
000140 59 21 b2 3d 4c 93 d7 3a aa e1 9a 3d f7 c1 10 3d
       0.08697767 0.0016447096 0.07562573 0.03534123
000150 ac 11 1d bd d6 87 98 bd 0a e6 bd bb d6 d0 f3 bd
       -0.03834693 -0.07447784 -0.005795245 -0.11905067
000160 b1 64 85 bd 27 6b 31 bd 05 29 3a 3d bc 5f 23 bd
       -0.06513346 -0.04331508 0.045449276 -0.03988622
000170 92 c4 4c bd c5 74 6d 3d 01 f1 05 3c ee 17 8d bc
       -0.04999215 0.05797269 0.008175136 -0.017223325
000180 11 b7 3a 3c 65 5c 01 3c 5f 79 b3 3d fd 40 8b bc
       0.0113961855 0.007895564 0.08763384 -0.016998762
000190 b4 b4 df 3c 76 80 4a bd e9 26 a3 3c 24 24 27 3c
       0.027307846 -0.049438916 0.019916015 0.010201488
0001a0 f2 ae 28 3d 49 46 a8 bd 17 60 8c 3d 4b c4 49 3d
       0.041182466 -0.08216531 0.06854265 0.049259465
0001b0 2a 51 70 3d 93 78 92 bd 8c e1 ca bd f7 1a 64 3d
       0.058671154 -0.07151904 -0.09906301 0.05568978
0001c0 ed 8b 6d bd 65 c3 b4 3d 0b 36 c1 bd 32 a6 cf 3d
       -0.05799477 0.08826331 -0.09434136 0.10139121
0001d0 72 6d 8b 3d 20 3a b5 bd 97 2f 6d bc e9 03 85 bd
       0.068079844 -0.08848977 -0.014476678 -0.064948864
0001e0 94 ff cd 3d 00 aa b8 bd c4 f9 32 3d 85 6f a0 bc
       0.10058513 -0.090168 0.043695226 -0.019584427
0001f0 8f dc b7 bd cd a4 a5 bc ab cd a4 bd de 62 ad 3d
       -0.08977615 -0.020220185 -0.080470406 0.08466123
000200 18 71 c2 3d b9 85 a4 bd 40 5a 6e bd 17 6a 47 3c
       0.09494227 -0.08033318 -0.058191538 0.01217129
000210 28 ed a6 3d c0 3e 1a bd 1b e8 28 3d f5 fe 02 38
       0.08150703 -0.0376575 0.041236978 3.1231863e-05
000220 62 e3 72 bd c1 c0 9f bd 48 f6 8b 3d ab fc eb 3c
       -0.05929888 -0.07800437 0.06834084 0.028807005
000230 fd 28 af bd 9f a2 d8 3c f6 10 9e bc fd 9a 5d 3d
       -0.0855274 0.026444731 -0.019295197 0.054102886
000240 71 f7 88 3a ea a6 8e 3d a9 6c df 3c b5 fb c5 bc
       0.001044972 0.0696543 0.027273493 -0.024167875
000250 77 13 77 bd 1d 66 4c bd c5 09 97 3d dc d5 39 bd
       -0.060321297 -0.04990207 0.0737491 -0.045369968
000260 d4 09 78 bc 85 86 86 bd 46 c0 5d 3d 54 ed 99 3d
       -0.015139062 -0.06568626 0.054138444 0.0751597
000270 f9 73 e8 bb 61 39 56 bd e2 45 e1 bc 1e 5e 45 bc
       -0.007093903 -0.052300815 -0.027499143 -0.012046365
000280 2c c8 4d 3d 8a 4d 35 3d ff 15 46 bc 9b e3 4f 3d
       0.050239727 0.0442634 -0.012090205 0.05075417
000290 b4 a4 a4 bd ab fd c6 bb 28 4b cf bc 5e 4e b6 3c
       -0.08039227 -0.00607272 -0.025304392 0.022254165
0002a0 3f 98 d6 bc 01 14 1e bd 52 31 ce 3b cc 6e 1d 3d
       -0.026195643 -0.038593296 0.0062925005 0.038435742
0002b0 75 2f a9 bd 4e 47 8f 3d 4e ed 16 3d 55 98 75 3d
       -0.08261005 0.06996022 0.036847405 0.05995973
0002c0 c5 20 96 bd 7e 17 61 bc c0 d5 ac 3d 7a f0 04 bd
       -0.07330469 -0.013738511 0.08439207 -0.0324559
0002d0 ef 06 c8 3d a6 39 a1 bd 47 5c 8e 3d d9 0c 7a 3c
       0.097669475 -0.07872324 0.06951194 0.015261852
0002e0 49 9b 10 bd 57 6d b5 bd 4a 2d 23 bd 97 ef fb 3b
       -0.03530434 -0.088587455 -0.039838113 0.0076884734
0002f0 00 7f d2 3d ba bb 89 b9 7e 31 09 bd d5 8f 97 3d
       0.102781296 -0.00026270543 -0.033494465 0.07400481
000300 c0 03 3a 3d f8 13 8d 3d 3b 69 ad bd f2 34 ab bc
       0.045413733 0.06888574 -0.08467337 -0.02089927
000310 0c a6 00 3b 6b 94 b1 3c 75 2c 58 3d bd 20 b0 3d
       0.0019630222 0.021677217 0.052776773 0.08599994
000320 f2 65 9f bc a3 39 e1 bb 17 8d 0f bc 5b ff 20 bd
       -0.019457791 -0.006873326 -0.008761666 -0.039306026
000330 4e b2 08 bd 12 2e 1c 3c 3e 77 2c 3c 86 8f d5 3c
       -0.03337317 0.009532468 0.010526476 0.026069414
000340 f9 c6 bd bd 29 3b 54 bd e4 fe 52 3d 43 73 b1 bd
       -0.09266467 -0.051814232 0.051512614 -0.086645626
000350 6e 23 9d 3d 33 9d ba bc cf dd fe bd 0d 64 ce bb
       0.07672773 -0.022780037 -0.124446504 -0.006298548
000360 21 6d e6 3c b3 78 74 3d e9 2e ad 3d 62 83 fb 3c
       0.028128209 0.05968542 0.08456213 0.030702297
000370 1f cd 85 3d 8b a9 49 bd 8d 44 e0 bc a2 2d d4 3d
       0.06533264 -0.049233954 -0.027376438 0.10360266
000380 e2 10 95 bd 64 e9 3a 3d 2a 22 69 3d 6f 5f a8 3d
       -0.07278611 0.045632735 0.056917347 0.082213275
000390 da 21 b0 bc 1a 54 3e bd ec 2b 69 3c 3f 63 ad bc
       -0.021500517 -0.046466924 0.014231663 -0.021165488
0003a0 f8 e0 2c 3a 08 a9 1b ba 8d 87 8c 3d c8 81 4b bd
       0.0006594802 -0.00059379684 0.06861792 -0.049684316
0003b0 87 c1 5a bd ac 8f fa bb 70 47 11 bd 3a 43 94 bd
       -0.05340722 -0.0076465216 -0.03546852 -0.07239385
0003c0 12 09 6b bd 7f 97 d3 bd ca 6d 00 3d 89 96 8e 3d
       -0.057381697 -0.1033163 0.031354703 0.06962306
0003d0 e6 3d 44 3d 1f 77 97 bd 9e ca 71 3c 7b cb 9e bd
       0.047910593 -0.073957674 0.01475778 -0.077536546
0003e0 23 da 35 bd d0 8f bb 3b 14 25 0f 3d bd c8 9f 3d
       -0.044397485 0.005723931 0.03494747 0.0780196
0003f0 54 2b 79 3d 09 5c 74 bc 90 1c 63 bd f7 8a ed 3d
       0.060832337 -0.014914521 -0.05544716 0.11598771

mlp2.2.bias f4 [50]
000000 88 30 4f bd f9 d0 a5 bd 3f 90 06 3d 8d ce 01 bd
       -0.050583392 -0.08096499 0.032852408 -0.031691123
000010 91 fa f4 3b 02 ac 2b 3c 20 d2 8c bd 9d f5 38 bc
       0.007476159 0.010478022 -0.06876016 -0.0112890275
000020 70 25 cb 3d 2b 3e 7c bd 87 a1 7d 3c 5f e2 28 3d
       0.0991925 -0.061582725 0.015480406 0.04123151
000030 73 2b ec bc e2 b9 c1 bd 6e 84 e4 3d 53 06 5d 3d
       -0.028829312 -0.094592825 0.111580715 0.05396111
000040 74 e0 49 3d af 95 59 3d 35 59 ac 3d 74 f9 b4 bc
       0.04928632 0.053121265 0.084154524 -0.022091605
000050 ed de d9 bc 6f d0 71 bd 6f 72 ca bc 69 fe bf bd
       -0.026595557 -0.05903667 -0.02471277 -0.09374697
000060 2b d5 a4 3c a0 7d e4 bc 87 e4 85 bd 94 8f 4b 3d
       0.020121178 -0.027891934 -0.06537729 0.049697474
000070 b0 4b bd bd 18 4b ab 3d 22 fe 3e 3d 03 f6 06 bd
       -0.09242952 0.08363932 0.04662908 -0.03294946
000080 e0 59 a8 bd 54 c3 b8 3d 3e 98 93 bb a6 1d 5d 3c
       -0.08220267 0.09021631 -0.0045042327 0.013495838
000090 31 65 98 3d f2 5a 6f 3d 00 6a 99 bc 1a 34 67 3d
       0.07441176 0.05843634 -0.018727303 0.056446172
0000a0 67 0c ba bd d1 23 ac 3d 9b e9 c0 3d 66 36 7e 3d
       -0.09084397 0.08405269 0.09419557 0.062063597
0000b0 2c ee 17 3c 50 eb a0 bd a2 b7 09 3d e4 37 3b bd
       0.009273093 -0.07857382 0.03362239 -0.0457076
0000c0 ed 2c f5 bd e5 a8 69 bd
       -0.119714595 -0.057045836

attention.0.weight f4 [100, 200]
000000 98 40 fa bc 9d 6a fc bb 3a 26 f0 bb a8 c7 ed bc
       -0.030548379 -0.007703139 -0.0073287757 -0.029025868
000010 91 24 79 bd 53 5f 55 3d a8 e2 bb bb d2 60 de 3c
       -0.060825888 0.05209286 -0.0057338066 0.027145777
000020 96 27 66 39 28 b5 f6 3c 9e d7 e7 3c ce 43 db 3b
       0.00021949256 0.030115679 0.028301056 0.0066914326
000030 c9 e3 31 bc d7 18 8c 3d af 75 9b 3c bf e5 50 bd
       -0.010857531 0.06840675 0.018977014 -0.051000353
000040 62 78 0d 3d 67 dc 15 bd 18 f2 c4 3b 80 0b 49 bb
       0.034538634 -0.036587145 0.006010305 -0.003067702
000050 59 2f ad 3c ae 71 68 3d fa 21 ac bc 11 ec 55 3d
       0.021140741 0.05674904 -0.021012295 0.052227084
000060 99 e8 53 bd 11 9d 4b 3d d3 e8 d4 bc 10 b7 f1 bc
       -0.051735494 0.049710337 -0.025989925 -0.029506236
000070 e6 c9 ce 3c 52 b5 85 3d 00 be 8a 3d 11 63 3c 3d
       0.025242757 0.06528725 0.06774521 0.045992915
000080 e1 18 c5 3d 52 d3 8e bd eb 35 69 bd 09 ac 8f 3c
       0.09623886 -0.069739 -0.056936186 0.017538087
000090 d5 52 2a bc be 14 f9 ba 55 0e 8c 3c 50 db 0e bd
       -0.010395725 -0.0019003374 0.017096678 -0.03487712
0000a0 3b e0 f5 bc 4c 05 12 3d 77 24 01 3c 51 4c 57 3d
       -0.030014148 0.035649583 0.007882229 0.052563015
0000b0 15 4a a9 3d db 7d 0a bd f0 16 31 3c 87 42 81 3d
       0.08266083 -0.03381143 0.010808691 0.06311517
0000c0 26 1a 9e 3d 2c df 18 3d b9 38 8e 3d 4b c3 73 3d
       0.07719831 0.03732221 0.06944413 0.059512418
0000d0 44 a0 62 3d 88 ba a9 3b 2b a1 83 bd 3e 38 e0 bc
       0.055328622 0.005179707 -0.06427225 -0.027370568
0000e0 64 58 0a 3d 8f f3 50 3d 8f 90 71 bd cc 3c 9e 3d
       0.033775702 0.051013526 -0.058975752 0.0772644
0000f0 bd 07 0b bd 95 d5 85 3d 14 a2 ab bc 40 f6 d1 3c
       -0.033942927 0.06534878 -0.020951308 0.025630116
000100 79 d5 ec 3c 83 a9 84 3d e9 d3 ae bc b5 16 8a 3d
       0.028910385 0.06477644 -0.021341281 0.06742612
000110 1e 8e ea 3b 1e 5f f9 bc fc d2 3b 3d e3 1f 84 3d
       0.007158055 -0.030440863 0.045855507 0.064513944
000120 26 22 8e bc d8 67 96 3b 60 c5 22 3d 66 a5 84 3d
       -0.017350268 0.004590016 0.039739013 0.0647686
000130 2d 12 2b bd b4 bd 8b 3d cb 3b c0 39 00 8a 58 bc
       -0.04176538 0.068232924 0.00036665643 -0.0132164955
000140 fd c0 81 3d 47 37 25 bd 81 61 04 bd 81 2c d1 bb
       0.06335638 -0.04033592 -0.03231955 -0.006383479
000150 80 ec 6d 3d 14 1a ff bc b8 01 07 3d 58 be 88 3d
       0.058086872 -0.031140365 0.032960624 0.0667693
000160 83 31 65 3d 19 36 9e 3d 31 fd 68 3d fd ca 22 bd
       0.05595542 0.07725162 0.056882087 -0.039744366
000170 e0 4c 6b 3d 05 31 4a 3d c6 62 76 3d ab 25 97 3d
       0.05744636 0.049363155 0.06015279 0.073802315
000180 5b f9 2e bd 30 35 6d bd 9a 86 8a bd 86 f5 1c bb
       -0.042718273 -0.05791205 -0.067639545 -0.0023950054
000190 bc e2 71 3d 7e d6 1e bd e8 0a 21 bd 69 bd 78 3b
       0.05905412 -0.038778774 -0.03931704 0.0037954694
0001a0 f2 df 5b bd a8 b4 d6 bc 59 19 8d 3d 9e 46 34 bd
       -0.053680368 -0.02620919 0.068896 -0.04401266
0001b0 9a d0 59 bd a2 85 31 3d 80 4d 5c bc 44 57 e7 ba
       -0.053177454 0.043340333 -0.013446212 -0.0017649909
0001c0 9e de 37 bc 02 dc c4 3c 7f 08 b9 bc 79 cb cf 3c
       -0.01122251 0.02403069 -0.022587059 0.025365578
0001d0 90 19 2a bc b2 1e c7 bc 50 fe e7 3c 50 c8 d5 3c
       -0.010382071 -0.024306629 0.028319508 0.026096493
0001e0 d9 fa 8f bc 32 d4 c3 3b c4 59 7b 3c 3c 5d 31 bd
       -0.017575668 0.0059762234 0.015341226 -0.043301806
0001f0 30 7f 10 bd c5 8d 5a 3d a7 62 43 bd 20 c7 2e 3c
       -0.035277545 0.05335786 -0.047701504 0.010667592
000200 1f 84 ba bc d5 77 b5 3b 64 37 a2 ba ba 3e 4f 3c
       -0.022768078 0.0055379667 -0.0012376127 0.0126492325
000210 d8 4a b2 bc d3 7d 83 3d 04 34 74 3d 74 29 ee bc
       -0.021764204 0.064204834 0.05961992 -0.0290725
000220 e2 8e 42 bd e4 db 8f bc bc b3 2c bd a7 7b b3 bc
       -0.047499545 -0.017560907 -0.042163596 -0.021909548
000230 be 4d 8e 3d 87 99 57 3c 17 8e 04 bc c1 44 94 bc
       0.06948422 0.013159162 -0.0080905175 -0.01809919
000240 e1 dc 89 bd 18 84 43 3c b6 25 40 bc 53 03 32 bc
       -0.067315824 0.011933349 -0.011727741 -0.01086505
000250 2e 4e 4b 3d 7e 71 50 bd 73 50 39 3d a8 95 fc 3c
       0.049635105 -0.050889485 0.045242738 0.03083308
000260 7f d9 dc 3b 37 22 37 bc 68 70 40 3c 8d ce 8a bc
       0.0067397947 -0.011177591 0.01174555 -0.016944194
000270 31 96 07 3d 97 59 37 3d 22 22 1e bd 83 22 04 3d
       0.033102218 0.044763174 -0.03860677 0.032259475
000280 92 44 8a bd 55 2c 97 bc 56 ed 41 3d 05 f1 81 3d
       -0.0675136 -0.018453756 0.04734548 0.06344799
000290 00 a1 87 3d 5a f8 04 3d 81 09 33 3d d2 f8 80 bd
       0.06622505 0.03246341 0.043710236 -0.06297459
0002a0 18 dd 58 3d 7b 69 e9 3c 9d ba a9 bc 5d 66 5f 3d
       0.052945226 0.02849268 -0.020718867 0.05454098
0002b0 c3 d2 8c 3d 84 01 de bc 86 06 60 3c 36 68 f6 3a
       0.06876137 -0.027100332 0.01367343 0.0018799368
0002c0 ed 8b 4e 3a c4 59 73 3c 88 59 55 bd cf 39 4a 3d
       0.0007879127 0.014852945 -0.052087337 0.049371537
0002d0 68 52 43 bd 55 88 7a 3d 2f 8f 79 bd f7 f5 93 bc
       -0.04768601 0.061165173 -0.060927566 -0.018061621
0002e0 25 41 84 bb e1 a6 63 bc db 69 a6 3c 38 2d 79 3d
       -0.004036086 -0.0138947675 0.020314148 0.06083414
0002f0 3c e2 2a bd 6d 07 08 bd e7 6d 01 bc 67 58 63 bc
       -0.04171966 -0.033210207 -0.007899738 -0.013876057
000300 f1 54 74 3c c3 99 6c bb f6 32 06 3d fa 2e e9 3c
       0.01491283 -0.0036102391 0.032763444 0.028464783
000310 70 c4 a9 bc 82 45 20 3d a4 44 9c 3c a9 87 73 bd
       -0.020723552 0.039128788 0.0190757 -0.059455547
000320 24 94 9d 3c c0 3d 9b 3d 38 2d 49 bd 0e b1 ad 3c
       0.019235678 0.07580137 -0.04911539 0.02120259
000330 f9 a5 8b bd a3 14 e0 bc a2 11 b4 bc ef 0e fe ba
       -0.06818766 -0.02735359 -0.021981064 -0.0019383113
000340 fd 9e 86 3d c6 11 b8 bc 27 f6 a6 bc eb d4 8b bc
       0.06573293 -0.022469413 -0.020381046 -0.0170693
000350 3c 4d 78 bd 1d 7a e4 bc f4 21 32 bd a6 c4 4d bd
       -0.06062053 -0.02789026 -0.04348941 -0.050236367
000360 62 dd da bc 40 c3 67 3d 9a 54 8d 3d 04 db bc 3c
       -0.026716892 0.05658269 0.06900902 0.023053654
000370 f3 df 42 bb 88 87 f2 bc 87 79 2b bd cd 62 10 bd
       -0.0029735535 -0.029605642 -0.041863944 -0.035250474
000380 90 e3 25 3d 86 57 4e 3c e6 36 4b bd d0 4f bb bb
       0.040500224 0.012594109 -0.049612902 -0.0057163015
000390 46 27 7a 3d 6e d3 3a 3d d9 6c 77 3d b7 95 0e 3d
       0.06107261 0.04561179 0.06040654 0.034810748
0003a0 6c c3 0b 3d 8f 7b 79 3d a5 98 9d 3c fc 54 9a 3a
       0.034121916 0.06090885 0.019237826 0.0011774595
0003b0 39 0e 1a bd 7b 1d 2a 3d 3a 52 57 bd 7c e5 36 3d
       -0.03761122 0.04153202 -0.05256865 0.044652447
0003c0 cb 1e 05 3d d4 2f 07 bc 5d a6 4a 3d 39 1d 25 3d
       0.03250007 -0.008251149 0.049475063 0.040311072
0003d0 6b d9 a6 3b 2e 45 2d bb 15 92 c7 39 d5 9d b3 b9
       0.005091836 -0.002643894 0.00038065077 -0.00034259135
0003e0 3f 94 23 3d 39 d5 5e bd 5b b9 1e 3d 86 eb 96 3c
       0.0399363 -0.054402564 0.038750987 0.018422853
0003f0 af 97 e3 bc b8 c3 51 3d 66 a3 79 3d 48 4b be bc
       -0.02778229 0.051212043 0.060946845 -0.023229256

attention.0.bias f4 [100]
000000 4d ff df 3b 90 fb 12 bc b6 6b b0 bc 8a 5b 06 3c
       0.006835854 -0.00897111 -0.021535736 0.008200536
000010 66 96 21 3d 55 f8 81 bd 89 2b 93 3d b0 18 78 3d
       0.03945007 -0.06346194 0.07186038 0.06057042
000020 5f b2 d1 bc 68 b6 5c 3d eb 21 82 bd e9 10 5c bc
       -0.02559775 0.053884894 -0.063541256 -0.013431766
000030 4d ac c2 bc 26 44 09 bd 92 c3 1f 3d bf e6 58 bd
       -0.0237638 -0.033512257 0.03900487 -0.05295443
000040 36 fc 79 3d 2e f0 0f 3b aa f6 0d bc e4 23 c2 3c
       0.061031543 0.0021963227 -0.008664766 0.023698755
000050 03 ae d2 bb b1 49 c3 bc 4d 35 69 3d 2a 2e 7e 3d
       -0.006429435 -0.02383885 0.056935597 0.062055744
000060 b1 23 2a bd 1d 3c 2c bd 68 9a d9 3c 4c 9d 88 3d
       -0.041537944 -0.042049516 0.026562884 0.06670627
000070 85 f0 6f 3d 21 67 09 bd 74 02 48 3d 45 75 2e 3d
       0.058578987 -0.033545617 0.048830464 0.042592306
000080 66 43 63 3d 72 b3 86 3d 85 30 f9 3c 9a f7 7a bd
       0.055484198 0.06577195 0.030418644 -0.061271288
000090 43 b0 3e bd 96 1a 07 bd 4c 41 8a bd 03 cb 1d 3d
       -0.046554815 -0.03298434 -0.06750736 0.038523685
0000a0 5b cf 77 3c df 62 5c 3d d9 41 ba bb 3c 59 6f 3d
       0.015125121 0.05380523 -0.005684119 0.05843471
0000b0 06 66 3f 3d b9 ef e0 3a e7 da 1d 3d b7 9c 5f bc
       0.046728157 0.0017161287 0.03853884 -0.013648204
0000c0 62 70 99 3d 73 41 58 bd 83 78 1a 3d ff 5e 25 3d
       0.074921384 -0.052796792 0.037712585 0.0403738
0000d0 4f e6 da bc 78 04 3e 3d d9 35 fd 3c c6 9b fb 3c
       -0.026721148 0.04639098 0.030909466 0.030713927
0000e0 b5 3a 5e 3d e5 bd 59 3c fb 3f ba 3c 50 e7 17 bd
       0.054255206 0.013289903 0.022735586 -0.03708583
0000f0 f1 ad 10 3d 93 bb 79 3d 7e 55 1f 3d e3 b4 5c bd
       0.035322133 0.0609699 0.03889989 -0.053883445
000100 dc fd e0 bc 03 f9 00 3d f1 59 8d 3d 03 58 1c bc
       -0.0274648 0.031487476 0.069019206 -0.009542468
000110 48 12 3c bd da c1 a9 bc 26 f1 94 bc 40 e4 b1 3c
       -0.04591587 -0.020722318 -0.018181395 0.021715283
000120 dd d5 79 3b 80 7e 47 bd 88 47 e8 3c ca 05 58 bd
       0.0038121857 -0.048704624 0.028354421 -0.052739896
000130 7b 2f f2 bc 45 66 1b bd 62 f1 6b bd 84 7f 21 bd
       -0.029563656 -0.03793933 -0.057603247 -0.03942825
000140 c8 b4 b4 3b 65 4d b9 3c c0 68 cb bc 08 c3 6d bd
       0.005514715 0.022619912 -0.024830222 -0.058047324
000150 63 a8 28 3d 8c b8 85 bd b2 97 24 3b 1d 6d 4b bd
       0.04117621 -0.0652934 0.0025114832 -0.049664605
000160 ea c9 75 3d 81 57 6c bd a1 6b 5f 3d 67 a6 96 3b
       0.060007013 -0.057700638 0.054546002 0.0045974734
000170 ac 33 00 bd a2 00 34 3c 33 49 1d 3d 31 f9 fe 3c
       -0.03129928 0.010986479 0.038399886 0.031124683
000180 a0 61 6b 3d 05 f4 e8 bc 2b f6 71 3b b8 0e 80 3d
       0.05746615 -0.02843667 0.003692041 0.062528074
